ST Edge AI Core v2.2.0-20266 2adc00962
Created date          : 2025-07-15 18:13:41
Parameters            : validate -m .\snn_mnist_quant_1000_1.tflite --target stm32n6 --mode target --desc serial:921600 --memory-pool ./mypool_N6.json -vi .\val_data_10.npz --classifier -v 3

Exec/report summary (validate)
------------------------------------------------------------------------------------------------------------------------------
model file         :   C:\ST\STEdgeAI\2.2\Projects\STM32N6570-DK\Applications\CM55_Validation\snn_mnist_quant_1000_1.tflite   
type               :   tflite                                                                                                 
c_name             :   network                                                                                                
compression        :   lossless                                                                                               
options            :   allocate-inputs, allocate-outputs, multi-heaps                                                         
optimization       :   balanced                                                                                               
target/series      :   stm32n6                                                                                                
memory pool        :   C:\ST\STEdgeAI\2.2\Projects\STM32N6570-DK\Applications\CM55_Validation\mypool_N6.json                  
workspace dir      :   C:\ST\STEdgeAI\2.2\Projects\STM32N6570-DK\Applications\CM55_Validation\st_ai_ws                        
output dir         :   C:\ST\STEdgeAI\2.2\Projects\STM32N6570-DK\Applications\CM55_Validation\st_ai_output                    
vinput files       :   C:\ST\STEdgeAI\2.2\Projects\STM32N6570-DK\Applications\CM55_Validation\val_data_10.npz                 
model_fmt          :   sa/sa per tensor                                                                                       
model_name         :   snn_mnist_quant_1000_1                                                                                 
model_hash         :   0xa2d9ce1838ed44735b8e28364f999627                                                                     
params #           :   796,022 items (777.40 KiB)                                                                             
------------------------------------------------------------------------------------------------------------------------------
input 1/1          :   'serving_default_keras_tensor0', f32(1x10x784), 30.62 KBytes, activations                              
output 1/1         :   'conversion_158', uint8(1x10), 10 Bytes, QLinear(0.003906250,0,uint8), activations                     
macc               :   8,053,869                                                                                              
weights (ro)       :   800,088 B (781.34 KiB) (1 segment) / -2,384,000(-74.9%) vs float model                                 
activations (rw)   :   52,000 B (50.78 KiB) (1 segment) *                                                                     
ram (total)        :   52,000 B (50.78 KiB) = 52,000 + 0 + 0                                                                  
------------------------------------------------------------------------------------------------------------------------------
(*) 'input'/'output' buffers are allocated in the activations buffer
 
 Memory-pools summary (activations/ domain)
 --------------- -------- -------------------------- --------- 
 name            id       used                       buffer#   
 --------------- -------- -------------------------- --------- 
 POOL_INTERNAL   0        50.78 KiB (5.0%)           157       
 POOL_NPU        unused   -                          0         
 POOL_EXT        unused   -                          0         
 weights_array   3        781.34 KiB (80008800.0%)   18        
 --------------- -------- -------------------------- --------- 
 Warning: ['POOL_NPU', 'POOL_EXT'] memory pool s not used

Model name - snn_mnist_quant_1000_1
------ ---------------------------------------------- ------------------- ----------------- --------- ------------------------------- --- ------------------- ------------------- ------------------------------------- 
m_id   layer (type,original)                          oshape              param/size             macc                    connected to   | c_size              c_macc              c_type                                
------ ---------------------------------------------- ------------------- ----------------- --------- ------------------------------- --- ------------------- ------------------- ------------------------------------- 
0      serving_default_keras_tensor0 (Input, )        [b:1,h:10,c:784]                                                                  |                     +15,680(+100.0%)    Conversion_[0]                        
       conversion_0 (Conversion, QUANTIZE)            [b:1,h:10,c:784]                         15,680   serving_default_keras_tensor0   |                     -15,680(-100.0%)    
------ ---------------------------------------------- ------------------- ----------------- --------- ------------------------------- --- ------------------- ------------------- ------------------------------------- 
7      tfl_pseudo_qconst4 (Placeholder, )             [b:1000]            1,000/1,000                                                   | -1,000(-100.0%)                         
       eltwise_7_const (Placeholder, MUL)             [b:1,c:1000]        1,000/1,000                                                   | -1,000(-100.0%)                         
------ ---------------------------------------------- ------------------- ----------------- --------- ------------------------------- --- ------------------- ------------------- ------------------------------------- 
8      slice_8 (Slice, STRIDED_SLICE)                 [b:1,h:1,c:784]                                                    conversion_0   |                                         Slice_[19]                            
       reshape_8_reshape (Reshape, STRIDED_SLICE)     [b:1,c:784]                                                             slice_8   |                                         
------ ---------------------------------------------- ------------------- ----------------- --------- ------------------------------- --- ------------------- ------------------- ------------------------------------- 
9      tfl_pseudo_qconst3 (Placeholder, )             [b:1000,c:784]      784,000/784,000                                               | +4,000(+0.5%)       +785,000(+100.0%)   Dense_[20]                            
       gemm_9 (Gemm, FULLY_CONNECTED)                 [b:1,c:1000]                            785,000               reshape_8_reshape   |                     -785,000(-100.0%)   
                                                                                                                   tfl_pseudo_qconst3   | 
------ ---------------------------------------------- ------------------- ----------------- --------- ------------------------------- --- ------------------- ------------------- ------------------------------------- 
10     eltwise_10 (Eltwise, ADD)                      [b:1,c:1000]                              1,000                          gemm_9   | +1,000(+100.0%)                         Eltwise/add_[21]                      
                                                                                                                      eltwise_7_const   | 
------ ---------------------------------------------- ------------------- ----------------- --------- ------------------------------- --- ------------------- ------------------- ------------------------------------- 
11     tfl_pseudo_qconst2 (Placeholder, )             []                  1/1                                                           |                     +1,000(+100.0%)     Eltwise/mul_[22]                      
       eltwise_11 (Eltwise, MUL)                      [b:1,c:1000]                              1,000                      eltwise_10   |                     -1,000(-100.0%)     
                                                                                                                   tfl_pseudo_qconst2   | 
------ ---------------------------------------------- ------------------- ----------------- --------- ------------------------------- --- ------------------- ------------------- ------------------------------------- 
12     eltwise_12 (Eltwise, ADD)                      [b:1,c:1000]                              1,000                      eltwise_11   | +1(+100.0%)                             Eltwise/add_[23]                      
                                                                                                                   tfl_pseudo_qconst2   | 
------ ---------------------------------------------- ------------------- ----------------- --------- ------------------------------- --- ------------------- ------------------- ------------------------------------- 
13     tfl_pseudo_qconst5 (Placeholder, )             []                  1/1                                                           |                     +1,000(+100.0%)     Eltwise/min_[24]                      
       eltwise_13 (Eltwise, MINIMUM)                  [b:1,c:1000]                              1,000                      eltwise_12   |                     -1,000(-100.0%)     
                                                                                                                   tfl_pseudo_qconst5   | 
------ ---------------------------------------------- ------------------- ----------------- --------- ------------------------------- --- ------------------- ------------------- ------------------------------------- 
14     nl_14 (Nonlinearity, RELU)                     [b:1,c:1000]                              1,000                      eltwise_13   |                                         Nonlinearity_[25]                     
------ ---------------------------------------------- ------------------- ----------------- --------- ------------------------------- --- ------------------- ------------------- ------------------------------------- 
15     conversion_15 (Conversion, DEQUANTIZE)         [b:1,c:1000]                              2,000                           nl_14   |                                         Conversion_[26]                       
------ ---------------------------------------------- ------------------- ----------------- --------- ------------------------------- --- ------------------- ------------------- ------------------------------------- 
16     nl_16 (Nonlinearity, ROUND)                    [b:1,c:1000]                              2,000                   conversion_15   |                     +2,000(+100.0%)     Nonlinearity_/Conversion_[27, 28]     
------ ---------------------------------------------- ------------------- ----------------- --------- ------------------------------- --- ------------------- ------------------- ------------------------------------- 
17     reshape_17 (Reshape, EXPAND_DIMS)              [b:1,h:1,c:1000]                                                          nl_16   |                                         
------ ---------------------------------------------- ------------------- ----------------- --------- ------------------------------- --- ------------------- ------------------- ------------------------------------- 
18     conversion_18 (Conversion, QUANTIZE)           [b:1,h:1,c:1000]                          2,000                      reshape_17   |                     -2,000(-100.0%)     
------ ---------------------------------------------- ------------------- ----------------- --------- ------------------------------- --- ------------------- ------------------- ------------------------------------- 
19     arith_constant (Placeholder, )                 []                  1/4                                                           |                     +1(+100.0%)         Eltwise/sub_[29]                      
       eltwise_19 (Eltwise, SUB)                      [b:1,c:1000]                                  1                  arith_constant   |                     -1(-100.0%)         
                                                                                                                                nl_16   | 
------ ---------------------------------------------- ------------------- ----------------- --------- ------------------------------- --- ------------------- ------------------- ------------------------------------- 
20     conversion_20 (Conversion, QUANTIZE)           [b:1,c:1000]                              2,000                      eltwise_19   |                                         Conversion_[30]                       
------ ---------------------------------------------- ------------------- ----------------- --------- ------------------------------- --- ------------------- ------------------- ------------------------------------- 
21     eltwise_21 (Eltwise, MUL)                      [b:1,c:1000]                              1,000                      eltwise_10   |                                         Eltwise/mul_[31]                      
                                                                                                                        conversion_20   | 
------ ---------------------------------------------- ------------------- ----------------- --------- ------------------------------- --- ------------------- ------------------- ------------------------------------- 
22     eltwise_22 (Eltwise, MUL)                      [b:1,c:1000]                              1,000                      eltwise_21   | +1,000(+100.0%)                         Eltwise/mul_[32]                      
                                                                                                                   tfl_pseudo_qconst4   | 
------ ---------------------------------------------- ------------------- ----------------- --------- ------------------------------- --- ------------------- ------------------- ------------------------------------- 
23     slice_23 (Slice, STRIDED_SLICE)                [b:1,h:1,c:784]                                                    conversion_0   |                                         Slice_[17]                            
       reshape_23_reshape (Reshape, STRIDED_SLICE)    [b:1,c:784]                                                            slice_23   |                                         
------ ---------------------------------------------- ------------------- ----------------- --------- ------------------------------- --- ------------------- ------------------- ------------------------------------- 
24     gemm_24 (Gemm, FULLY_CONNECTED)                [b:1,c:1000]                            785,000              reshape_23_reshape   | +788,000(+100.0%)                       Dense_[18]                            
                                                                                                                   tfl_pseudo_qconst3   | 
------ ---------------------------------------------- ------------------- ----------------- --------- ------------------------------- --- ------------------- ------------------- ------------------------------------- 
25     slice_25 (Slice, STRIDED_SLICE)                [b:1,h:1,c:784]                                                    conversion_0   |                                         Slice_[15]                            
       reshape_25_reshape (Reshape, STRIDED_SLICE)    [b:1,c:784]                                                            slice_25   |                                         
------ ---------------------------------------------- ------------------- ----------------- --------- ------------------------------- --- ------------------- ------------------- ------------------------------------- 
26     gemm_26 (Gemm, FULLY_CONNECTED)                [b:1,c:1000]                            785,000              reshape_25_reshape   | +788,000(+100.0%)                       Dense_[16]                            
                                                                                                                   tfl_pseudo_qconst3   | 
------ ---------------------------------------------- ------------------- ----------------- --------- ------------------------------- --- ------------------- ------------------- ------------------------------------- 
27     eltwise_27 (Eltwise, ADD)                      [b:1,c:1000]                              1,000                         gemm_26   |                                         Eltwise/add_[33]                      
                                                                                                                           eltwise_22   | 
------ ---------------------------------------------- ------------------- ----------------- --------- ------------------------------- --- ------------------- ------------------- ------------------------------------- 
28     eltwise_28 (Eltwise, MUL)                      [b:1,c:1000]                              1,000                      eltwise_27   | +1(+100.0%)                             Eltwise/mul_[34]                      
                                                                                                                   tfl_pseudo_qconst2   | 
------ ---------------------------------------------- ------------------- ----------------- --------- ------------------------------- --- ------------------- ------------------- ------------------------------------- 
29     eltwise_29 (Eltwise, ADD)                      [b:1,c:1000]                              1,000                      eltwise_28   | +1(+100.0%)                             Eltwise/add_[35]                      
                                                                                                                   tfl_pseudo_qconst2   | 
------ ---------------------------------------------- ------------------- ----------------- --------- ------------------------------- --- ------------------- ------------------- ------------------------------------- 
30     tfl_pseudo_qconst6 (Placeholder, )             []                  1/1                                                           |                     +1,000(+100.0%)     Eltwise/min_[36]                      
       eltwise_30 (Eltwise, MINIMUM)                  [b:1,c:1000]                              1,000                      eltwise_29   |                     -1,000(-100.0%)     
                                                                                                                   tfl_pseudo_qconst6   | 
------ ---------------------------------------------- ------------------- ----------------- --------- ------------------------------- --- ------------------- ------------------- ------------------------------------- 
31     nl_31 (Nonlinearity, RELU)                     [b:1,c:1000]                              1,000                      eltwise_30   |                                         Nonlinearity_[37]                     
------ ---------------------------------------------- ------------------- ----------------- --------- ------------------------------- --- ------------------- ------------------- ------------------------------------- 
32     conversion_32 (Conversion, DEQUANTIZE)         [b:1,c:1000]                              2,000                           nl_31   |                                         Conversion_[38]                       
------ ---------------------------------------------- ------------------- ----------------- --------- ------------------------------- --- ------------------- ------------------- ------------------------------------- 
33     nl_33 (Nonlinearity, ROUND)                    [b:1,c:1000]                              2,000                   conversion_32   |                     +2,000(+100.0%)     Nonlinearity_/Conversion_[39, 40]     
------ ---------------------------------------------- ------------------- ----------------- --------- ------------------------------- --- ------------------- ------------------- ------------------------------------- 
34     reshape_34 (Reshape, EXPAND_DIMS)              [b:1,h:1,c:1000]                                                          nl_33   |                                         
------ ---------------------------------------------- ------------------- ----------------- --------- ------------------------------- --- ------------------- ------------------- ------------------------------------- 
35     conversion_35 (Conversion, QUANTIZE)           [b:1,h:1,c:1000]                          2,000                      reshape_34   |                     -2,000(-100.0%)     
------ ---------------------------------------------- ------------------- ----------------- --------- ------------------------------- --- ------------------- ------------------- ------------------------------------- 
36     eltwise_36 (Eltwise, SUB)                      [b:1,c:1000]                                  1                  arith_constant   | +4(+100.0%)                             Eltwise/sub_[41]                      
                                                                                                                                nl_33   | 
------ ---------------------------------------------- ------------------- ----------------- --------- ------------------------------- --- ------------------- ------------------- ------------------------------------- 
37     conversion_37 (Conversion, QUANTIZE)           [b:1,c:1000]                              2,000                      eltwise_36   |                                         Conversion_[42]                       
------ ---------------------------------------------- ------------------- ----------------- --------- ------------------------------- --- ------------------- ------------------- ------------------------------------- 
38     eltwise_38 (Eltwise, MUL)                      [b:1,c:1000]                              1,000                      eltwise_27   |                                         Eltwise/mul_[43]                      
                                                                                                                        conversion_37   | 
------ ---------------------------------------------- ------------------- ----------------- --------- ------------------------------- --- ------------------- ------------------- ------------------------------------- 
39     eltwise_39 (Eltwise, MUL)                      [b:1,c:1000]                              1,000                      eltwise_38   | +1,000(+100.0%)                         Eltwise/mul_[44]                      
                                                                                                                   tfl_pseudo_qconst4   | 
------ ---------------------------------------------- ------------------- ----------------- --------- ------------------------------- --- ------------------- ------------------- ------------------------------------- 
40     slice_40 (Slice, STRIDED_SLICE)                [b:1,h:1,c:784]                                                    conversion_0   |                                         Slice_[13]                            
       reshape_40_reshape (Reshape, STRIDED_SLICE)    [b:1,c:784]                                                            slice_40   |                                         
------ ---------------------------------------------- ------------------- ----------------- --------- ------------------------------- --- ------------------- ------------------- ------------------------------------- 
41     gemm_41 (Gemm, FULLY_CONNECTED)                [b:1,c:1000]                            785,000              reshape_40_reshape   | +788,000(+100.0%)                       Dense_[14]                            
                                                                                                                   tfl_pseudo_qconst3   | 
------ ---------------------------------------------- ------------------- ----------------- --------- ------------------------------- --- ------------------- ------------------- ------------------------------------- 
42     eltwise_42 (Eltwise, ADD)                      [b:1,c:1000]                              1,000                         gemm_41   |                                         Eltwise/add_[45]                      
                                                                                                                           eltwise_39   | 
------ ---------------------------------------------- ------------------- ----------------- --------- ------------------------------- --- ------------------- ------------------- ------------------------------------- 
43     eltwise_43 (Eltwise, MUL)                      [b:1,c:1000]                              1,000                      eltwise_42   | +1(+100.0%)                             Eltwise/mul_[46]                      
                                                                                                                   tfl_pseudo_qconst2   | 
------ ---------------------------------------------- ------------------- ----------------- --------- ------------------------------- --- ------------------- ------------------- ------------------------------------- 
44     eltwise_44 (Eltwise, ADD)                      [b:1,c:1000]                              1,000                      eltwise_43   | +1(+100.0%)                             Eltwise/add_[47]                      
                                                                                                                   tfl_pseudo_qconst2   | 
------ ---------------------------------------------- ------------------- ----------------- --------- ------------------------------- --- ------------------- ------------------- ------------------------------------- 
45     tfl_pseudo_qconst7 (Placeholder, )             []                  1/1                                                           |                     +1,000(+100.0%)     Eltwise/min_[48]                      
       eltwise_45 (Eltwise, MINIMUM)                  [b:1,c:1000]                              1,000                      eltwise_44   |                     -1,000(-100.0%)     
                                                                                                                   tfl_pseudo_qconst7   | 
------ ---------------------------------------------- ------------------- ----------------- --------- ------------------------------- --- ------------------- ------------------- ------------------------------------- 
46     nl_46 (Nonlinearity, RELU)                     [b:1,c:1000]                              1,000                      eltwise_45   |                                         Nonlinearity_[49]                     
------ ---------------------------------------------- ------------------- ----------------- --------- ------------------------------- --- ------------------- ------------------- ------------------------------------- 
47     conversion_47 (Conversion, DEQUANTIZE)         [b:1,c:1000]                              2,000                           nl_46   |                                         Conversion_[50]                       
------ ---------------------------------------------- ------------------- ----------------- --------- ------------------------------- --- ------------------- ------------------- ------------------------------------- 
48     nl_48 (Nonlinearity, ROUND)                    [b:1,c:1000]                              2,000                   conversion_47   |                     +2,000(+100.0%)     Nonlinearity_/Conversion_[51, 52]     
------ ---------------------------------------------- ------------------- ----------------- --------- ------------------------------- --- ------------------- ------------------- ------------------------------------- 
49     reshape_49 (Reshape, EXPAND_DIMS)              [b:1,h:1,c:1000]                                                          nl_48   |                                         
------ ---------------------------------------------- ------------------- ----------------- --------- ------------------------------- --- ------------------- ------------------- ------------------------------------- 
50     conversion_50 (Conversion, QUANTIZE)           [b:1,h:1,c:1000]                          2,000                      reshape_49   |                     -2,000(-100.0%)     
------ ---------------------------------------------- ------------------- ----------------- --------- ------------------------------- --- ------------------- ------------------- ------------------------------------- 
51     eltwise_51 (Eltwise, SUB)                      [b:1,c:1000]                                  1                  arith_constant   | +4(+100.0%)                             Eltwise/sub_[53]                      
                                                                                                                                nl_48   | 
------ ---------------------------------------------- ------------------- ----------------- --------- ------------------------------- --- ------------------- ------------------- ------------------------------------- 
52     conversion_52 (Conversion, QUANTIZE)           [b:1,c:1000]                              2,000                      eltwise_51   |                                         Conversion_[54]                       
------ ---------------------------------------------- ------------------- ----------------- --------- ------------------------------- --- ------------------- ------------------- ------------------------------------- 
53     eltwise_53 (Eltwise, MUL)                      [b:1,c:1000]                              1,000                      eltwise_42   |                                         Eltwise/mul_[55]                      
                                                                                                                        conversion_52   | 
------ ---------------------------------------------- ------------------- ----------------- --------- ------------------------------- --- ------------------- ------------------- ------------------------------------- 
54     eltwise_54 (Eltwise, MUL)                      [b:1,c:1000]                              1,000                      eltwise_53   | +1,000(+100.0%)                         Eltwise/mul_[56]                      
                                                                                                                   tfl_pseudo_qconst4   | 
------ ---------------------------------------------- ------------------- ----------------- --------- ------------------------------- --- ------------------- ------------------- ------------------------------------- 
55     slice_55 (Slice, STRIDED_SLICE)                [b:1,h:1,c:784]                                                    conversion_0   |                                         Slice_[11]                            
       reshape_55_reshape (Reshape, STRIDED_SLICE)    [b:1,c:784]                                                            slice_55   |                                         
------ ---------------------------------------------- ------------------- ----------------- --------- ------------------------------- --- ------------------- ------------------- ------------------------------------- 
56     gemm_56 (Gemm, FULLY_CONNECTED)                [b:1,c:1000]                            785,000              reshape_55_reshape   | +788,000(+100.0%)                       Dense_[12]                            
                                                                                                                   tfl_pseudo_qconst3   | 
------ ---------------------------------------------- ------------------- ----------------- --------- ------------------------------- --- ------------------- ------------------- ------------------------------------- 
57     eltwise_57 (Eltwise, ADD)                      [b:1,c:1000]                              1,000                         gemm_56   |                                         Eltwise/add_[57]                      
                                                                                                                           eltwise_54   | 
------ ---------------------------------------------- ------------------- ----------------- --------- ------------------------------- --- ------------------- ------------------- ------------------------------------- 
58     eltwise_58 (Eltwise, MUL)                      [b:1,c:1000]                              1,000                      eltwise_57   | +1(+100.0%)                             Eltwise/mul_[58]                      
                                                                                                                   tfl_pseudo_qconst2   | 
------ ---------------------------------------------- ------------------- ----------------- --------- ------------------------------- --- ------------------- ------------------- ------------------------------------- 
59     eltwise_59 (Eltwise, ADD)                      [b:1,c:1000]                              1,000                      eltwise_58   | +1(+100.0%)                             Eltwise/add_[59]                      
                                                                                                                   tfl_pseudo_qconst2   | 
------ ---------------------------------------------- ------------------- ----------------- --------- ------------------------------- --- ------------------- ------------------- ------------------------------------- 
60     tfl_pseudo_qconst8 (Placeholder, )             []                  1/1                                                           |                     +1,000(+100.0%)     Eltwise/min_[60]                      
       eltwise_60 (Eltwise, MINIMUM)                  [b:1,c:1000]                              1,000                      eltwise_59   |                     -1,000(-100.0%)     
                                                                                                                   tfl_pseudo_qconst8   | 
------ ---------------------------------------------- ------------------- ----------------- --------- ------------------------------- --- ------------------- ------------------- ------------------------------------- 
61     nl_61 (Nonlinearity, RELU)                     [b:1,c:1000]                              1,000                      eltwise_60   |                                         Nonlinearity_[61]                     
------ ---------------------------------------------- ------------------- ----------------- --------- ------------------------------- --- ------------------- ------------------- ------------------------------------- 
62     conversion_62 (Conversion, DEQUANTIZE)         [b:1,c:1000]                              2,000                           nl_61   |                                         Conversion_[62]                       
------ ---------------------------------------------- ------------------- ----------------- --------- ------------------------------- --- ------------------- ------------------- ------------------------------------- 
63     nl_63 (Nonlinearity, ROUND)                    [b:1,c:1000]                              2,000                   conversion_62   |                     +2,000(+100.0%)     Nonlinearity_/Conversion_[63, 64]     
------ ---------------------------------------------- ------------------- ----------------- --------- ------------------------------- --- ------------------- ------------------- ------------------------------------- 
64     reshape_64 (Reshape, EXPAND_DIMS)              [b:1,h:1,c:1000]                                                          nl_63   |                                         
------ ---------------------------------------------- ------------------- ----------------- --------- ------------------------------- --- ------------------- ------------------- ------------------------------------- 
65     conversion_65 (Conversion, QUANTIZE)           [b:1,h:1,c:1000]                          2,000                      reshape_64   |                     -2,000(-100.0%)     
------ ---------------------------------------------- ------------------- ----------------- --------- ------------------------------- --- ------------------- ------------------- ------------------------------------- 
66     eltwise_66 (Eltwise, SUB)                      [b:1,c:1000]                                  1                  arith_constant   | +4(+100.0%)                             Eltwise/sub_[65]                      
                                                                                                                                nl_63   | 
------ ---------------------------------------------- ------------------- ----------------- --------- ------------------------------- --- ------------------- ------------------- ------------------------------------- 
67     conversion_67 (Conversion, QUANTIZE)           [b:1,c:1000]                              2,000                      eltwise_66   |                                         Conversion_[66]                       
------ ---------------------------------------------- ------------------- ----------------- --------- ------------------------------- --- ------------------- ------------------- ------------------------------------- 
68     eltwise_68 (Eltwise, MUL)                      [b:1,c:1000]                              1,000                      eltwise_57   |                                         Eltwise/mul_[67]                      
                                                                                                                        conversion_67   | 
------ ---------------------------------------------- ------------------- ----------------- --------- ------------------------------- --- ------------------- ------------------- ------------------------------------- 
69     eltwise_69 (Eltwise, MUL)                      [b:1,c:1000]                              1,000                      eltwise_68   | +1,000(+100.0%)                         Eltwise/mul_[68]                      
                                                                                                                   tfl_pseudo_qconst4   | 
------ ---------------------------------------------- ------------------- ----------------- --------- ------------------------------- --- ------------------- ------------------- ------------------------------------- 
70     slice_70 (Slice, STRIDED_SLICE)                [b:1,h:1,c:784]                                                    conversion_0   |                                         Slice_[9]                             
       reshape_70_reshape (Reshape, STRIDED_SLICE)    [b:1,c:784]                                                            slice_70   |                                         
------ ---------------------------------------------- ------------------- ----------------- --------- ------------------------------- --- ------------------- ------------------- ------------------------------------- 
71     gemm_71 (Gemm, FULLY_CONNECTED)                [b:1,c:1000]                            785,000              reshape_70_reshape   | +788,000(+100.0%)                       Dense_[10]                            
                                                                                                                   tfl_pseudo_qconst3   | 
------ ---------------------------------------------- ------------------- ----------------- --------- ------------------------------- --- ------------------- ------------------- ------------------------------------- 
72     eltwise_72 (Eltwise, ADD)                      [b:1,c:1000]                              1,000                         gemm_71   |                                         Eltwise/add_[69]                      
                                                                                                                           eltwise_69   | 
------ ---------------------------------------------- ------------------- ----------------- --------- ------------------------------- --- ------------------- ------------------- ------------------------------------- 
73     eltwise_73 (Eltwise, MUL)                      [b:1,c:1000]                              1,000                      eltwise_72   | +1(+100.0%)                             Eltwise/mul_[70]                      
                                                                                                                   tfl_pseudo_qconst2   | 
------ ---------------------------------------------- ------------------- ----------------- --------- ------------------------------- --- ------------------- ------------------- ------------------------------------- 
74     eltwise_74 (Eltwise, ADD)                      [b:1,c:1000]                              1,000                      eltwise_73   | +1(+100.0%)                             Eltwise/add_[71]                      
                                                                                                                   tfl_pseudo_qconst2   | 
------ ---------------------------------------------- ------------------- ----------------- --------- ------------------------------- --- ------------------- ------------------- ------------------------------------- 
75     tfl_pseudo_qconst9 (Placeholder, )             []                  1/1                                                           |                     +1,000(+100.0%)     Eltwise/min_[72]                      
       eltwise_75 (Eltwise, MINIMUM)                  [b:1,c:1000]                              1,000                      eltwise_74   |                     -1,000(-100.0%)     
                                                                                                                   tfl_pseudo_qconst9   | 
------ ---------------------------------------------- ------------------- ----------------- --------- ------------------------------- --- ------------------- ------------------- ------------------------------------- 
76     nl_76 (Nonlinearity, RELU)                     [b:1,c:1000]                              1,000                      eltwise_75   |                                         Nonlinearity_[73]                     
------ ---------------------------------------------- ------------------- ----------------- --------- ------------------------------- --- ------------------- ------------------- ------------------------------------- 
77     conversion_77 (Conversion, DEQUANTIZE)         [b:1,c:1000]                              2,000                           nl_76   |                                         Conversion_[74]                       
------ ---------------------------------------------- ------------------- ----------------- --------- ------------------------------- --- ------------------- ------------------- ------------------------------------- 
78     nl_78 (Nonlinearity, ROUND)                    [b:1,c:1000]                              2,000                   conversion_77   |                     +2,000(+100.0%)     Nonlinearity_/Conversion_[75, 76]     
------ ---------------------------------------------- ------------------- ----------------- --------- ------------------------------- --- ------------------- ------------------- ------------------------------------- 
79     reshape_79 (Reshape, EXPAND_DIMS)              [b:1,h:1,c:1000]                                                          nl_78   |                                         
------ ---------------------------------------------- ------------------- ----------------- --------- ------------------------------- --- ------------------- ------------------- ------------------------------------- 
80     conversion_80 (Conversion, QUANTIZE)           [b:1,h:1,c:1000]                          2,000                      reshape_79   |                     -2,000(-100.0%)     
------ ---------------------------------------------- ------------------- ----------------- --------- ------------------------------- --- ------------------- ------------------- ------------------------------------- 
81     eltwise_81 (Eltwise, SUB)                      [b:1,c:1000]                                  1                  arith_constant   | +4(+100.0%)                             Eltwise/sub_[77]                      
                                                                                                                                nl_78   | 
------ ---------------------------------------------- ------------------- ----------------- --------- ------------------------------- --- ------------------- ------------------- ------------------------------------- 
82     conversion_82 (Conversion, QUANTIZE)           [b:1,c:1000]                              2,000                      eltwise_81   |                                         Conversion_[78]                       
------ ---------------------------------------------- ------------------- ----------------- --------- ------------------------------- --- ------------------- ------------------- ------------------------------------- 
83     eltwise_83 (Eltwise, MUL)                      [b:1,c:1000]                              1,000                      eltwise_72   |                                         Eltwise/mul_[79]                      
                                                                                                                        conversion_82   | 
------ ---------------------------------------------- ------------------- ----------------- --------- ------------------------------- --- ------------------- ------------------- ------------------------------------- 
84     eltwise_84 (Eltwise, MUL)                      [b:1,c:1000]                              1,000                      eltwise_83   | +1,000(+100.0%)                         Eltwise/mul_[80]                      
                                                                                                                   tfl_pseudo_qconst4   | 
------ ---------------------------------------------- ------------------- ----------------- --------- ------------------------------- --- ------------------- ------------------- ------------------------------------- 
85     slice_85 (Slice, STRIDED_SLICE)                [b:1,h:1,c:784]                                                    conversion_0   |                                         Slice_[7]                             
       reshape_85_reshape (Reshape, STRIDED_SLICE)    [b:1,c:784]                                                            slice_85   |                                         
------ ---------------------------------------------- ------------------- ----------------- --------- ------------------------------- --- ------------------- ------------------- ------------------------------------- 
86     gemm_86 (Gemm, FULLY_CONNECTED)                [b:1,c:1000]                            785,000              reshape_85_reshape   | +788,000(+100.0%)                       Dense_[8]                             
                                                                                                                   tfl_pseudo_qconst3   | 
------ ---------------------------------------------- ------------------- ----------------- --------- ------------------------------- --- ------------------- ------------------- ------------------------------------- 
87     eltwise_87 (Eltwise, ADD)                      [b:1,c:1000]                              1,000                         gemm_86   |                                         Eltwise/add_[81]                      
                                                                                                                           eltwise_84   | 
------ ---------------------------------------------- ------------------- ----------------- --------- ------------------------------- --- ------------------- ------------------- ------------------------------------- 
88     eltwise_88 (Eltwise, MUL)                      [b:1,c:1000]                              1,000                      eltwise_87   | +1(+100.0%)                             Eltwise/mul_[82]                      
                                                                                                                   tfl_pseudo_qconst2   | 
------ ---------------------------------------------- ------------------- ----------------- --------- ------------------------------- --- ------------------- ------------------- ------------------------------------- 
89     eltwise_89 (Eltwise, ADD)                      [b:1,c:1000]                              1,000                      eltwise_88   | +1(+100.0%)                             Eltwise/add_[83]                      
                                                                                                                   tfl_pseudo_qconst2   | 
------ ---------------------------------------------- ------------------- ----------------- --------- ------------------------------- --- ------------------- ------------------- ------------------------------------- 
90     tfl_pseudo_qconst10 (Placeholder, )            []                  1/1                                                           |                     +1,000(+100.0%)     Eltwise/min_[84]                      
       eltwise_90 (Eltwise, MINIMUM)                  [b:1,c:1000]                              1,000                      eltwise_89   |                     -1,000(-100.0%)     
                                                                                                                  tfl_pseudo_qconst10   | 
------ ---------------------------------------------- ------------------- ----------------- --------- ------------------------------- --- ------------------- ------------------- ------------------------------------- 
91     nl_91 (Nonlinearity, RELU)                     [b:1,c:1000]                              1,000                      eltwise_90   |                                         Nonlinearity_[85]                     
------ ---------------------------------------------- ------------------- ----------------- --------- ------------------------------- --- ------------------- ------------------- ------------------------------------- 
92     conversion_92 (Conversion, DEQUANTIZE)         [b:1,c:1000]                              2,000                           nl_91   |                                         Conversion_[86]                       
------ ---------------------------------------------- ------------------- ----------------- --------- ------------------------------- --- ------------------- ------------------- ------------------------------------- 
93     nl_93 (Nonlinearity, ROUND)                    [b:1,c:1000]                              2,000                   conversion_92   |                     +2,000(+100.0%)     Nonlinearity_/Conversion_[87, 88]     
------ ---------------------------------------------- ------------------- ----------------- --------- ------------------------------- --- ------------------- ------------------- ------------------------------------- 
94     reshape_94 (Reshape, EXPAND_DIMS)              [b:1,h:1,c:1000]                                                          nl_93   |                                         
------ ---------------------------------------------- ------------------- ----------------- --------- ------------------------------- --- ------------------- ------------------- ------------------------------------- 
95     conversion_95 (Conversion, QUANTIZE)           [b:1,h:1,c:1000]                          2,000                      reshape_94   |                     -2,000(-100.0%)     
------ ---------------------------------------------- ------------------- ----------------- --------- ------------------------------- --- ------------------- ------------------- ------------------------------------- 
96     eltwise_96 (Eltwise, SUB)                      [b:1,c:1000]                                  1                  arith_constant   | +4(+100.0%)                             Eltwise/sub_[89]                      
                                                                                                                                nl_93   | 
------ ---------------------------------------------- ------------------- ----------------- --------- ------------------------------- --- ------------------- ------------------- ------------------------------------- 
97     conversion_97 (Conversion, QUANTIZE)           [b:1,c:1000]                              2,000                      eltwise_96   |                                         Conversion_[90]                       
------ ---------------------------------------------- ------------------- ----------------- --------- ------------------------------- --- ------------------- ------------------- ------------------------------------- 
98     eltwise_98 (Eltwise, MUL)                      [b:1,c:1000]                              1,000                      eltwise_87   |                                         Eltwise/mul_[91]                      
                                                                                                                        conversion_97   | 
------ ---------------------------------------------- ------------------- ----------------- --------- ------------------------------- --- ------------------- ------------------- ------------------------------------- 
99     eltwise_99 (Eltwise, MUL)                      [b:1,c:1000]                              1,000                      eltwise_98   | +1,000(+100.0%)                         Eltwise/mul_[92]                      
                                                                                                                   tfl_pseudo_qconst4   | 
------ ---------------------------------------------- ------------------- ----------------- --------- ------------------------------- --- ------------------- ------------------- ------------------------------------- 
100    slice_100 (Slice, STRIDED_SLICE)               [b:1,h:1,c:784]                                                    conversion_0   |                                         Slice_[5]                             
       reshape_100_reshape (Reshape, STRIDED_SLICE)   [b:1,c:784]                                                           slice_100   |                                         
------ ---------------------------------------------- ------------------- ----------------- --------- ------------------------------- --- ------------------- ------------------- ------------------------------------- 
101    gemm_101 (Gemm, FULLY_CONNECTED)               [b:1,c:1000]                            785,000             reshape_100_reshape   | +788,000(+100.0%)                       Dense_[6]                             
                                                                                                                   tfl_pseudo_qconst3   | 
------ ---------------------------------------------- ------------------- ----------------- --------- ------------------------------- --- ------------------- ------------------- ------------------------------------- 
102    eltwise_102 (Eltwise, ADD)                     [b:1,c:1000]                              1,000                        gemm_101   |                                         Eltwise/add_[93]                      
                                                                                                                           eltwise_99   | 
------ ---------------------------------------------- ------------------- ----------------- --------- ------------------------------- --- ------------------- ------------------- ------------------------------------- 
103    eltwise_103 (Eltwise, MUL)                     [b:1,c:1000]                              1,000                     eltwise_102   | +1(+100.0%)                             Eltwise/mul_[94]                      
                                                                                                                   tfl_pseudo_qconst2   | 
------ ---------------------------------------------- ------------------- ----------------- --------- ------------------------------- --- ------------------- ------------------- ------------------------------------- 
104    eltwise_104 (Eltwise, ADD)                     [b:1,c:1000]                              1,000                     eltwise_103   | +1(+100.0%)                             Eltwise/add_[95]                      
                                                                                                                   tfl_pseudo_qconst2   | 
------ ---------------------------------------------- ------------------- ----------------- --------- ------------------------------- --- ------------------- ------------------- ------------------------------------- 
105    tfl_pseudo_qconst11 (Placeholder, )            []                  1/1                                                           |                     +1,000(+100.0%)     Eltwise/min_[96]                      
       eltwise_105 (Eltwise, MINIMUM)                 [b:1,c:1000]                              1,000                     eltwise_104   |                     -1,000(-100.0%)     
                                                                                                                  tfl_pseudo_qconst11   | 
------ ---------------------------------------------- ------------------- ----------------- --------- ------------------------------- --- ------------------- ------------------- ------------------------------------- 
106    nl_106 (Nonlinearity, RELU)                    [b:1,c:1000]                              1,000                     eltwise_105   |                                         Nonlinearity_[97]                     
------ ---------------------------------------------- ------------------- ----------------- --------- ------------------------------- --- ------------------- ------------------- ------------------------------------- 
107    conversion_107 (Conversion, DEQUANTIZE)        [b:1,c:1000]                              2,000                          nl_106   |                                         Conversion_[98]                       
------ ---------------------------------------------- ------------------- ----------------- --------- ------------------------------- --- ------------------- ------------------- ------------------------------------- 
108    nl_108 (Nonlinearity, ROUND)                   [b:1,c:1000]                              2,000                  conversion_107   |                     +2,000(+100.0%)     Nonlinearity_/Conversion_[99, 100]    
------ ---------------------------------------------- ------------------- ----------------- --------- ------------------------------- --- ------------------- ------------------- ------------------------------------- 
109    reshape_109 (Reshape, EXPAND_DIMS)             [b:1,h:1,c:1000]                                                         nl_108   |                                         
------ ---------------------------------------------- ------------------- ----------------- --------- ------------------------------- --- ------------------- ------------------- ------------------------------------- 
110    conversion_110 (Conversion, QUANTIZE)          [b:1,h:1,c:1000]                          2,000                     reshape_109   |                     -2,000(-100.0%)     
------ ---------------------------------------------- ------------------- ----------------- --------- ------------------------------- --- ------------------- ------------------- ------------------------------------- 
111    eltwise_111 (Eltwise, SUB)                     [b:1,c:1000]                                  1                  arith_constant   | +4(+100.0%)                             Eltwise/sub_[101]                     
                                                                                                                               nl_108   | 
------ ---------------------------------------------- ------------------- ----------------- --------- ------------------------------- --- ------------------- ------------------- ------------------------------------- 
112    conversion_112 (Conversion, QUANTIZE)          [b:1,c:1000]                              2,000                     eltwise_111   |                                         Conversion_[102]                      
------ ---------------------------------------------- ------------------- ----------------- --------- ------------------------------- --- ------------------- ------------------- ------------------------------------- 
113    eltwise_113 (Eltwise, MUL)                     [b:1,c:1000]                              1,000                     eltwise_102   |                                         Eltwise/mul_[103]                     
                                                                                                                       conversion_112   | 
------ ---------------------------------------------- ------------------- ----------------- --------- ------------------------------- --- ------------------- ------------------- ------------------------------------- 
114    eltwise_114 (Eltwise, MUL)                     [b:1,c:1000]                              1,000                     eltwise_113   | +1,000(+100.0%)                         Eltwise/mul_[104]                     
                                                                                                                   tfl_pseudo_qconst4   | 
------ ---------------------------------------------- ------------------- ----------------- --------- ------------------------------- --- ------------------- ------------------- ------------------------------------- 
115    slice_115 (Slice, STRIDED_SLICE)               [b:1,h:1,c:784]                                                    conversion_0   |                                         Slice_[3]                             
       reshape_115_reshape (Reshape, STRIDED_SLICE)   [b:1,c:784]                                                           slice_115   |                                         
------ ---------------------------------------------- ------------------- ----------------- --------- ------------------------------- --- ------------------- ------------------- ------------------------------------- 
116    gemm_116 (Gemm, FULLY_CONNECTED)               [b:1,c:1000]                            785,000             reshape_115_reshape   | +788,000(+100.0%)                       Dense_[4]                             
                                                                                                                   tfl_pseudo_qconst3   | 
------ ---------------------------------------------- ------------------- ----------------- --------- ------------------------------- --- ------------------- ------------------- ------------------------------------- 
117    eltwise_117 (Eltwise, ADD)                     [b:1,c:1000]                              1,000                        gemm_116   |                                         Eltwise/add_[105]                     
                                                                                                                          eltwise_114   | 
------ ---------------------------------------------- ------------------- ----------------- --------- ------------------------------- --- ------------------- ------------------- ------------------------------------- 
118    eltwise_118 (Eltwise, MUL)                     [b:1,c:1000]                              1,000                     eltwise_117   | +1(+100.0%)                             Eltwise/mul_[106]                     
                                                                                                                   tfl_pseudo_qconst2   | 
------ ---------------------------------------------- ------------------- ----------------- --------- ------------------------------- --- ------------------- ------------------- ------------------------------------- 
119    eltwise_119 (Eltwise, ADD)                     [b:1,c:1000]                              1,000                     eltwise_118   | +1(+100.0%)                             Eltwise/add_[107]                     
                                                                                                                   tfl_pseudo_qconst2   | 
------ ---------------------------------------------- ------------------- ----------------- --------- ------------------------------- --- ------------------- ------------------- ------------------------------------- 
120    tfl_pseudo_qconst12 (Placeholder, )            []                  1/1                                                           |                     +1,000(+100.0%)     Eltwise/min_[108]                     
       eltwise_120 (Eltwise, MINIMUM)                 [b:1,c:1000]                              1,000                     eltwise_119   |                     -1,000(-100.0%)     
                                                                                                                  tfl_pseudo_qconst12   | 
------ ---------------------------------------------- ------------------- ----------------- --------- ------------------------------- --- ------------------- ------------------- ------------------------------------- 
121    nl_121 (Nonlinearity, RELU)                    [b:1,c:1000]                              1,000                     eltwise_120   |                                         Nonlinearity_[109]                    
------ ---------------------------------------------- ------------------- ----------------- --------- ------------------------------- --- ------------------- ------------------- ------------------------------------- 
122    conversion_122 (Conversion, DEQUANTIZE)        [b:1,c:1000]                              2,000                          nl_121   |                                         Conversion_[110]                      
------ ---------------------------------------------- ------------------- ----------------- --------- ------------------------------- --- ------------------- ------------------- ------------------------------------- 
123    nl_123 (Nonlinearity, ROUND)                   [b:1,c:1000]                              2,000                  conversion_122   |                     +2,000(+100.0%)     Nonlinearity_/Conversion_[111, 112]   
------ ---------------------------------------------- ------------------- ----------------- --------- ------------------------------- --- ------------------- ------------------- ------------------------------------- 
124    reshape_124 (Reshape, EXPAND_DIMS)             [b:1,h:1,c:1000]                                                         nl_123   |                                         
------ ---------------------------------------------- ------------------- ----------------- --------- ------------------------------- --- ------------------- ------------------- ------------------------------------- 
125    conversion_125 (Conversion, QUANTIZE)          [b:1,h:1,c:1000]                          2,000                     reshape_124   |                     -2,000(-100.0%)     
------ ---------------------------------------------- ------------------- ----------------- --------- ------------------------------- --- ------------------- ------------------- ------------------------------------- 
126    eltwise_126 (Eltwise, SUB)                     [b:1,c:1000]                                  1                  arith_constant   | +4(+100.0%)                             Eltwise/sub_[113]                     
                                                                                                                               nl_123   | 
------ ---------------------------------------------- ------------------- ----------------- --------- ------------------------------- --- ------------------- ------------------- ------------------------------------- 
127    conversion_127 (Conversion, QUANTIZE)          [b:1,c:1000]                              2,000                     eltwise_126   |                                         Conversion_[114]                      
------ ---------------------------------------------- ------------------- ----------------- --------- ------------------------------- --- ------------------- ------------------- ------------------------------------- 
128    eltwise_128 (Eltwise, MUL)                     [b:1,c:1000]                              1,000                     eltwise_117   |                                         Eltwise/mul_[115]                     
                                                                                                                       conversion_127   | 
------ ---------------------------------------------- ------------------- ----------------- --------- ------------------------------- --- ------------------- ------------------- ------------------------------------- 
129    eltwise_129 (Eltwise, MUL)                     [b:1,c:1000]                              1,000                     eltwise_128   | +1,000(+100.0%)                         Eltwise/mul_[116]                     
                                                                                                                   tfl_pseudo_qconst4   | 
------ ---------------------------------------------- ------------------- ----------------- --------- ------------------------------- --- ------------------- ------------------- ------------------------------------- 
130    slice_130 (Slice, STRIDED_SLICE)               [b:1,h:1,c:784]                                                    conversion_0   |                                         Slice_[1]                             
       reshape_130_reshape (Reshape, STRIDED_SLICE)   [b:1,c:784]                                                           slice_130   |                                         
------ ---------------------------------------------- ------------------- ----------------- --------- ------------------------------- --- ------------------- ------------------- ------------------------------------- 
131    gemm_131 (Gemm, FULLY_CONNECTED)               [b:1,c:1000]                            785,000             reshape_130_reshape   | +788,000(+100.0%)                       Dense_[2]                             
                                                                                                                   tfl_pseudo_qconst3   | 
------ ---------------------------------------------- ------------------- ----------------- --------- ------------------------------- --- ------------------- ------------------- ------------------------------------- 
132    eltwise_132 (Eltwise, ADD)                     [b:1,c:1000]                              1,000                        gemm_131   |                                         Eltwise/add_[117]                     
                                                                                                                          eltwise_129   | 
------ ---------------------------------------------- ------------------- ----------------- --------- ------------------------------- --- ------------------- ------------------- ------------------------------------- 
133    eltwise_133 (Eltwise, MUL)                     [b:1,c:1000]                              1,000                     eltwise_132   | +1(+100.0%)                             Eltwise/mul_[118]                     
                                                                                                                   tfl_pseudo_qconst2   | 
------ ---------------------------------------------- ------------------- ----------------- --------- ------------------------------- --- ------------------- ------------------- ------------------------------------- 
134    eltwise_134 (Eltwise, ADD)                     [b:1,c:1000]                              1,000                     eltwise_133   | +1(+100.0%)                             Eltwise/add_[119]                     
                                                                                                                   tfl_pseudo_qconst2   | 
------ ---------------------------------------------- ------------------- ----------------- --------- ------------------------------- --- ------------------- ------------------- ------------------------------------- 
135    tfl_pseudo_qconst13 (Placeholder, )            []                  1/1                                                           |                     +1,000(+100.0%)     Eltwise/min_[120]                     
       eltwise_135 (Eltwise, MINIMUM)                 [b:1,c:1000]                              1,000                     eltwise_134   |                     -1,000(-100.0%)     
                                                                                                                  tfl_pseudo_qconst13   | 
------ ---------------------------------------------- ------------------- ----------------- --------- ------------------------------- --- ------------------- ------------------- ------------------------------------- 
136    nl_136 (Nonlinearity, RELU)                    [b:1,c:1000]                              1,000                     eltwise_135   |                                         Nonlinearity_[121]                    
------ ---------------------------------------------- ------------------- ----------------- --------- ------------------------------- --- ------------------- ------------------- ------------------------------------- 
137    conversion_137 (Conversion, DEQUANTIZE)        [b:1,c:1000]                              2,000                          nl_136   |                                         Conversion_[122]                      
------ ---------------------------------------------- ------------------- ----------------- --------- ------------------------------- --- ------------------- ------------------- ------------------------------------- 
138    nl_138 (Nonlinearity, ROUND)                   [b:1,c:1000]                              2,000                  conversion_137   |                     +2,000(+100.0%)     Nonlinearity_/Conversion_[123, 124]   
------ ---------------------------------------------- ------------------- ----------------- --------- ------------------------------- --- ------------------- ------------------- ------------------------------------- 
139    reshape_139 (Reshape, EXPAND_DIMS)             [b:1,h:1,c:1000]                                                         nl_138   |                                         
------ ---------------------------------------------- ------------------- ----------------- --------- ------------------------------- --- ------------------- ------------------- ------------------------------------- 
140    conversion_140 (Conversion, QUANTIZE)          [b:1,h:1,c:1000]                          2,000                     reshape_139   |                     -2,000(-100.0%)     
------ ---------------------------------------------- ------------------- ----------------- --------- ------------------------------- --- ------------------- ------------------- ------------------------------------- 
141    eltwise_141 (Eltwise, SUB)                     [b:1,c:1000]                                  1                  arith_constant   | +4(+100.0%)                             Eltwise/sub_[125]                     
                                                                                                                               nl_138   | 
------ ---------------------------------------------- ------------------- ----------------- --------- ------------------------------- --- ------------------- ------------------- ------------------------------------- 
142    conversion_142 (Conversion, QUANTIZE)          [b:1,c:1000]                              2,000                     eltwise_141   |                                         Conversion_[126]                      
------ ---------------------------------------------- ------------------- ----------------- --------- ------------------------------- --- ------------------- ------------------- ------------------------------------- 
143    eltwise_143 (Eltwise, MUL)                     [b:1,c:1000]                              1,000                     eltwise_132   |                                         Eltwise/mul_[127]                     
                                                                                                                       conversion_142   | 
------ ---------------------------------------------- ------------------- ----------------- --------- ------------------------------- --- ------------------- ------------------- ------------------------------------- 
144    eltwise_144 (Eltwise, MUL)                     [b:1,c:1000]                              1,000                     eltwise_143   | +1,000(+100.0%)                         Eltwise/mul_[128]                     
                                                                                                                   tfl_pseudo_qconst4   | 
------ ---------------------------------------------- ------------------- ----------------- --------- ------------------------------- --- ------------------- ------------------- ------------------------------------- 
145    eltwise_145 (Eltwise, ADD)                     [b:1,c:1000]                              1,000                         gemm_24   |                                         Eltwise/add_[129]                     
                                                                                                                          eltwise_144   | 
------ ---------------------------------------------- ------------------- ----------------- --------- ------------------------------- --- ------------------- ------------------- ------------------------------------- 
146    eltwise_146 (Eltwise, MUL)                     [b:1,c:1000]                              1,000                     eltwise_145   | +1(+100.0%)                             Eltwise/mul_[130]                     
                                                                                                                   tfl_pseudo_qconst2   | 
------ ---------------------------------------------- ------------------- ----------------- --------- ------------------------------- --- ------------------- ------------------- ------------------------------------- 
147    eltwise_147 (Eltwise, ADD)                     [b:1,c:1000]                              1,000                     eltwise_146   | +1(+100.0%)                             Eltwise/add_[131]                     
                                                                                                                   tfl_pseudo_qconst2   | 
------ ---------------------------------------------- ------------------- ----------------- --------- ------------------------------- --- ------------------- ------------------- ------------------------------------- 
148    tfl_pseudo_qconst14 (Placeholder, )            []                  1/1                                                           |                     +1,000(+100.0%)     Eltwise/min_[132]                     
       eltwise_148 (Eltwise, MINIMUM)                 [b:1,c:1000]                              1,000                     eltwise_147   |                     -1,000(-100.0%)     
                                                                                                                  tfl_pseudo_qconst14   | 
------ ---------------------------------------------- ------------------- ----------------- --------- ------------------------------- --- ------------------- ------------------- ------------------------------------- 
149    nl_149 (Nonlinearity, RELU)                    [b:1,c:1000]                              1,000                     eltwise_148   |                                         Nonlinearity_[133]                    
------ ---------------------------------------------- ------------------- ----------------- --------- ------------------------------- --- ------------------- ------------------- ------------------------------------- 
150    conversion_150 (Conversion, DEQUANTIZE)        [b:1,c:1000]                              2,000                          nl_149   |                                         Conversion_[134]                      
------ ---------------------------------------------- ------------------- ----------------- --------- ------------------------------- --- ------------------- ------------------- ------------------------------------- 
151    nl_151 (Nonlinearity, ROUND)                   [b:1,c:1000]                              2,000                  conversion_150   |                     +2,000(+100.0%)     Nonlinearity_/Conversion_[135, 136]   
------ ---------------------------------------------- ------------------- ----------------- --------- ------------------------------- --- ------------------- ------------------- ------------------------------------- 
152    reshape_152 (Reshape, EXPAND_DIMS)             [b:1,h:1,c:1000]                                                         nl_151   |                                         
------ ---------------------------------------------- ------------------- ----------------- --------- ------------------------------- --- ------------------- ------------------- ------------------------------------- 
153    conversion_153 (Conversion, QUANTIZE)          [b:1,h:1,c:1000]                          2,000                     reshape_152   |                     -2,000(-100.0%)     
------ ---------------------------------------------- ------------------- ----------------- --------- ------------------------------- --- ------------------- ------------------- ------------------------------------- 
154    concat_154 (Concat, CONCATENATION)             [b:1,h:10,c:1000]                                                 conversion_18   |                     +20,000(+100.0%)    Concat_/Conversion_[137, 138]         
                                                                                                                        conversion_35   | 
                                                                                                                        conversion_50   | 
                                                                                                                        conversion_65   | 
                                                                                                                        conversion_80   | 
                                                                                                                        conversion_95   | 
                                                                                                                       conversion_110   | 
                                                                                                                       conversion_125   | 
                                                                                                                       conversion_140   | 
                                                                                                                       conversion_153   | 
------ ---------------------------------------------- ------------------- ----------------- --------- ------------------------------- --- ------------------- ------------------- ------------------------------------- 
155    reduce_155 (Reduce, SUM)                       [b:1,c:1000]                             10,000                      concat_154   |                     +2,000(+20.0%)      Reduce_/Conversion_[139, 140]         
       reshape_155_reshape (Reshape, SUM)             [b:1,c:1000]                                                         reduce_155   |                                         
------ ---------------------------------------------- ------------------- ----------------- --------- ------------------------------- --- ------------------- ------------------- ------------------------------------- 
156    tfl_pseudo_qconst1 (Placeholder, )             [b:10,c:1000]       10,000/10,000                                                 | +40(+0.4%)          +10,010(+100.0%)    Dense_[141]                           
       tfl_pseudo_qconst (Placeholder, )              [b:10]              10/40                                                         | -40(-100.0%)                            
       gemm_156 (Gemm, FULLY_CONNECTED)               [b:1,c:10]                               10,010             reshape_155_reshape   |                     -10,010(-100.0%)    
                                                                                                                   tfl_pseudo_qconst1   | 
                                                                                                                    tfl_pseudo_qconst   | 
------ ---------------------------------------------- ------------------- ----------------- --------- ------------------------------- --- ------------------- ------------------- ------------------------------------- 
157    nl_157 (Nonlinearity, SOFTMAX)                 [b:1,c:10]                                  150                        gemm_156   |                                         Nonlinearity_[142]                    
------ ---------------------------------------------- ------------------- ----------------- --------- ------------------------------- --- ------------------- ------------------- ------------------------------------- 
158    conversion_158 (Conversion, QUANTIZE)          [b:1,c:10]                                   20                          nl_157   |                                         Conversion_[o][143]                   
------ ---------------------------------------------- ------------------- ----------------- --------- ------------------------------- --- ------------------- ------------------- ------------------------------------- 
model/c-model: macc=8,031,869/8,053,869 +22,000(+0.3%) weights=796,055/800,088 +4,033(+0.5%) activations=--/52,000 io=--/0



Generated C-graph summary
------------------------------------------------------------------------------------------------------------------------
model name            : snn_mnist_quant_1000_1
c-name                : network
c-node #              : 144
c-array #             : 175
activations size      : 52000 (1 segment)
weights size          : 800088 (1 segment)
macc                  : 8053869
inputs                : ['serving_default_keras_tensor0_output']
outputs               : ['conversion_158_output']

C-Arrays (175)
------ ------------------------------------------- --------------- --------------------------- ------------- --------- 
c_id   name (*_array)                              item/size       domain/mem-pool             c-type        comment   
------ ------------------------------------------- --------------- --------------------------- ------------- --------- 
0      arith_constant_2D                           1/4             weights/weights             const float             
1      concat_154_0_conversion_output              10000/40000     activations/POOL_INTERNAL   float                   
2      concat_154_output                           10000/10000     activations/POOL_INTERNAL   s8                      
3      conversion_0_output                         7840/7840       activations/POOL_INTERNAL   s8                      
4      conversion_107_output                       1000/4000       activations/POOL_INTERNAL   float                   
5      conversion_112_output                       1000/1000       activations/POOL_INTERNAL   s8                      
6      conversion_122_output                       1000/4000       activations/POOL_INTERNAL   float                   
7      conversion_127_output                       1000/1000       activations/POOL_INTERNAL   s8                      
8      conversion_137_output                       1000/4000       activations/POOL_INTERNAL   float                   
9      conversion_142_output                       1000/1000       activations/POOL_INTERNAL   s8                      
10     conversion_150_output                       1000/4000       activations/POOL_INTERNAL   float                   
11     conversion_158_output                       10/10           activations/POOL_INTERNAL   u8            /output   
12     conversion_15_output                        1000/4000       activations/POOL_INTERNAL   float                   
13     conversion_20_output                        1000/1000       activations/POOL_INTERNAL   s8                      
14     conversion_32_output                        1000/4000       activations/POOL_INTERNAL   float                   
15     conversion_37_output                        1000/1000       activations/POOL_INTERNAL   s8                      
16     conversion_47_output                        1000/4000       activations/POOL_INTERNAL   float                   
17     conversion_52_output                        1000/1000       activations/POOL_INTERNAL   s8                      
18     conversion_62_output                        1000/4000       activations/POOL_INTERNAL   float                   
19     conversion_67_output                        1000/1000       activations/POOL_INTERNAL   s8                      
20     conversion_77_output                        1000/4000       activations/POOL_INTERNAL   float                   
21     conversion_82_output                        1000/1000       activations/POOL_INTERNAL   s8                      
22     conversion_92_output                        1000/4000       activations/POOL_INTERNAL   float                   
23     conversion_97_output                        1000/1000       activations/POOL_INTERNAL   s8                      
24     eltwise_102_output                          1000/1000       activations/POOL_INTERNAL   s8                      
25     eltwise_103_output                          1000/1000       activations/POOL_INTERNAL   s8                      
26     eltwise_104_output                          1000/1000       activations/POOL_INTERNAL   s8                      
27     eltwise_105_output                          1000/1000       activations/POOL_INTERNAL   s8                      
28     eltwise_10_output                           1000/1000       activations/POOL_INTERNAL   s8                      
29     eltwise_111_output                          1000/4000       activations/POOL_INTERNAL   float                   
30     eltwise_113_output                          1000/1000       activations/POOL_INTERNAL   s8                      
31     eltwise_114_output                          1000/1000       activations/POOL_INTERNAL   s8                      
32     eltwise_117_output                          1000/1000       activations/POOL_INTERNAL   s8                      
33     eltwise_118_output                          1000/1000       activations/POOL_INTERNAL   s8                      
34     eltwise_119_output                          1000/1000       activations/POOL_INTERNAL   s8                      
35     eltwise_11_output                           1000/1000       activations/POOL_INTERNAL   s8                      
36     eltwise_120_output                          1000/1000       activations/POOL_INTERNAL   s8                      
37     eltwise_126_output                          1000/4000       activations/POOL_INTERNAL   float                   
38     eltwise_128_output                          1000/1000       activations/POOL_INTERNAL   s8                      
39     eltwise_129_output                          1000/1000       activations/POOL_INTERNAL   s8                      
40     eltwise_12_output                           1000/1000       activations/POOL_INTERNAL   s8                      
41     eltwise_132_output                          1000/1000       activations/POOL_INTERNAL   s8                      
42     eltwise_133_output                          1000/1000       activations/POOL_INTERNAL   s8                      
43     eltwise_134_output                          1000/1000       activations/POOL_INTERNAL   s8                      
44     eltwise_135_output                          1000/1000       activations/POOL_INTERNAL   s8                      
45     eltwise_13_output                           1000/1000       activations/POOL_INTERNAL   s8                      
46     eltwise_141_output                          1000/4000       activations/POOL_INTERNAL   float                   
47     eltwise_143_output                          1000/1000       activations/POOL_INTERNAL   s8                      
48     eltwise_144_output                          1000/1000       activations/POOL_INTERNAL   s8                      
49     eltwise_145_output                          1000/1000       activations/POOL_INTERNAL   s8                      
50     eltwise_146_output                          1000/1000       activations/POOL_INTERNAL   s8                      
51     eltwise_147_output                          1000/1000       activations/POOL_INTERNAL   s8                      
52     eltwise_148_output                          1000/1000       activations/POOL_INTERNAL   s8                      
53     eltwise_19_output                           1000/4000       activations/POOL_INTERNAL   float                   
54     eltwise_21_output                           1000/1000       activations/POOL_INTERNAL   s8                      
55     eltwise_22_output                           1000/1000       activations/POOL_INTERNAL   s8                      
56     eltwise_27_output                           1000/1000       activations/POOL_INTERNAL   s8                      
57     eltwise_28_output                           1000/1000       activations/POOL_INTERNAL   s8                      
58     eltwise_29_output                           1000/1000       activations/POOL_INTERNAL   s8                      
59     eltwise_30_output                           1000/1000       activations/POOL_INTERNAL   s8                      
60     eltwise_36_output                           1000/4000       activations/POOL_INTERNAL   float                   
61     eltwise_38_output                           1000/1000       activations/POOL_INTERNAL   s8                      
62     eltwise_39_output                           1000/1000       activations/POOL_INTERNAL   s8                      
63     eltwise_42_output                           1000/1000       activations/POOL_INTERNAL   s8                      
64     eltwise_43_output                           1000/1000       activations/POOL_INTERNAL   s8                      
65     eltwise_44_output                           1000/1000       activations/POOL_INTERNAL   s8                      
66     eltwise_45_output                           1000/1000       activations/POOL_INTERNAL   s8                      
67     eltwise_51_output                           1000/4000       activations/POOL_INTERNAL   float                   
68     eltwise_53_output                           1000/1000       activations/POOL_INTERNAL   s8                      
69     eltwise_54_output                           1000/1000       activations/POOL_INTERNAL   s8                      
70     eltwise_57_output                           1000/1000       activations/POOL_INTERNAL   s8                      
71     eltwise_58_output                           1000/1000       activations/POOL_INTERNAL   s8                      
72     eltwise_59_output                           1000/1000       activations/POOL_INTERNAL   s8                      
73     eltwise_60_output                           1000/1000       activations/POOL_INTERNAL   s8                      
74     eltwise_66_output                           1000/4000       activations/POOL_INTERNAL   float                   
75     eltwise_68_output                           1000/1000       activations/POOL_INTERNAL   s8                      
76     eltwise_69_output                           1000/1000       activations/POOL_INTERNAL   s8                      
77     eltwise_72_output                           1000/1000       activations/POOL_INTERNAL   s8                      
78     eltwise_73_output                           1000/1000       activations/POOL_INTERNAL   s8                      
79     eltwise_74_output                           1000/1000       activations/POOL_INTERNAL   s8                      
80     eltwise_75_output                           1000/1000       activations/POOL_INTERNAL   s8                      
81     eltwise_7_const                             1000/1000       weights/weights             const s8                
82     eltwise_81_output                           1000/4000       activations/POOL_INTERNAL   float                   
83     eltwise_83_output                           1000/1000       activations/POOL_INTERNAL   s8                      
84     eltwise_84_output                           1000/1000       activations/POOL_INTERNAL   s8                      
85     eltwise_87_output                           1000/1000       activations/POOL_INTERNAL   s8                      
86     eltwise_88_output                           1000/1000       activations/POOL_INTERNAL   s8                      
87     eltwise_89_output                           1000/1000       activations/POOL_INTERNAL   s8                      
88     eltwise_90_output                           1000/1000       activations/POOL_INTERNAL   s8                      
89     eltwise_96_output                           1000/4000       activations/POOL_INTERNAL   float                   
90     eltwise_98_output                           1000/1000       activations/POOL_INTERNAL   s8                      
91     eltwise_99_output                           1000/1000       activations/POOL_INTERNAL   s8                      
92     gemm_101_output                             1000/1000       activations/POOL_INTERNAL   s8                      
93     gemm_101_scratch0                           6000/12000      activations/POOL_INTERNAL   s16                     
94     gemm_116_output                             1000/1000       activations/POOL_INTERNAL   s8                      
95     gemm_116_scratch0                           6000/12000      activations/POOL_INTERNAL   s16                     
96     gemm_131_bias                               1000/4000       weights/weights             const s32               
97     gemm_131_output                             1000/1000       activations/POOL_INTERNAL   s8                      
98     gemm_131_scratch0                           6000/12000      activations/POOL_INTERNAL   s16                     
99     gemm_131_weights                            784000/784000   weights/weights             const s8                
100    gemm_156_bias                               10/40           weights/weights             const s32               
101    gemm_156_output                             10/10           activations/POOL_INTERNAL   s8                      
102    gemm_156_scratch0                           60/120          activations/POOL_INTERNAL   s16                     
103    gemm_156_weights                            10000/10000     weights/weights             const s8                
104    gemm_24_output                              1000/1000       activations/POOL_INTERNAL   s8                      
105    gemm_24_scratch0                            6000/12000      activations/POOL_INTERNAL   s16                     
106    gemm_26_output                              1000/1000       activations/POOL_INTERNAL   s8                      
107    gemm_26_scratch0                            6000/12000      activations/POOL_INTERNAL   s16                     
108    gemm_41_output                              1000/1000       activations/POOL_INTERNAL   s8                      
109    gemm_41_scratch0                            6000/12000      activations/POOL_INTERNAL   s16                     
110    gemm_56_output                              1000/1000       activations/POOL_INTERNAL   s8                      
111    gemm_56_scratch0                            6000/12000      activations/POOL_INTERNAL   s16                     
112    gemm_71_output                              1000/1000       activations/POOL_INTERNAL   s8                      
113    gemm_71_scratch0                            6000/12000      activations/POOL_INTERNAL   s16                     
114    gemm_86_output                              1000/1000       activations/POOL_INTERNAL   s8                      
115    gemm_86_scratch0                            6000/12000      activations/POOL_INTERNAL   s16                     
116    gemm_9_output                               1000/1000       activations/POOL_INTERNAL   s8                      
117    gemm_9_scratch0                             6000/12000      activations/POOL_INTERNAL   s16                     
118    nl_106_output                               1000/1000       activations/POOL_INTERNAL   s8                      
119    nl_108_0_0_reshape_109_conversion_output    1000/1000       activations/POOL_INTERNAL   s8                      
120    nl_108_output                               1000/4000       activations/POOL_INTERNAL   float                   
121    nl_121_output                               1000/1000       activations/POOL_INTERNAL   s8                      
122    nl_123_0_0_reshape_124_conversion_output    1000/1000       activations/POOL_INTERNAL   s8                      
123    nl_123_output                               1000/4000       activations/POOL_INTERNAL   float                   
124    nl_136_output                               1000/1000       activations/POOL_INTERNAL   s8                      
125    nl_138_0_0_reshape_139_conversion_output    1000/1000       activations/POOL_INTERNAL   s8                      
126    nl_138_output                               1000/4000       activations/POOL_INTERNAL   float                   
127    nl_149_output                               1000/1000       activations/POOL_INTERNAL   s8                      
128    nl_14_output                                1000/1000       activations/POOL_INTERNAL   s8                      
129    nl_151_0_0_reshape_152_conversion_output    1000/1000       activations/POOL_INTERNAL   s8                      
130    nl_151_output                               1000/4000       activations/POOL_INTERNAL   float                   
131    nl_157_output                               10/10           activations/POOL_INTERNAL   s8                      
132    nl_157_scratch0                             62/248          activations/POOL_INTERNAL   s32                     
133    nl_16_0_conversion_output                   1000/1000       activations/POOL_INTERNAL   s8                      
134    nl_16_output                                1000/4000       activations/POOL_INTERNAL   float                   
135    nl_31_output                                1000/1000       activations/POOL_INTERNAL   s8                      
136    nl_33_0_0_reshape_34_conversion_output      1000/1000       activations/POOL_INTERNAL   s8                      
137    nl_33_output                                1000/4000       activations/POOL_INTERNAL   float                   
138    nl_46_output                                1000/1000       activations/POOL_INTERNAL   s8                      
139    nl_48_0_0_reshape_49_conversion_output      1000/1000       activations/POOL_INTERNAL   s8                      
140    nl_48_output                                1000/4000       activations/POOL_INTERNAL   float                   
141    nl_61_output                                1000/1000       activations/POOL_INTERNAL   s8                      
142    nl_63_0_0_reshape_64_conversion_output      1000/1000       activations/POOL_INTERNAL   s8                      
143    nl_63_output                                1000/4000       activations/POOL_INTERNAL   float                   
144    nl_76_output                                1000/1000       activations/POOL_INTERNAL   s8                      
145    nl_78_0_0_reshape_79_conversion_output      1000/1000       activations/POOL_INTERNAL   s8                      
146    nl_78_output                                1000/4000       activations/POOL_INTERNAL   float                   
147    nl_91_output                                1000/1000       activations/POOL_INTERNAL   s8                      
148    nl_93_0_0_reshape_94_conversion_output      1000/1000       activations/POOL_INTERNAL   s8                      
149    nl_93_output                                1000/4000       activations/POOL_INTERNAL   float                   
150    reduce_155_0_0_gemm_156_conversion_output   1000/1000       activations/POOL_INTERNAL   s8                      
151    reduce_155_output                           1000/4000       activations/POOL_INTERNAL   float                   
152    serving_default_keras_tensor0_output        7840/31360      activations/POOL_INTERNAL   float         /input    
153    slice_100_output                            784/784         activations/POOL_INTERNAL   s8                      
154    slice_115_output                            784/784         activations/POOL_INTERNAL   s8                      
155    slice_130_output                            784/784         activations/POOL_INTERNAL   s8                      
156    slice_23_output                             784/784         activations/POOL_INTERNAL   s8                      
157    slice_25_output                             784/784         activations/POOL_INTERNAL   s8                      
158    slice_40_output                             784/784         activations/POOL_INTERNAL   s8                      
159    slice_55_output                             784/784         activations/POOL_INTERNAL   s8                      
160    slice_70_output                             784/784         activations/POOL_INTERNAL   s8                      
161    slice_85_output                             784/784         activations/POOL_INTERNAL   s8                      
162    slice_8_output                              784/784         activations/POOL_INTERNAL   s8                      
163    tfl_pseudo_qconst10_2D                      1/1             weights/weights             const s8                
164    tfl_pseudo_qconst11_2D                      1/1             weights/weights             const s8                
165    tfl_pseudo_qconst12_2D                      1/1             weights/weights             const s8                
166    tfl_pseudo_qconst13_2D                      1/1             weights/weights             const s8                
167    tfl_pseudo_qconst14_2D                      1/1             weights/weights             const s8                
168    tfl_pseudo_qconst2_2D                       1/1             weights/weights             const s8                
169    tfl_pseudo_qconst4                          1000/1000       weights/weights             const s8                
170    tfl_pseudo_qconst5_2D                       1/1             weights/weights             const s8                
171    tfl_pseudo_qconst6_2D                       1/1             weights/weights             const s8                
172    tfl_pseudo_qconst7_2D                       1/1             weights/weights             const s8                
173    tfl_pseudo_qconst8_2D                       1/1             weights/weights             const s8                
174    tfl_pseudo_qconst9_2D                       1/1             weights/weights             const s8                
------ ------------------------------------------- --------------- --------------------------- ------------- --------- 

C-Layers (144)
------ ------------------------------------ ----- --------------- -------- -------- ---------------------------------------------- ---------------------- 
c_id   name (*_layer)                       id    layer_type      macc     rom      tensors                                        shape (array id)       
------ ------------------------------------ ----- --------------- -------- -------- ---------------------------------------------- ---------------------- 
0      conversion_0                         0     Conversion      15680    0        I: serving_default_keras_tensor0_output        f32(1x10x784) (152)    
                                                                                    O: conversion_0_output                         int8(1x10x784) (3)     
------ ------------------------------------ ----- --------------- -------- -------- ---------------------------------------------- ---------------------- 
1      slice_130                            130   Slice           0        0        I: conversion_0_output                         int8(1x10x784) (3)     
                                                                                    O: slice_130_output                            int8(1x1x784) (155)    
------ ------------------------------------ ----- --------------- -------- -------- ---------------------------------------------- ---------------------- 
2      gemm_131                             131   Dense           785000   788000   I: slice_130_output                            int8(1x1x784) (155)    
                                                                                    S: gemm_131_scratch0                                                  
                                                                                    W: gemm_131_weights                            int8(1000x784) (99)    
                                                                                    W: gemm_131_bias                               int32(1000) (96)       
                                                                                    O: gemm_131_output                             int8(1x1000) (97)      
------ ------------------------------------ ----- --------------- -------- -------- ---------------------------------------------- ---------------------- 
3      slice_115                            115   Slice           0        0        I: conversion_0_output                         int8(1x10x784) (3)     
                                                                                    O: slice_115_output                            int8(1x1x784) (154)    
------ ------------------------------------ ----- --------------- -------- -------- ---------------------------------------------- ---------------------- 
4      gemm_116                             116   Dense           785000   788000   I: slice_115_output                            int8(1x1x784) (154)    
                                                                                    S: gemm_116_scratch0                                                  
                                                                                    W: gemm_131_weights                            int8(1000x784) (99)    
                                                                                    W: gemm_131_bias                               int32(1000) (96)       
                                                                                    O: gemm_116_output                             int8(1x1000) (94)      
------ ------------------------------------ ----- --------------- -------- -------- ---------------------------------------------- ---------------------- 
5      slice_100                            100   Slice           0        0        I: conversion_0_output                         int8(1x10x784) (3)     
                                                                                    O: slice_100_output                            int8(1x1x784) (153)    
------ ------------------------------------ ----- --------------- -------- -------- ---------------------------------------------- ---------------------- 
6      gemm_101                             101   Dense           785000   788000   I: slice_100_output                            int8(1x1x784) (153)    
                                                                                    S: gemm_101_scratch0                                                  
                                                                                    W: gemm_131_weights                            int8(1000x784) (99)    
                                                                                    W: gemm_131_bias                               int32(1000) (96)       
                                                                                    O: gemm_101_output                             int8(1x1000) (92)      
------ ------------------------------------ ----- --------------- -------- -------- ---------------------------------------------- ---------------------- 
7      slice_85                             85    Slice           0        0        I: conversion_0_output                         int8(1x10x784) (3)     
                                                                                    O: slice_85_output                             int8(1x1x784) (161)    
------ ------------------------------------ ----- --------------- -------- -------- ---------------------------------------------- ---------------------- 
8      gemm_86                              86    Dense           785000   788000   I: slice_85_output                             int8(1x1x784) (161)    
                                                                                    S: gemm_86_scratch0                                                   
                                                                                    W: gemm_131_weights                            int8(1000x784) (99)    
                                                                                    W: gemm_131_bias                               int32(1000) (96)       
                                                                                    O: gemm_86_output                              int8(1x1000) (114)     
------ ------------------------------------ ----- --------------- -------- -------- ---------------------------------------------- ---------------------- 
9      slice_70                             70    Slice           0        0        I: conversion_0_output                         int8(1x10x784) (3)     
                                                                                    O: slice_70_output                             int8(1x1x784) (160)    
------ ------------------------------------ ----- --------------- -------- -------- ---------------------------------------------- ---------------------- 
10     gemm_71                              71    Dense           785000   788000   I: slice_70_output                             int8(1x1x784) (160)    
                                                                                    S: gemm_71_scratch0                                                   
                                                                                    W: gemm_131_weights                            int8(1000x784) (99)    
                                                                                    W: gemm_131_bias                               int32(1000) (96)       
                                                                                    O: gemm_71_output                              int8(1x1000) (112)     
------ ------------------------------------ ----- --------------- -------- -------- ---------------------------------------------- ---------------------- 
11     slice_55                             55    Slice           0        0        I: conversion_0_output                         int8(1x10x784) (3)     
                                                                                    O: slice_55_output                             int8(1x1x784) (159)    
------ ------------------------------------ ----- --------------- -------- -------- ---------------------------------------------- ---------------------- 
12     gemm_56                              56    Dense           785000   788000   I: slice_55_output                             int8(1x1x784) (159)    
                                                                                    S: gemm_56_scratch0                                                   
                                                                                    W: gemm_131_weights                            int8(1000x784) (99)    
                                                                                    W: gemm_131_bias                               int32(1000) (96)       
                                                                                    O: gemm_56_output                              int8(1x1000) (110)     
------ ------------------------------------ ----- --------------- -------- -------- ---------------------------------------------- ---------------------- 
13     slice_40                             40    Slice           0        0        I: conversion_0_output                         int8(1x10x784) (3)     
                                                                                    O: slice_40_output                             int8(1x1x784) (158)    
------ ------------------------------------ ----- --------------- -------- -------- ---------------------------------------------- ---------------------- 
14     gemm_41                              41    Dense           785000   788000   I: slice_40_output                             int8(1x1x784) (158)    
                                                                                    S: gemm_41_scratch0                                                   
                                                                                    W: gemm_131_weights                            int8(1000x784) (99)    
                                                                                    W: gemm_131_bias                               int32(1000) (96)       
                                                                                    O: gemm_41_output                              int8(1x1000) (108)     
------ ------------------------------------ ----- --------------- -------- -------- ---------------------------------------------- ---------------------- 
15     slice_25                             25    Slice           0        0        I: conversion_0_output                         int8(1x10x784) (3)     
                                                                                    O: slice_25_output                             int8(1x1x784) (157)    
------ ------------------------------------ ----- --------------- -------- -------- ---------------------------------------------- ---------------------- 
16     gemm_26                              26    Dense           785000   788000   I: slice_25_output                             int8(1x1x784) (157)    
                                                                                    S: gemm_26_scratch0                                                   
                                                                                    W: gemm_131_weights                            int8(1000x784) (99)    
                                                                                    W: gemm_131_bias                               int32(1000) (96)       
                                                                                    O: gemm_26_output                              int8(1x1000) (106)     
------ ------------------------------------ ----- --------------- -------- -------- ---------------------------------------------- ---------------------- 
17     slice_23                             23    Slice           0        0        I: conversion_0_output                         int8(1x10x784) (3)     
                                                                                    O: slice_23_output                             int8(1x1x784) (156)    
------ ------------------------------------ ----- --------------- -------- -------- ---------------------------------------------- ---------------------- 
18     gemm_24                              24    Dense           785000   788000   I: slice_23_output                             int8(1x1x784) (156)    
                                                                                    S: gemm_24_scratch0                                                   
                                                                                    W: gemm_131_weights                            int8(1000x784) (99)    
                                                                                    W: gemm_131_bias                               int32(1000) (96)       
                                                                                    O: gemm_24_output                              int8(1x1000) (104)     
------ ------------------------------------ ----- --------------- -------- -------- ---------------------------------------------- ---------------------- 
19     slice_8                              8     Slice           0        0        I: conversion_0_output                         int8(1x10x784) (3)     
                                                                                    O: slice_8_output                              int8(1x1x784) (162)    
------ ------------------------------------ ----- --------------- -------- -------- ---------------------------------------------- ---------------------- 
20     gemm_9                               9     Dense           785000   788000   I: slice_8_output                              int8(1x1x784) (162)    
                                                                                    S: gemm_9_scratch0                                                    
                                                                                    W: gemm_131_weights                            int8(1000x784) (99)    
                                                                                    W: gemm_131_bias                               int32(1000) (96)       
                                                                                    O: gemm_9_output                               int8(1x1000) (116)     
------ ------------------------------------ ----- --------------- -------- -------- ---------------------------------------------- ---------------------- 
21     eltwise_10                           10    Eltwise/add     1000     1000     I: gemm_9_output                               int8(1x1000) (116)     
                                                                                    W: eltwise_7_const                             int8(1000) (81)        
                                                                                    O: eltwise_10_output                           int8(1x1000) (28)      
------ ------------------------------------ ----- --------------- -------- -------- ---------------------------------------------- ---------------------- 
22     eltwise_11                           11    Eltwise/mul     1000     1        I: eltwise_10_output                           int8(1x1000) (28)      
                                                                                    W: tfl_pseudo_qconst2_2D                       int8(1) (168)          
                                                                                    O: eltwise_11_output                           int8(1x1000) (35)      
------ ------------------------------------ ----- --------------- -------- -------- ---------------------------------------------- ---------------------- 
23     eltwise_12                           12    Eltwise/add     1000     1        I: eltwise_11_output                           int8(1x1000) (35)      
                                                                                    W: tfl_pseudo_qconst2_2D                       int8(1) (168)          
                                                                                    O: eltwise_12_output                           int8(1x1000) (40)      
------ ------------------------------------ ----- --------------- -------- -------- ---------------------------------------------- ---------------------- 
24     eltwise_13                           13    Eltwise/min     1000     1        I: eltwise_12_output                           int8(1x1000) (40)      
                                                                                    W: tfl_pseudo_qconst5_2D                       int8(1) (170)          
                                                                                    O: eltwise_13_output                           int8(1x1000) (45)      
------ ------------------------------------ ----- --------------- -------- -------- ---------------------------------------------- ---------------------- 
25     nl_14                                14    Nonlinearity    1000     0        I: eltwise_13_output                           int8(1x1000) (45)      
                                                                                    O: nl_14_output                                int8(1x1000) (128)     
------ ------------------------------------ ----- --------------- -------- -------- ---------------------------------------------- ---------------------- 
26     conversion_15                        15    Conversion      2000     0        I: nl_14_output                                int8(1x1000) (128)     
                                                                                    O: conversion_15_output                        f32(1x1000) (12)       
------ ------------------------------------ ----- --------------- -------- -------- ---------------------------------------------- ---------------------- 
27     nl_16                                16    Nonlinearity    2000     0        I: conversion_15_output                        f32(1x1000) (12)       
                                                                                    O: nl_16_output                                f32(1x1000) (134)      
------ ------------------------------------ ----- --------------- -------- -------- ---------------------------------------------- ---------------------- 
28     nl_16_0_conversion                   16    Conversion      2000     0        I: nl_16_output                                f32(1x1000) (134)      
                                                                                    O: nl_16_0_conversion_output                   int8(1x1000) (133)     
------ ------------------------------------ ----- --------------- -------- -------- ---------------------------------------------- ---------------------- 
29     eltwise_19                           19    Eltwise/sub     1        4        I: nl_16_output                                f32(1x1000) (134)      
                                                                                    W: arith_constant_2D                           f32(1) (0)             
                                                                                    O: eltwise_19_output                           f32(1x1000) (53)       
------ ------------------------------------ ----- --------------- -------- -------- ---------------------------------------------- ---------------------- 
30     conversion_20                        20    Conversion      2000     0        I: eltwise_19_output                           f32(1x1000) (53)       
                                                                                    O: conversion_20_output                        int8(1x1000) (13)      
------ ------------------------------------ ----- --------------- -------- -------- ---------------------------------------------- ---------------------- 
31     eltwise_21                           21    Eltwise/mul     1000     0        I: eltwise_10_output                           int8(1x1000) (28)      
                                                                                    I: conversion_20_output                        int8(1x1000) (28)      
                                                                                    O: eltwise_21_output                           int8(1x1000) (54)      
------ ------------------------------------ ----- --------------- -------- -------- ---------------------------------------------- ---------------------- 
32     eltwise_22                           22    Eltwise/mul     1000     1000     I: eltwise_21_output                           int8(1x1000) (54)      
                                                                                    W: tfl_pseudo_qconst4                          int8(1000) (169)       
                                                                                    O: eltwise_22_output                           int8(1x1000) (55)      
------ ------------------------------------ ----- --------------- -------- -------- ---------------------------------------------- ---------------------- 
33     eltwise_27                           27    Eltwise/add     1000     0        I: gemm_26_output                              int8(1x1000) (106)     
                                                                                    I: eltwise_22_output                           int8(1x1000) (106)     
                                                                                    O: eltwise_27_output                           int8(1x1000) (56)      
------ ------------------------------------ ----- --------------- -------- -------- ---------------------------------------------- ---------------------- 
34     eltwise_28                           28    Eltwise/mul     1000     1        I: eltwise_27_output                           int8(1x1000) (56)      
                                                                                    W: tfl_pseudo_qconst2_2D                       int8(1) (168)          
                                                                                    O: eltwise_28_output                           int8(1x1000) (57)      
------ ------------------------------------ ----- --------------- -------- -------- ---------------------------------------------- ---------------------- 
35     eltwise_29                           29    Eltwise/add     1000     1        I: eltwise_28_output                           int8(1x1000) (57)      
                                                                                    W: tfl_pseudo_qconst2_2D                       int8(1) (168)          
                                                                                    O: eltwise_29_output                           int8(1x1000) (58)      
------ ------------------------------------ ----- --------------- -------- -------- ---------------------------------------------- ---------------------- 
36     eltwise_30                           30    Eltwise/min     1000     1        I: eltwise_29_output                           int8(1x1000) (58)      
                                                                                    W: tfl_pseudo_qconst6_2D                       int8(1) (171)          
                                                                                    O: eltwise_30_output                           int8(1x1000) (59)      
------ ------------------------------------ ----- --------------- -------- -------- ---------------------------------------------- ---------------------- 
37     nl_31                                31    Nonlinearity    1000     0        I: eltwise_30_output                           int8(1x1000) (59)      
                                                                                    O: nl_31_output                                int8(1x1000) (135)     
------ ------------------------------------ ----- --------------- -------- -------- ---------------------------------------------- ---------------------- 
38     conversion_32                        32    Conversion      2000     0        I: nl_31_output                                int8(1x1000) (135)     
                                                                                    O: conversion_32_output                        f32(1x1000) (14)       
------ ------------------------------------ ----- --------------- -------- -------- ---------------------------------------------- ---------------------- 
39     nl_33                                33    Nonlinearity    2000     0        I: conversion_32_output                        f32(1x1000) (14)       
                                                                                    O: nl_33_output                                f32(1x1000) (137)      
------ ------------------------------------ ----- --------------- -------- -------- ---------------------------------------------- ---------------------- 
40     nl_33_0_0_reshape_34_conversion      33    Conversion      2000     0        I: nl_33_output                                f32(1x1000) (137)      
                                                                                    O: nl_33_0_0_reshape_34_conversion_output      int8(1x1000) (136)     
------ ------------------------------------ ----- --------------- -------- -------- ---------------------------------------------- ---------------------- 
41     eltwise_36                           36    Eltwise/sub     1        4        I: nl_33_output                                f32(1x1000) (137)      
                                                                                    W: arith_constant_2D                           f32(1) (0)             
                                                                                    O: eltwise_36_output                           f32(1x1000) (60)       
------ ------------------------------------ ----- --------------- -------- -------- ---------------------------------------------- ---------------------- 
42     conversion_37                        37    Conversion      2000     0        I: eltwise_36_output                           f32(1x1000) (60)       
                                                                                    O: conversion_37_output                        int8(1x1000) (15)      
------ ------------------------------------ ----- --------------- -------- -------- ---------------------------------------------- ---------------------- 
43     eltwise_38                           38    Eltwise/mul     1000     0        I: eltwise_27_output                           int8(1x1000) (56)      
                                                                                    I: conversion_37_output                        int8(1x1000) (56)      
                                                                                    O: eltwise_38_output                           int8(1x1000) (61)      
------ ------------------------------------ ----- --------------- -------- -------- ---------------------------------------------- ---------------------- 
44     eltwise_39                           39    Eltwise/mul     1000     1000     I: eltwise_38_output                           int8(1x1000) (61)      
                                                                                    W: tfl_pseudo_qconst4                          int8(1000) (169)       
                                                                                    O: eltwise_39_output                           int8(1x1000) (62)      
------ ------------------------------------ ----- --------------- -------- -------- ---------------------------------------------- ---------------------- 
45     eltwise_42                           42    Eltwise/add     1000     0        I: gemm_41_output                              int8(1x1000) (108)     
                                                                                    I: eltwise_39_output                           int8(1x1000) (108)     
                                                                                    O: eltwise_42_output                           int8(1x1000) (63)      
------ ------------------------------------ ----- --------------- -------- -------- ---------------------------------------------- ---------------------- 
46     eltwise_43                           43    Eltwise/mul     1000     1        I: eltwise_42_output                           int8(1x1000) (63)      
                                                                                    W: tfl_pseudo_qconst2_2D                       int8(1) (168)          
                                                                                    O: eltwise_43_output                           int8(1x1000) (64)      
------ ------------------------------------ ----- --------------- -------- -------- ---------------------------------------------- ---------------------- 
47     eltwise_44                           44    Eltwise/add     1000     1        I: eltwise_43_output                           int8(1x1000) (64)      
                                                                                    W: tfl_pseudo_qconst2_2D                       int8(1) (168)          
                                                                                    O: eltwise_44_output                           int8(1x1000) (65)      
------ ------------------------------------ ----- --------------- -------- -------- ---------------------------------------------- ---------------------- 
48     eltwise_45                           45    Eltwise/min     1000     1        I: eltwise_44_output                           int8(1x1000) (65)      
                                                                                    W: tfl_pseudo_qconst7_2D                       int8(1) (172)          
                                                                                    O: eltwise_45_output                           int8(1x1000) (66)      
------ ------------------------------------ ----- --------------- -------- -------- ---------------------------------------------- ---------------------- 
49     nl_46                                46    Nonlinearity    1000     0        I: eltwise_45_output                           int8(1x1000) (66)      
                                                                                    O: nl_46_output                                int8(1x1000) (138)     
------ ------------------------------------ ----- --------------- -------- -------- ---------------------------------------------- ---------------------- 
50     conversion_47                        47    Conversion      2000     0        I: nl_46_output                                int8(1x1000) (138)     
                                                                                    O: conversion_47_output                        f32(1x1000) (16)       
------ ------------------------------------ ----- --------------- -------- -------- ---------------------------------------------- ---------------------- 
51     nl_48                                48    Nonlinearity    2000     0        I: conversion_47_output                        f32(1x1000) (16)       
                                                                                    O: nl_48_output                                f32(1x1000) (140)      
------ ------------------------------------ ----- --------------- -------- -------- ---------------------------------------------- ---------------------- 
52     nl_48_0_0_reshape_49_conversion      48    Conversion      2000     0        I: nl_48_output                                f32(1x1000) (140)      
                                                                                    O: nl_48_0_0_reshape_49_conversion_output      int8(1x1000) (139)     
------ ------------------------------------ ----- --------------- -------- -------- ---------------------------------------------- ---------------------- 
53     eltwise_51                           51    Eltwise/sub     1        4        I: nl_48_output                                f32(1x1000) (140)      
                                                                                    W: arith_constant_2D                           f32(1) (0)             
                                                                                    O: eltwise_51_output                           f32(1x1000) (67)       
------ ------------------------------------ ----- --------------- -------- -------- ---------------------------------------------- ---------------------- 
54     conversion_52                        52    Conversion      2000     0        I: eltwise_51_output                           f32(1x1000) (67)       
                                                                                    O: conversion_52_output                        int8(1x1000) (17)      
------ ------------------------------------ ----- --------------- -------- -------- ---------------------------------------------- ---------------------- 
55     eltwise_53                           53    Eltwise/mul     1000     0        I: eltwise_42_output                           int8(1x1000) (63)      
                                                                                    I: conversion_52_output                        int8(1x1000) (63)      
                                                                                    O: eltwise_53_output                           int8(1x1000) (68)      
------ ------------------------------------ ----- --------------- -------- -------- ---------------------------------------------- ---------------------- 
56     eltwise_54                           54    Eltwise/mul     1000     1000     I: eltwise_53_output                           int8(1x1000) (68)      
                                                                                    W: tfl_pseudo_qconst4                          int8(1000) (169)       
                                                                                    O: eltwise_54_output                           int8(1x1000) (69)      
------ ------------------------------------ ----- --------------- -------- -------- ---------------------------------------------- ---------------------- 
57     eltwise_57                           57    Eltwise/add     1000     0        I: gemm_56_output                              int8(1x1000) (110)     
                                                                                    I: eltwise_54_output                           int8(1x1000) (110)     
                                                                                    O: eltwise_57_output                           int8(1x1000) (70)      
------ ------------------------------------ ----- --------------- -------- -------- ---------------------------------------------- ---------------------- 
58     eltwise_58                           58    Eltwise/mul     1000     1        I: eltwise_57_output                           int8(1x1000) (70)      
                                                                                    W: tfl_pseudo_qconst2_2D                       int8(1) (168)          
                                                                                    O: eltwise_58_output                           int8(1x1000) (71)      
------ ------------------------------------ ----- --------------- -------- -------- ---------------------------------------------- ---------------------- 
59     eltwise_59                           59    Eltwise/add     1000     1        I: eltwise_58_output                           int8(1x1000) (71)      
                                                                                    W: tfl_pseudo_qconst2_2D                       int8(1) (168)          
                                                                                    O: eltwise_59_output                           int8(1x1000) (72)      
------ ------------------------------------ ----- --------------- -------- -------- ---------------------------------------------- ---------------------- 
60     eltwise_60                           60    Eltwise/min     1000     1        I: eltwise_59_output                           int8(1x1000) (72)      
                                                                                    W: tfl_pseudo_qconst8_2D                       int8(1) (173)          
                                                                                    O: eltwise_60_output                           int8(1x1000) (73)      
------ ------------------------------------ ----- --------------- -------- -------- ---------------------------------------------- ---------------------- 
61     nl_61                                61    Nonlinearity    1000     0        I: eltwise_60_output                           int8(1x1000) (73)      
                                                                                    O: nl_61_output                                int8(1x1000) (141)     
------ ------------------------------------ ----- --------------- -------- -------- ---------------------------------------------- ---------------------- 
62     conversion_62                        62    Conversion      2000     0        I: nl_61_output                                int8(1x1000) (141)     
                                                                                    O: conversion_62_output                        f32(1x1000) (18)       
------ ------------------------------------ ----- --------------- -------- -------- ---------------------------------------------- ---------------------- 
63     nl_63                                63    Nonlinearity    2000     0        I: conversion_62_output                        f32(1x1000) (18)       
                                                                                    O: nl_63_output                                f32(1x1000) (143)      
------ ------------------------------------ ----- --------------- -------- -------- ---------------------------------------------- ---------------------- 
64     nl_63_0_0_reshape_64_conversion      63    Conversion      2000     0        I: nl_63_output                                f32(1x1000) (143)      
                                                                                    O: nl_63_0_0_reshape_64_conversion_output      int8(1x1000) (142)     
------ ------------------------------------ ----- --------------- -------- -------- ---------------------------------------------- ---------------------- 
65     eltwise_66                           66    Eltwise/sub     1        4        I: nl_63_output                                f32(1x1000) (143)      
                                                                                    W: arith_constant_2D                           f32(1) (0)             
                                                                                    O: eltwise_66_output                           f32(1x1000) (74)       
------ ------------------------------------ ----- --------------- -------- -------- ---------------------------------------------- ---------------------- 
66     conversion_67                        67    Conversion      2000     0        I: eltwise_66_output                           f32(1x1000) (74)       
                                                                                    O: conversion_67_output                        int8(1x1000) (19)      
…
   45      42     EltwiseInt (0x114)        0.020   0.0%    99.0%  [      16,334 ]   ai_node_45    
   46      43     EltwiseInt (0x114)        0.017   0.0%    99.0%  [      13,403 ]   ai_node_46    
   47      44     EltwiseInt (0x114)        0.011   0.0%    99.0%  [       8,567 ]   ai_node_47    
   48      45     EltwiseInt (0x114)        0.002   0.0%    99.0%  [       1,633 ]   ai_node_48    
   49      46     NL (0x107)                0.011   0.0%    99.0%  [       8,662 ]   ai_node_49    
   50      47     NL (0x107)                0.008   0.0%    99.0%  [       6,442 ]   ai_node_50    
   51      48     NL (0x107)                0.013   0.0%    99.0%  [      10,295 ]   ai_node_51    
   52      48     NL (0x107)                0.008   0.0%    99.0%  [       6,330 ]   ai_node_52    
   53      51     Eltwise (0x113)           0.037   0.0%    99.0%  [      29,870 ]   ai_node_53    
   54      52     NL (0x107)                0.007   0.0%    99.0%  [       5,301 ]   ai_node_54    
   55      53     EltwiseInt (0x114)        0.014   0.0%    99.0%  [      10,954 ]   ai_node_55    
   56      54     EltwiseInt (0x114)        0.017   0.0%    99.0%  [      13,426 ]   ai_node_56    
   57      57     EltwiseInt (0x114)        0.021   0.0%    99.0%  [      16,583 ]   ai_node_57    
   58      58     EltwiseInt (0x114)        0.017   0.0%    99.1%  [      13,347 ]   ai_node_58    
   59      59     EltwiseInt (0x114)        0.011   0.0%    99.1%  [       8,724 ]   ai_node_59    
   60      60     EltwiseInt (0x114)        0.002   0.0%    99.1%  [       1,593 ]   ai_node_60    
   61      61     NL (0x107)                0.011   0.0%    99.1%  [       8,501 ]   ai_node_61    
   62      62     NL (0x107)                0.008   0.0%    99.1%  [       6,405 ]   ai_node_62    
   63      63     NL (0x107)                0.012   0.0%    99.1%  [       9,663 ]   ai_node_63    
   64      63     NL (0x107)                0.008   0.0%    99.1%  [       6,253 ]   ai_node_64    
   65      66     Eltwise (0x113)           0.037   0.0%    99.1%  [      29,734 ]   ai_node_65    
   66      67     NL (0x107)                0.007   0.0%    99.1%  [       5,365 ]   ai_node_66    
   67      68     EltwiseInt (0x114)        0.014   0.0%    99.1%  [      10,930 ]   ai_node_67    
   68      69     EltwiseInt (0x114)        0.016   0.0%    99.1%  [      13,103 ]   ai_node_68    
   69      72     EltwiseInt (0x114)        0.021   0.0%    99.1%  [      16,599 ]   ai_node_69    
   70      73     EltwiseInt (0x114)        0.017   0.0%    99.2%  [      13,412 ]   ai_node_70    
   71      74     EltwiseInt (0x114)        0.011   0.0%    99.2%  [       8,561 ]   ai_node_71    
   72      75     EltwiseInt (0x114)        0.002   0.0%    99.2%  [       1,731 ]   ai_node_72    
   73      76     NL (0x107)                0.011   0.0%    99.2%  [       8,579 ]   ai_node_73    
   74      77     NL (0x107)                0.008   0.0%    99.2%  [       6,436 ]   ai_node_74    
   75      78     NL (0x107)                0.014   0.0%    99.2%  [      11,152 ]   ai_node_75    
   76      78     NL (0x107)                0.007   0.0%    99.2%  [       5,448 ]   ai_node_76    
   77      81     Eltwise (0x113)           0.036   0.0%    99.2%  [      29,108 ]   ai_node_77    
   78      82     NL (0x107)                0.007   0.0%    99.2%  [       5,890 ]   ai_node_78    
   79      83     EltwiseInt (0x114)        0.014   0.0%    99.2%  [      10,840 ]   ai_node_79    
   80      84     EltwiseInt (0x114)        0.015   0.0%    99.2%  [      12,266 ]   ai_node_80    
   81      87     EltwiseInt (0x114)        0.021   0.0%    99.2%  [      16,631 ]   ai_node_81    
   82      88     EltwiseInt (0x114)        0.017   0.0%    99.2%  [      13,611 ]   ai_node_82    
   83      89     EltwiseInt (0x114)        0.011   0.0%    99.3%  [       8,656 ]   ai_node_83    
   84      90     EltwiseInt (0x114)        0.002   0.0%    99.3%  [       1,697 ]   ai_node_84    
   85      91     NL (0x107)                0.011   0.0%    99.3%  [       8,659 ]   ai_node_85    
   86      92     NL (0x107)                0.008   0.0%    99.3%  [       6,522 ]   ai_node_86    
   87      93     NL (0x107)                0.013   0.0%    99.3%  [      10,043 ]   ai_node_87    
   88      93     NL (0x107)                0.006   0.0%    99.3%  [       5,198 ]   ai_node_88    
   89      96     Eltwise (0x113)           0.037   0.0%    99.3%  [      29,212 ]   ai_node_89    
   90      97     NL (0x107)                0.007   0.0%    99.3%  [       5,220 ]   ai_node_90    
   91      98     EltwiseInt (0x114)        0.014   0.0%    99.3%  [      11,137 ]   ai_node_91    
   92      99     EltwiseInt (0x114)        0.014   0.0%    99.3%  [      11,390 ]   ai_node_92    
   93      102    EltwiseInt (0x114)        0.021   0.0%    99.3%  [      16,473 ]   ai_node_93    
   94      103    EltwiseInt (0x114)        0.017   0.0%    99.3%  [      13,685 ]   ai_node_94    
   95      104    EltwiseInt (0x114)        0.011   0.0%    99.3%  [       8,674 ]   ai_node_95    
   96      105    EltwiseInt (0x114)        0.002   0.0%    99.4%  [       1,882 ]   ai_node_96    
   97      106    NL (0x107)                0.011   0.0%    99.4%  [       8,594 ]   ai_node_97    
   98      107    NL (0x107)                0.008   0.0%    99.4%  [       6,382 ]   ai_node_98    
   99      108    NL (0x107)                0.012   0.0%    99.4%  [       9,559 ]   ai_node_99    
   100     108    NL (0x107)                0.007   0.0%    99.4%  [       5,701 ]   ai_node_100   
   101     111    Eltwise (0x113)           0.037   0.0%    99.4%  [      29,575 ]   ai_node_101   
   102     112    NL (0x107)                0.007   0.0%    99.4%  [       5,309 ]   ai_node_102   
   103     113    EltwiseInt (0x114)        0.014   0.0%    99.4%  [      10,877 ]   ai_node_103   
   104     114    EltwiseInt (0x114)        0.016   0.0%    99.4%  [      12,462 ]   ai_node_104   
   105     117    EltwiseInt (0x114)        0.021   0.0%    99.4%  [      16,916 ]   ai_node_105   
   106     118    EltwiseInt (0x114)        0.017   0.0%    99.4%  [      13,929 ]   ai_node_106   
   107     119    EltwiseInt (0x114)        0.011   0.0%    99.4%  [       8,885 ]   ai_node_107   
   108     120    EltwiseInt (0x114)        0.002   0.0%    99.4%  [       1,793 ]   ai_node_108   
   109     121    NL (0x107)                0.011   0.0%    99.5%  [       8,622 ]   ai_node_109   
   110     122    NL (0x107)                0.008   0.0%    99.5%  [       6,518 ]   ai_node_110   
   111     123    NL (0x107)                0.012   0.0%    99.5%  [       9,536 ]   ai_node_111   
   112     123    NL (0x107)                0.007   0.0%    99.5%  [       5,963 ]   ai_node_112   
   113     126    Eltwise (0x113)           0.038   0.0%    99.5%  [      30,322 ]   ai_node_113   
   114     127    NL (0x107)                0.007   0.0%    99.5%  [       5,227 ]   ai_node_114   
   115     128    EltwiseInt (0x114)        0.014   0.0%    99.5%  [      10,895 ]   ai_node_115   
   116     129    EltwiseInt (0x114)        0.015   0.0%    99.5%  [      11,832 ]   ai_node_116   
   117     132    EltwiseInt (0x114)        0.021   0.0%    99.5%  [      16,689 ]   ai_node_117   
   118     133    EltwiseInt (0x114)        0.017   0.0%    99.5%  [      13,453 ]   ai_node_118   
   119     134    EltwiseInt (0x114)        0.011   0.0%    99.5%  [       8,968 ]   ai_node_119   
   120     135    EltwiseInt (0x114)        0.002   0.0%    99.5%  [       1,773 ]   ai_node_120   
   121     136    NL (0x107)                0.011   0.0%    99.5%  [       8,708 ]   ai_node_121   
   122     137    NL (0x107)                0.008   0.0%    99.6%  [       6,395 ]   ai_node_122   
   123     138    NL (0x107)                0.012   0.0%    99.6%  [       9,606 ]   ai_node_123   
   124     138    NL (0x107)                0.007   0.0%    99.6%  [       5,978 ]   ai_node_124   
   125     141    Eltwise (0x113)           0.038   0.0%    99.6%  [      30,053 ]   ai_node_125   
   126     142    NL (0x107)                0.006   0.0%    99.6%  [       5,153 ]   ai_node_126   
   127     143    EltwiseInt (0x114)        0.014   0.0%    99.6%  [      10,846 ]   ai_node_127   
   128     144    EltwiseInt (0x114)        0.016   0.0%    99.6%  [      12,566 ]   ai_node_128   
   129     145    EltwiseInt (0x114)        0.020   0.0%    99.6%  [      16,332 ]   ai_node_129   
   130     146    EltwiseInt (0x114)        0.017   0.0%    99.6%  [      13,240 ]   ai_node_130   
   131     147    EltwiseInt (0x114)        0.011   0.0%    99.6%  [       8,599 ]   ai_node_131   
   132     148    EltwiseInt (0x114)        0.002   0.0%    99.6%  [       1,673 ]   ai_node_132   
   133     149    NL (0x107)                0.011   0.0%    99.6%  [       8,534 ]   ai_node_133   
   134     150    NL (0x107)                0.008   0.0%    99.6%  [       6,445 ]   ai_node_134   
   135     151    NL (0x107)                0.012   0.0%    99.7%  [       9,431 ]   ai_node_135   
   136     151    NL (0x107)                0.007   0.0%    99.7%  [       5,600 ]   ai_node_136   
   137     154    Concat (0x110)            0.018   0.0%    99.7%  [      14,398 ]   ai_node_137   
   138     154    NL (0x107)                0.079   0.0%    99.7%  [      62,823 ]   ai_node_138   
   139     155    Reduce (0x119)            0.333   0.2%    99.9%  [     266,035 ]   ai_node_139   
   140     155    NL (0x107)                0.007   0.0%    99.9%  [       5,377 ]   ai_node_140   
   141     156    Dense (0x104)             0.141   0.1%   100.0%  [     113,039 ]   ai_node_141   
   142     157    Softmax (0x10c)           0.005   0.0%   100.0%  [       3,721 ]   ai_node_142   
   143     158    NL (0x107)                0.001   0.0%   100.0%  [         990 ]   ai_node_143   
   ------------------------------------------------------------------------------------------------
   n/a     n/a    Inter-nodal               0.000   0.0%   100.0%                    n/a           
   ------------------------------------------------------------------------------------------------
   total                                  170.323                  [ 136,258,323 ]                 
   ------------------------------------------------------------------------------------------------
   
   Statistic per tensor
   ------------------------------------------------------------------------------------
   tensor   #    type[shape]:size            min     max     mean      std  name       
   ------------------------------------------------------------------------------------
   I.0      10   f32[1,10,1,784]:31360     0.000   1.000    0.116    0.321  input_1    
   O.0      10   u8[1,1,1,10]:10               0     255   25.520   70.808  output_1   
   ------------------------------------------------------------------------------------
 
Saving validation data...
 output directory: C:\ST\STEdgeAI\2.2\Projects\STM32N6570-DK\Applications\CM55_Validation\st_ai_output
 creating C:\ST\STEdgeAI\2.2\Projects\STM32N6570-DK\Applications\CM55_Validation\st_ai_output\network_val_io.npz
 creating C:\ST\STEdgeAI\2.2\Projects\STM32N6570-DK\Applications\CM55_Validation\st_ai_output\network_val_m_inputs_1.csv
 creating C:\ST\STEdgeAI\2.2\Projects\STM32N6570-DK\Applications\CM55_Validation\st_ai_output\network_val_m_inputs_1.npy
 - w/o data, number of item by sample is exceeded: 7840 > 512
 creating C:\ST\STEdgeAI\2.2\Projects\STM32N6570-DK\Applications\CM55_Validation\st_ai_output\network_val_c_inputs_1.csv
 creating C:\ST\STEdgeAI\2.2\Projects\STM32N6570-DK\Applications\CM55_Validation\st_ai_output\network_val_c_inputs_1.npy
 - w/o data, number of item by sample is exceeded: 7840 > 512
 creating C:\ST\STEdgeAI\2.2\Projects\STM32N6570-DK\Applications\CM55_Validation\st_ai_output\network_val_m_outputs_1.csv
 creating C:\ST\STEdgeAI\2.2\Projects\STM32N6570-DK\Applications\CM55_Validation\st_ai_output\network_val_m_outputs_1.npy
 m_outputs_1: (10, 10)/uint8, min/max=[0, 255], mean/std=[25.520000, 70.808401], conversion_158
 creating C:\ST\STEdgeAI\2.2\Projects\STM32N6570-DK\Applications\CM55_Validation\st_ai_output\network_val_c_outputs_1.csv
 creating C:\ST\STEdgeAI\2.2\Projects\STM32N6570-DK\Applications\CM55_Validation\st_ai_output\network_val_c_outputs_1.npy
 c_outputs_1: (10, 1, 1, 10)/uint8, min/max=[0, 255], mean/std=[25.520000, 70.808401], scale=0.003906250 zp=0, conversion_158

 
Computing the metrics...

 Accuracy report #1 for the generated TARGET C-model
 ----------------------------------------------------------------------------------------------------
 notes: - r/uint8 data are dequantized with s=0.00390625 zp=0
        - p/uint8 data are dequantized with s=0.00390625 zp=0
        - computed against the provided ground truth values
        - 10 samples (10 items per sample)

  acc=80.00% rmse=0.292886436 mae=0.099296875 l2r=0.996174574 mean=-0.099297 std=0.276929 nse=-56945.405530 cos=0.910868 
 
  Confusion matrix (axis=-1) - 10 classes (10 samples)
  ----------------------------------------------------------
  C0        1    .    .    .    .    .    .    .    .    .  
  C1        .    2    .    .    .    .    .    .    .    .  
  C2        .    .    1    .    .    .    .    .    .    .  
  C3        .    .    .    0    .    .    .    .    .    .  
  C4        .    .    .    .    1    .    .    .    1    .  
  C5        .    .    .    .    .    0    1    .    .    .  
  C6        .    .    .    .    .    .    0    .    .    .  
  C7        .    .    .    .    .    .    .    1    .    .  
  C8        .    .    .    .    .    .    .    .    0    .  
  C9        .    .    .    .    .    .    .    .    .    2  

 Accuracy report #1 for the reference model
 ----------------------------------------------------------------------------------------------------
 notes: - r/uint8 data are dequantized with s=0.00390625 zp=0
        - p/uint8 data are dequantized with s=0.00390625 zp=0
        - computed against the provided ground truth values
        - 10 samples (10 items per sample)

  acc=80.00% rmse=0.292886436 mae=0.099296875 l2r=0.996174574 mean=-0.099297 std=0.276929 nse=-56945.405530 cos=0.910868 
 
  Confusion matrix (axis=-1) - 10 classes (10 samples)
  ----------------------------------------------------------
  C0        1    .    .    .    .    .    .    .    .    .  
  C1        .    2    .    .    .    .    .    .    .    .  
  C2        .    .    1    .    .    .    .    .    .    .  
  C3        .    .    .    0    .    .    .    .    .    .  
  C4        .    .    .    .    1    .    .    .    1    .  
  C5        .    .    .    .    .    0    1    .    .    .  
  C6        .    .    .    .    .    .    0    .    .    .  
  C7        .    .    .    .    .    .    .    1    .    .  
  C8        .    .    .    .    .    .    .    .    0    .  
  C9        .    .    .    .    .    .    .    .    .    2  

 Cross accuracy report #1 (reference vs C-model)
 ----------------------------------------------------------------------------------------------------
 notes: - r/uint8 data are dequantized with s=0.00390625 zp=0
        - p/uint8 data are dequantized with s=0.00390625 zp=0
        - the output of the reference model is used as ground truth/reference value
        - 10 samples (10 items per sample)

  acc=100.00% rmse=0.000000000 mae=0.000000000 l2r=0.000000000 mean=0.000000 std=0.000000 nse=1.000000 cos=1.000000 
 
  Confusion matrix (axis=-1) - 10 classes (10 samples)
  ----------------------------------------------------------
  C0        1    .    .    .    .    .    .    .    .    .  
  C1        .    2    .    .    .    .    .    .    .    .  
  C2        .    .    1    .    .    .    .    .    .    .  
  C3        .    .    .    0    .    .    .    .    .    .  
  C4        .    .    .    .    1    .    .    .    .    .  
  C5        .    .    .    .    .    0    .    .    .    .  
  C6        .    .    .    .    .    .    1    .    .    .  
  C7        .    .    .    .    .    .    .    1    .    .  
  C8        .    .    .    .    .    .    .    .    1    .  
  C9        .    .    .    .    .    .    .    .    .    2  

Checking the "rmse" metric (idx=-1 target=0.01, cat=x-cross)...

 Params: validate -m .\snn_mnist_quant_1000_1.tflite --target stm32n6 --mode target --desc serial:921600 --memory-pool ./mypool_N6.json -vi .\val_data_10.npz --classifier -v 3
 X-cross #1 - "rmse" metric is used, 0.00000000e+00 (should be inferior to 0.01): OK

Number of operations per c-layer
------- ------ --------------------------------------------- ----------- -------------- 
c_id    m_id   name (type)                                           #op           type 
------- ------ --------------------------------------------- ----------- -------------- 
0       0      conversion_0 (Conversion)                          15,680    smul_f32_s8 
1       130    slice_130 (Slice)                                       0     smul_s8_s8 
2       131    gemm_131 (Dense)                                  785,000     smul_s8_s8 
3       115    slice_115 (Slice)                                       0     smul_s8_s8 
4       116    gemm_116 (Dense)                                  785,000     smul_s8_s8 
5       100    slice_100 (Slice)                                       0     smul_s8_s8 
6       101    gemm_101 (Dense)                                  785,000     smul_s8_s8 
7       85     slice_85 (Slice)                                        0     smul_s8_s8 
8       86     gemm_86 (Dense)                                   785,000     smul_s8_s8 
9       70     slice_70 (Slice)                                        0     smul_s8_s8 
10      71     gemm_71 (Dense)                                   785,000     smul_s8_s8 
11      55     slice_55 (Slice)                                        0     smul_s8_s8 
12      56     gemm_56 (Dense)                                   785,000     smul_s8_s8 
13      40     slice_40 (Slice)                                        0     smul_s8_s8 
14      41     gemm_41 (Dense)                                   785,000     smul_s8_s8 
15      25     slice_25 (Slice)                                        0     smul_s8_s8 
16      26     gemm_26 (Dense)                                   785,000     smul_s8_s8 
17      23     slice_23 (Slice)                                        0     smul_s8_s8 
18      24     gemm_24 (Dense)                                   785,000     smul_s8_s8 
19      8      slice_8 (Slice)                                         0     smul_s8_s8 
20      9      gemm_9 (Dense)                                    785,000     smul_s8_s8 
21      10     eltwise_10 (Eltwise/add)                            1,000       op_s8_s8 
22      11     eltwise_11 (Eltwise/mul)                            1,000       op_s8_s8 
23      12     eltwise_12 (Eltwise/add)                            1,000       op_s8_s8 
24      13     eltwise_13 (Eltwise/min)                            1,000       op_s8_s8 
25      14     nl_14 (Nonlinearity)                                1,000       op_s8_s8 
26      15     conversion_15 (Conversion)                          2,000    smul_s8_f32 
27      16     nl_16 (Nonlinearity)                                2,000     op_f32_f32 
28      16     nl_16_0_conversion (Conversion)                     2,000    smul_f32_s8 
29      19     eltwise_19 (Eltwise/sub)                                1     op_f32_f32 
30      20     conversion_20 (Conversion)                          2,000    smul_f32_s8 
31      21     eltwise_21 (Eltwise/mul)                            1,000       op_s8_s8 
32      22     eltwise_22 (Eltwise/mul)                            1,000       op_s8_s8 
33      27     eltwise_27 (Eltwise/add)                            1,000       op_s8_s8 
34      28     eltwise_28 (Eltwise/mul)                            1,000       op_s8_s8 
35      29     eltwise_29 (Eltwise/add)                            1,000       op_s8_s8 
36      30     eltwise_30 (Eltwise/min)                            1,000       op_s8_s8 
37      31     nl_31 (Nonlinearity)                                1,000       op_s8_s8 
38      32     conversion_32 (Conversion)                          2,000    smul_s8_f32 
39      33     nl_33 (Nonlinearity)                                2,000     op_f32_f32 
40      33     nl_33_0_0_reshape_..conversion (Conversion)         2,000    smul_f32_s8 
41      36     eltwise_36 (Eltwise/sub)                                1     op_f32_f32 
42      37     conversion_37 (Conversion)                          2,000    smul_f32_s8 
43      38     eltwise_38 (Eltwise/mul)                            1,000       op_s8_s8 
44      39     eltwise_39 (Eltwise/mul)                            1,000       op_s8_s8 
45      42     eltwise_42 (Eltwise/add)                            1,000       op_s8_s8 
46      43     eltwise_43 (Eltwise/mul)                            1,000       op_s8_s8 
47      44     eltwise_44 (Eltwise/add)                            1,000       op_s8_s8 
48      45     eltwise_45 (Eltwise/min)                            1,000       op_s8_s8 
49      46     nl_46 (Nonlinearity)                                1,000       op_s8_s8 
50      47     conversion_47 (Conversion)                          2,000    smul_s8_f32 
51      48     nl_48 (Nonlinearity)                                2,000     op_f32_f32 
52      48     nl_48_0_0_reshape_..conversion (Conversion)         2,000    smul_f32_s8 
53      51     eltwise_51 (Eltwise/sub)                                1     op_f32_f32 
54      52     conversion_52 (Conversion)                          2,000    smul_f32_s8 
55      53     eltwise_53 (Eltwise/mul)                            1,000       op_s8_s8 
56      54     eltwise_54 (Eltwise/mul)                            1,000       op_s8_s8 
57      57     eltwise_57 (Eltwise/add)                            1,000       op_s8_s8 
58      58     eltwise_58 (Eltwise/mul)                            1,000       op_s8_s8 
59      59     eltwise_59 (Eltwise/add)                            1,000       op_s8_s8 
60      60     eltwise_60 (Eltwise/min)                            1,000       op_s8_s8 
61      61     nl_61 (Nonlinearity)                                1,000       op_s8_s8 
62      62     conversion_62 (Conversion)                          2,000    smul_s8_f32 
63      63     nl_63 (Nonlinearity)                                2,000     op_f32_f32 
64      63     nl_63_0_0_reshape_..conversion (Conversion)         2,000    smul_f32_s8 
65      66     eltwise_66 (Eltwise/sub)                                1     op_f32_f32 
66      67     conversion_67 (Conversion)                          2,000    smul_f32_s8 
67      68     eltwise_68 (Eltwise/mul)                            1,000       op_s8_s8 
68      69     eltwise_69 (Eltwise/mul)                            1,000       op_s8_s8 
69      72     eltwise_72 (Eltwise/add)                            1,000       op_s8_s8 
70      73     eltwise_73 (Eltwise/mul)                            1,000       op_s8_s8 
71      74     eltwise_74 (Eltwise/add)                            1,000       op_s8_s8 
72      75     eltwise_75 (Eltwise/min)                            1,000       op_s8_s8 
73      76     nl_76 (Nonlinearity)                                1,000       op_s8_s8 
74      77     conversion_77 (Conversion)                          2,000    smul_s8_f32 
75      78     nl_78 (Nonlinearity)                                2,000     op_f32_f32 
76      78     nl_78_0_0_reshape_..conversion (Conversion)         2,000    smul_f32_s8 
77      81     eltwise_81 (Eltwise/sub)                                1     op_f32_f32 
78      82     conversion_82 (Conversion)                          2,000    smul_f32_s8 
79      83     eltwise_83 (Eltwise/mul)                            1,000       op_s8_s8 
80      84     eltwise_84 (Eltwise/mul)                            1,000       op_s8_s8 
81      87     eltwise_87 (Eltwise/add)                            1,000       op_s8_s8 
82      88     eltwise_88 (Eltwise/mul)                            1,000       op_s8_s8 
83      89     eltwise_89 (Eltwise/add)                            1,000       op_s8_s8 
84      90     eltwise_90 (Eltwise/min)                            1,000       op_s8_s8 
85      91     nl_91 (Nonlinearity)                                1,000       op_s8_s8 
86      92     conversion_92 (Conversion)                          2,000    smul_s8_f32 
87      93     nl_93 (Nonlinearity)                                2,000     op_f32_f32 
88      93     nl_93_0_0_reshape_..conversion (Conversion)         2,000    smul_f32_s8 
89      96     eltwise_96 (Eltwise/sub)                                1     op_f32_f32 
90      97     conversion_97 (Conversion)                          2,000    smul_f32_s8 
91      98     eltwise_98 (Eltwise/mul)                            1,000       op_s8_s8 
92      99     eltwise_99 (Eltwise/mul)                            1,000       op_s8_s8 
93      102    eltwise_102 (Eltwise/add)                           1,000       op_s8_s8 
94      103    eltwise_103 (Eltwise/mul)                           1,000       op_s8_s8 
95      104    eltwise_104 (Eltwise/add)                           1,000       op_s8_s8 
96      105    eltwise_105 (Eltwise/min)                           1,000       op_s8_s8 
97      106    nl_106 (Nonlinearity)                               1,000       op_s8_s8 
98      107    conversion_107 (Conversion)                         2,000    smul_s8_f32 
99      108    nl_108 (Nonlinearity)                               2,000     op_f32_f32 
100     108    nl_108_0_0_reshape..conversion (Conversion)         2,000    smul_f32_s8 
101     111    eltwise_111 (Eltwise/sub)                               1     op_f32_f32 
102     112    conversion_112 (Conversion)                         2,000    smul_f32_s8 
103     113    eltwise_113 (Eltwise/mul)                           1,000       op_s8_s8 
104     114    eltwise_114 (Eltwise/mul)                           1,000       op_s8_s8 
105     117    eltwise_117 (Eltwise/add)                           1,000       op_s8_s8 
106     118    eltwise_118 (Eltwise/mul)                           1,000       op_s8_s8 
107     119    eltwise_119 (Eltwise/add)                           1,000       op_s8_s8 
108     120    eltwise_120 (Eltwise/min)                           1,000       op_s8_s8 
109     121    nl_121 (Nonlinearity)                               1,000       op_s8_s8 
110     122    conversion_122 (Conversion)                         2,000    smul_s8_f32 
111     123    nl_123 (Nonlinearity)                               2,000     op_f32_f32 
112     123    nl_123_0_0_reshape..conversion (Conversion)         2,000    smul_f32_s8 
113     126    eltwise_126 (Eltwise/sub)                               1     op_f32_f32 
114     127    conversion_127 (Conversion)                         2,000    smul_f32_s8 
115     128    eltwise_128 (Eltwise/mul)                           1,000       op_s8_s8 
116     129    eltwise_129 (Eltwise/mul)                           1,000       op_s8_s8 
117     132    eltwise_132 (Eltwise/add)                           1,000       op_s8_s8 
118     133    eltwise_133 (Eltwise/mul)                           1,000       op_s8_s8 
119     134    eltwise_134 (Eltwise/add)                           1,000       op_s8_s8 
120     135    eltwise_135 (Eltwise/min)                           1,000       op_s8_s8 
121     136    nl_136 (Nonlinearity)                               1,000       op_s8_s8 
122     137    conversion_137 (Conversion)                         2,000    smul_s8_f32 
123     138    nl_138 (Nonlinearity)                               2,000     op_f32_f32 
124     138    nl_138_0_0_reshape..conversion (Conversion)         2,000    smul_f32_s8 
125     141    eltwise_141 (Eltwise/sub)                               1     op_f32_f32 
126     142    conversion_142 (Conversion)                         2,000    smul_f32_s8 
127     143    eltwise_143 (Eltwise/mul)                           1,000       op_s8_s8 
128     144    eltwise_144 (Eltwise/mul)                           1,000       op_s8_s8 
129     145    eltwise_145 (Eltwise/add)                           1,000       op_s8_s8 
130     146    eltwise_146 (Eltwise/mul)                           1,000       op_s8_s8 
131     147    eltwise_147 (Eltwise/add)                           1,000       op_s8_s8 
132     148    eltwise_148 (Eltwise/min)                           1,000       op_s8_s8 
133     149    nl_149 (Nonlinearity)                               1,000       op_s8_s8 
134     150    conversion_150 (Conversion)                         2,000    smul_s8_f32 
135     151    nl_151 (Nonlinearity)                               2,000     op_f32_f32 
136     151    nl_151_0_0_reshape..conversion (Conversion)         2,000    smul_f32_s8 
137     154    concat_154 (Concat)                                     0     smul_s8_s8 
138     154    concat_154_0_conversion (Conversion)               20,000    smul_s8_f32 
139     155    reduce_155 (Reduce)                                10,000   smul_f32_f32 
140     155    reduce_155_0_0_gem..conversion (Conversion)         2,000    smul_f32_s8 
141     156    gemm_156 (Dense)                                   10,010     smul_s8_s8 
142     157    nl_157 (Nonlinearity)                                 150       op_s8_s8 
143     158    conversion_158 (Conversion)                            20     smul_s8_u8 
------- ------ --------------------------------------------- ----------- -------------- 
total                                                          8,053,869 

Number of operation types
---------------- ----------- ----------- 
operation type             #           % 
---------------- ----------- ----------- 
smul_f32_s8           55,680        0.7% 
smul_s8_s8         7,860,010       97.6% 
op_s8_s8              68,150        0.8% 
smul_s8_f32           40,000        0.5% 
op_f32_f32            20,009        0.2% 
smul_f32_f32          10,000        0.1% 
smul_s8_u8                20        0.0% 

Complexity report (model)
------ ------------------------------- ------------------------- ------------------------- ------------ -------- ------------------ 
m_id   name                            c_macc                    c_rom                     c_id         c_dur    rmse (X-CROSS)     
------ ------------------------------- ------------------------- ------------------------- ------------ -------- ------------------ 
0      serving_default_keras_tensor0   |                  0.2%   |                  0.0%   [0]            0.0%                      
8      slice_8                         |                  0.0%   |                  0.0%   [19]           0.0%                      
9      tfl_pseudo_qconst3              ||||||||||||||||   9.7%   ||||||||||||||||  98.5%   [20]           9.9%                      
10     eltwise_10                      |                  0.0%   |                  0.1%   [21]           0.0%                      
11     tfl_pseudo_qconst2              |                  0.0%   |                  0.0%   [22]           0.0%                      
12     eltwise_12                      |                  0.0%   |                  0.0%   [23]           0.0%                      
13     tfl_pseudo_qconst5              |                  0.0%   |                  0.0%   [24]           0.0%                      
14     nl_14                           |                  0.0%   |                  0.0%   [25]           0.0%                      
15     conversion_15                   |                  0.0%   |                  0.0%   [26]           0.0%                      
16     nl_16                           |                  0.0%   |                  0.0%   [27, 28]       0.0%                      
19     arith_constant                  |                  0.0%   |                  0.0%   [29]           0.0%                      
20     conversion_20                   |                  0.0%   |                  0.0%   [30]           0.0%                      
21     eltwise_21                      |                  0.0%   |                  0.0%   [31]           0.0%                      
22     eltwise_22                      |                  0.0%   |                  0.1%   [32]           0.0%                      
23     slice_23                        |                  0.0%   |                  0.0%   [17]           0.0%                      
24     gemm_24                         ||||||||||||||||   9.7%   ||||||||||||||||  98.5%   [18]           9.9%                      
25     slice_25                        |                  0.0%   |                  0.0%   [15]           0.0%                      
26     gemm_26                         ||||||||||||||||   9.7%   ||||||||||||||||  98.5%   [16]           9.8%                      
27     eltwise_27                      |                  0.0%   |                  0.0%   [33]           0.0%                      
28     eltwise_28                      |                  0.0%   |                  0.0%   [34]           0.0%                      
29     eltwise_29                      |                  0.0%   |                  0.0%   [35]           0.0%                      
30     tfl_pseudo_qconst6              |                  0.0%   |                  0.0%   [36]           0.0%                      
31     nl_31                           |                  0.0%   |                  0.0%   [37]           0.0%                      
32     conversion_32                   |                  0.0%   |                  0.0%   [38]           0.0%                      
33     nl_33                           |                  0.0%   |                  0.0%   [39, 40]       0.0%                      
36     eltwise_36                      |                  0.0%   |                  0.0%   [41]           0.0%                      
37     conversion_37                   |                  0.0%   |                  0.0%   [42]           0.0%                      
38     eltwise_38                      |                  0.0%   |                  0.0%   [43]           0.0%                      
39     eltwise_39                      |                  0.0%   |                  0.1%   [44]           0.0%                      
40     slice_40                        |                  0.0%   |                  0.0%   [13]           0.0%                      
41     gemm_41                         ||||||||||||||||   9.7%   ||||||||||||||||  98.5%   [14]           9.9%                      
42     eltwise_42                      |                  0.0%   |                  0.0%   [45]           0.0%                      
43     eltwise_43                      |                  0.0%   |                  0.0%   [46]           0.0%                      
44     eltwise_44                      |                  0.0%   |                  0.0%   [47]           0.0%                      
45     tfl_pseudo_qconst7              |                  0.0%   |                  0.0%   [48]           0.0%                      
46     nl_46                           |                  0.0%   |                  0.0%   [49]           0.0%                      
47     conversion_47                   |                  0.0%   |                  0.0%   [50]           0.0%                      
48     nl_48                           |                  0.0%   |                  0.0%   [51, 52]       0.0%                      
51     eltwise_51                      |                  0.0%   |                  0.0%   [53]           0.0%                      
52     conversion_52                   |                  0.0%   |                  0.0%   [54]           0.0%                      
53     eltwise_53                      |                  0.0%   |                  0.0%   [55]           0.0%                      
54     eltwise_54                      |                  0.0%   |                  0.1%   [56]           0.0%                      
55     slice_55                        |                  0.0%   |                  0.0%   [11]           0.0%                      
56     gemm_56                         ||||||||||||||||   9.7%   ||||||||||||||||  98.5%   [12]           9.9%                      
57     eltwise_57                      |                  0.0%   |                  0.0%   [57]           0.0%                      
58     eltwise_58                      |                  0.0%   |                  0.0%   [58]           0.0%                      
59     eltwise_59                      |                  0.0%   |                  0.0%   [59]           0.0%                      
60     tfl_pseudo_qconst8              |                  0.0%   |                  0.0%   [60]           0.0%                      
61     nl_61                           |                  0.0%   |                  0.0%   [61]           0.0%                      
62     conversion_62                   |                  0.0%   |                  0.0%   [62]           0.0%                      
63     nl_63                           |                  0.0%   |                  0.0%   [63, 64]       0.0%                      
66     eltwise_66                      |                  0.0%   |                  0.0%   [65]           0.0%                      
67     conversion_67                   |                  0.0%   |                  0.0%   [66]           0.0%                      
68     eltwise_68                      |                  0.0%   |                  0.0%   [67]           0.0%                      
69     eltwise_69                      |                  0.0%   |                  0.1%   [68]           0.0%                      
70     slice_70                        |                  0.0%   |                  0.0%   [9]            0.0%                      
71     gemm_71                         ||||||||||||||||   9.7%   ||||||||||||||||  98.5%   [10]           9.9%                      
72     eltwise_72                      |                  0.0%   |                  0.0%   [69]           0.0%                      
73     eltwise_73                      |                  0.0%   |                  0.0%   [70]           0.0%                      
74     eltwise_74                      |                  0.0%   |                  0.0%   [71]           0.0%                      
75     tfl_pseudo_qconst9              |                  0.0%   |                  0.0%   [72]           0.0%                      
76     nl_76                           |                  0.0%   |                  0.0%   [73]           0.0%                      
77     conversion_77                   |                  0.0%   |                  0.0%   [74]           0.0%                      
78     nl_78                           |                  0.0%   |                  0.0%   [75, 76]       0.0%                      
81     eltwise_81                      |                  0.0%   |                  0.0%   [77]           0.0%                      
82     conversion_82                   |                  0.0%   |                  0.0%   [78]           0.0%                      
83     eltwise_83                      |                  0.0%   |                  0.0%   [79]           0.0%                      
84     eltwise_84                      |                  0.0%   |                  0.1%   [80]           0.0%                      
85     slice_85                        |                  0.0%   |                  0.0%   [7]            0.0%                      
86     gemm_86                         ||||||||||||||||   9.7%   ||||||||||||||||  98.5%   [8]            9.9%                      
87     eltwise_87                      |                  0.0%   |                  0.0%   [81]           0.0%                      
88     eltwise_88                      |                  0.0%   |                  0.0%   [82]           0.0%                      
89     eltwise_89                      |                  0.0%   |                  0.0%   [83]           0.0%                      
90     tfl_pseudo_qconst10             |                  0.0%   |                  0.0%   [84]           0.0%                      
91     nl_91                           |                  0.0%   |                  0.0%   [85]           0.0%                      
92     conversion_92                   |                  0.0%   |                  0.0%   [86]           0.0%                      
93     nl_93                           |                  0.0%   |                  0.0%   [87, 88]       0.0%                      
96     eltwise_96                      |                  0.0%   |                  0.0%   [89]           0.0%                      
97     conversion_97                   |                  0.0%   |                  0.0%   [90]           0.0%                      
98     eltwise_98                      |                  0.0%   |                  0.0%   [91]           0.0%                      
99     eltwise_99                      |                  0.0%   |                  0.1%   [92]           0.0%                      
100    slice_100                       |                  0.0%   |                  0.0%   [5]            0.0%                      
101    gemm_101                        ||||||||||||||||   9.7%   ||||||||||||||||  98.5%   [6]            9.9%                      
102    eltwise_102                     |                  0.0%   |                  0.0%   [93]           0.0%                      
103    eltwise_103                     |                  0.0%   |                  0.0%   [94]           0.0%                      
104    eltwise_104                     |                  0.0%   |                  0.0%   [95]           0.0%                      
105    tfl_pseudo_qconst11             |                  0.0%   |                  0.0%   [96]           0.0%                      
106    nl_106                          |                  0.0%   |                  0.0%   [97]           0.0%                      
107    conversion_107                  |                  0.0%   |                  0.0%   [98]           0.0%                      
108    nl_108                          |                  0.0%   |                  0.0%   [99, 100]      0.0%                      
111    eltwise_111                     |                  0.0%   |                  0.0%   [101]          0.0%                      
112    conversion_112                  |                  0.0%   |                  0.0%   [102]          0.0%                      
113    eltwise_113                     |                  0.0%   |                  0.0%   [103]          0.0%                      
114    eltwise_114                     |                  0.0%   |                  0.1%   [104]          0.0%                      
115    slice_115                       |                  0.0%   |                  0.0%   [3]            0.0%                      
116    gemm_116                        ||||||||||||||||   9.7%   ||||||||||||||||  98.5%   [4]            9.9%                      
117    eltwise_117                     |                  0.0%   |                  0.0%   [105]          0.0%                      
118    eltwise_118                     |                  0.0%   |                  0.0%   [106]          0.0%                      
119    eltwise_119                     |                  0.0%   |                  0.0%   [107]          0.0%                      
120    tfl_pseudo_qconst12             |                  0.0%   |                  0.0%   [108]          0.0%                      
121    nl_121                          |                  0.0%   |                  0.0%   [109]          0.0%                      
122    conversion_122                  |                  0.0%   |                  0.0%   [110]          0.0%                      
123    nl_123                          |                  0.0%   |                  0.0%   [111, 112]     0.0%                      
126    eltwise_126                     |                  0.0%   |                  0.0%   [113]          0.0%                      
127    conversion_127                  |                  0.0%   |                  0.0%   [114]          0.0%                      
128    eltwise_128                     |                  0.0%   |                  0.0%   [115]          0.0%                      
129    eltwise_129                     |                  0.0%   |                  0.1%   [116]          0.0%                      
130    slice_130                       |                  0.0%   |                  0.0%   [1]            0.0%                      
131    gemm_131                        ||||||||||||||||   9.7%   ||||||||||||||||  98.5%   [2]            9.9%                      
132    eltwise_132                     |                  0.0%   |                  0.0%   [117]          0.0%                      
133    eltwise_133                     |                  0.0%   |                  0.0%   [118]          0.0%                      
134    eltwise_134                     |                  0.0%   |                  0.0%   [119]          0.0%                      
135    tfl_pseudo_qconst13             |                  0.0%   |                  0.0%   [120]          0.0%                      
136    nl_136                          |                  0.0%   |                  0.0%   [121]          0.0%                      
137    conversion_137                  |                  0.0%   |                  0.0%   [122]          0.0%                      
138    nl_138                          |                  0.0%   |                  0.0%   [123, 124]     0.0%                      
141    eltwise_141                     |                  0.0%   |                  0.0%   [125]          0.0%                      
142    conversion_142                  |                  0.0%   |                  0.0%   [126]          0.0%                      
143    eltwise_143                     |                  0.0%   |                  0.0%   [127]          0.0%                      
144    eltwise_144                     |                  0.0%   |                  0.1%   [128]          0.0%                      
145    eltwise_145                     |                  0.0%   |                  0.0%   [129]          0.0%                      
146    eltwise_146                     |                  0.0%   |                  0.0%   [130]          0.0%                      
147    eltwise_147                     |                  0.0%   |                  0.0%   [131]          0.0%                      
148    tfl_pseudo_qconst14             |                  0.0%   |                  0.0%   [132]          0.0%                      
149    nl_149                          |                  0.0%   |                  0.0%   [133]          0.0%                      
150    conversion_150                  |                  0.0%   |                  0.0%   [134]          0.0%                      
151    nl_151                          |                  0.0%   |                  0.0%   [135, 136]     0.0%                      
154    concat_154                      |                  0.2%   |                  0.0%   [137, 138]     0.1%                      
155    reduce_155                      |                  0.1%   |                  0.0%   [139, 140]     0.2%                      
156    tfl_pseudo_qconst1              |                  0.1%   |                  1.3%   [141]          0.1%                      
157    nl_157                          |                  0.0%   |                  0.0%   [142]          0.0%                      
158    conversion_158                  |                  0.0%   |                  0.0%   [143]          0.0%   0.00000000e+00 *   
------ ------------------------------- ------------------------- ------------------------- ------------ -------- ------------------ 
macc=8,053,869 weights=800,088 act=52,000 ram_io=0

Evaluation report (summary)
---------------------------------------------------------------------------------------------------------------------------------------------------------------------------
Output              acc       rmse          mae           l2r           mean        std        nse             cos        tensor                                           
---------------------------------------------------------------------------------------------------------------------------------------------------------------------------
TARGET c-model #1   80.00%    0.292886436   0.099296875   0.996174574   -0.099297   0.276929   -56945.405530   0.910868   'conversion_158', 10 x uint8(1x10), m_id=[158]   
original model #1   80.00%    0.292886436   0.099296875   0.996174574   -0.099297   0.276929   -56945.405530   0.910868   'conversion_158', 10 x uint8(1x10), m_id=[158]   
X-cross #1          100.00%   0.000000000   0.000000000   0.000000000   0.000000    0.000000   1.000000        1.000000   'conversion_158', 10 x uint8(1x10), m_id=[158]   
---------------------------------------------------------------------------------------------------------------------------------------------------------------------------

 acc  : Accuracy (class, axis=-1)
 rmse : Root Mean Squared Error
 mae  : Mean Absolute Error
 l2r  : L2 relative error
 mean : Mean error
 std  : Standard deviation error
 nse  : Nash-Sutcliffe efficiency criteria, bigger is better, best=1, range=(-inf, 1]
 cos  : COsine Similarity, bigger is better, best=1, range=(0, 1]
