ST Edge AI Core v2.2.0-20266 2adc00962
Created date          : 2025-08-06 14:51:41
Parameters            : validate -m .\snn_1000_3_V2.tflite --target stm32n6 --mode target --desc serial:921600 --memory-pool ./mypool_N6.json -vi .\val_data_10.npz --classifier -v 3

Exec/report summary (validate)
---------------------------------------------------------------------------------------------------------------------
model file         :   C:\ST\STEdgeAI\2.2\Projects\STM32N6570-DK\Applications\CM55_Validation\snn_1000_3_V2.tflite   
type               :   tflite                                                                                        
c_name             :   network                                                                                       
compression        :   lossless                                                                                      
options            :   allocate-inputs, allocate-outputs, multi-heaps                                                
optimization       :   balanced                                                                                      
target/series      :   stm32n6                                                                                       
memory pool        :   C:\ST\STEdgeAI\2.2\Projects\STM32N6570-DK\Applications\CM55_Validation\mypool_N6.json         
workspace dir      :   C:\ST\STEdgeAI\2.2\Projects\STM32N6570-DK\Applications\CM55_Validation\st_ai_ws               
output dir         :   C:\ST\STEdgeAI\2.2\Projects\STM32N6570-DK\Applications\CM55_Validation\st_ai_output           
vinput files       :   C:\ST\STEdgeAI\2.2\Projects\STM32N6570-DK\Applications\CM55_Validation\val_data_10.npz        
model_fmt          :   sa/sa per tensor                                                                              
model_name         :   snn_1000_3_V2                                                                                 
model_hash         :   0xb545bace9586ae4217c3bcfbc05ea865                                                            
params #           :   2,798,042 items (2.67 MiB)                                                                    
---------------------------------------------------------------------------------------------------------------------
input 1/1          :   'serving_default_keras_tensor0', f32(1x10x784), 30.62 KBytes, activations                     
output 1/1         :   'conversion_466', uint8(1x10), 10 Bytes, QLinear(0.003906250,0,uint8), activations            
macc               :   28,365,887                                                                                    
weights (ro)       :   2,802,168 B (2.67 MiB) (1 segment) / -8,390,000(-75.0%) vs float model                        
activations (rw)   :   52,000 B (50.78 KiB) (1 segment) *                                                            
ram (total)        :   52,000 B (50.78 KiB) = 52,000 + 0 + 0                                                         
---------------------------------------------------------------------------------------------------------------------
(*) 'input'/'output' buffers are allocated in the activations buffer
 
 Memory-pools summary (activations/ domain)
 --------------- -------- ------------------------- --------- 
 name            id       used                      buffer#   
 --------------- -------- ------------------------- --------- 
 POOL_INTERNAL   0        50.78 KiB (5.0%)          451       
 POOL_NPU        unused   -                         0         
 POOL_EXT        unused   -                         0         
 weights_array   3        2.67 MiB (280216800.0%)   42        
 --------------- -------- ------------------------- --------- 
 Warning: ['POOL_NPU', 'POOL_EXT'] memory pool s not used

Model name - snn_1000_3_V2
------ ---------------------------------------------- ------------------- --------------------- ----------- ------------------------------- --- --------------------- --------------------- ------------------------------------- 
m_id   layer (type,original)                          oshape              param/size                   macc                    connected to   | c_size                c_macc                c_type                                
------ ---------------------------------------------- ------------------- --------------------- ----------- ------------------------------- --- --------------------- --------------------- ------------------------------------- 
0      serving_default_keras_tensor0 (Input, )        [b:1,h:10,c:784]                                                                        |                       +15,680(+100.0%)      Conversion_[0]                        
       conversion_0 (Conversion, QUANTIZE)            [b:1,h:10,c:784]                               15,680   serving_default_keras_tensor0   |                       -15,680(-100.0%)      
------ ---------------------------------------------- ------------------- --------------------- ----------- ------------------------------- --- --------------------- --------------------- ------------------------------------- 
7      tfl_pseudo_qconst6 (Placeholder, )             [b:1000]            1,000/1,000                                                         | -1,000(-100.0%)                             
       eltwise_7_const (Placeholder, MUL)             [b:1,c:1000]        1,000/1,000                                                         | -1,000(-100.0%)                             
------ ---------------------------------------------- ------------------- --------------------- ----------- ------------------------------- --- --------------------- --------------------- ------------------------------------- 
8      slice_8 (Slice, STRIDED_SLICE)                 [b:1,h:1,c:784]                                                          conversion_0   |                                             Slice_[19]                            
       reshape_8_reshape (Reshape, STRIDED_SLICE)     [b:1,c:784]                                                                   slice_8   |                                             
------ ---------------------------------------------- ------------------- --------------------- ----------- ------------------------------- --- --------------------- --------------------- ------------------------------------- 
9      tfl_pseudo_qconst5 (Placeholder, )             [b:1000,c:784]      784,000/784,000                                                     | +4,000(+0.5%)         +785,000(+100.0%)     Dense_[20]                            
       gemm_9 (Gemm, FULLY_CONNECTED)                 [b:1,c:1000]                                  785,000               reshape_8_reshape   |                       -785,000(-100.0%)     
                                                                                                                         tfl_pseudo_qconst5   | 
------ ---------------------------------------------- ------------------- --------------------- ----------- ------------------------------- --- --------------------- --------------------- ------------------------------------- 
10     eltwise_10 (Eltwise, ADD)                      [b:1,c:1000]                                    1,000                          gemm_9   | +1,000(+100.0%)                             Eltwise/add_[21]                      
                                                                                                                            eltwise_7_const   | 
------ ---------------------------------------------- ------------------- --------------------- ----------- ------------------------------- --- --------------------- --------------------- ------------------------------------- 
11     tfl_pseudo_qconst4 (Placeholder, )             []                  1/1                                                                 |                       +1,000(+100.0%)       Eltwise/mul_[22]                      
       eltwise_11 (Eltwise, MUL)                      [b:1,c:1000]                                    1,000                      eltwise_10   |                       -1,000(-100.0%)       
                                                                                                                         tfl_pseudo_qconst4   | 
------ ---------------------------------------------- ------------------- --------------------- ----------- ------------------------------- --- --------------------- --------------------- ------------------------------------- 
12     eltwise_12 (Eltwise, ADD)                      [b:1,c:1000]                                    1,000                      eltwise_11   | +1(+100.0%)                                 Eltwise/add_[23]                      
                                                                                                                         tfl_pseudo_qconst4   | 
------ ---------------------------------------------- ------------------- --------------------- ----------- ------------------------------- --- --------------------- --------------------- ------------------------------------- 
13     tfl_pseudo_qconst7 (Placeholder, )             []                  1/1                                                                 |                       +1,000(+100.0%)       Eltwise/min_[24]                      
       eltwise_13 (Eltwise, MINIMUM)                  [b:1,c:1000]                                    1,000                      eltwise_12   |                       -1,000(-100.0%)       
                                                                                                                         tfl_pseudo_qconst7   | 
------ ---------------------------------------------- ------------------- --------------------- ----------- ------------------------------- --- --------------------- --------------------- ------------------------------------- 
14     nl_14 (Nonlinearity, RELU)                     [b:1,c:1000]                                    1,000                      eltwise_13   |                                             Nonlinearity_[25]                     
------ ---------------------------------------------- ------------------- --------------------- ----------- ------------------------------- --- --------------------- --------------------- ------------------------------------- 
15     conversion_15 (Conversion, DEQUANTIZE)         [b:1,c:1000]                                    2,000                           nl_14   |                                             Conversion_[26]                       
------ ---------------------------------------------- ------------------- --------------------- ----------- ------------------------------- --- --------------------- --------------------- ------------------------------------- 
16     nl_16 (Nonlinearity, ROUND)                    [b:1,c:1000]                                    2,000                   conversion_15   |                       +2,000(+100.0%)       Nonlinearity_/Conversion_[27, 28]     
------ ---------------------------------------------- ------------------- --------------------- ----------- ------------------------------- --- --------------------- --------------------- ------------------------------------- 
17     reshape_17 (Reshape, EXPAND_DIMS)              [b:1,h:1,c:1000]                                                                nl_16   |                                             
------ ---------------------------------------------- ------------------- --------------------- ----------- ------------------------------- --- --------------------- --------------------- ------------------------------------- 
18     conversion_18 (Conversion, QUANTIZE)           [b:1,h:1,c:1000]                                2,000                      reshape_17   |                       -2,000(-100.0%)       
------ ---------------------------------------------- ------------------- --------------------- ----------- ------------------------------- --- --------------------- --------------------- ------------------------------------- 
19     arith_constant (Placeholder, )                 []                  1/4                                                                 |                       +1(+100.0%)           Eltwise/sub_[29]                      
       eltwise_19 (Eltwise, SUB)                      [b:1,c:1000]                                        1                  arith_constant   |                       -1(-100.0%)           
                                                                                                                                      nl_16   | 
------ ---------------------------------------------- ------------------- --------------------- ----------- ------------------------------- --- --------------------- --------------------- ------------------------------------- 
20     conversion_20 (Conversion, QUANTIZE)           [b:1,c:1000]                                    2,000                      eltwise_19   |                                             Conversion_[30]                       
------ ---------------------------------------------- ------------------- --------------------- ----------- ------------------------------- --- --------------------- --------------------- ------------------------------------- 
21     eltwise_21 (Eltwise, MUL)                      [b:1,c:1000]                                    1,000                      eltwise_10   |                                             Eltwise/mul_[31]                      
                                                                                                                              conversion_20   | 
------ ---------------------------------------------- ------------------- --------------------- ----------- ------------------------------- --- --------------------- --------------------- ------------------------------------- 
22     eltwise_22 (Eltwise, MUL)                      [b:1,c:1000]                                    1,000                      eltwise_21   | +1,000(+100.0%)                             Eltwise/mul_[32]                      
                                                                                                                         tfl_pseudo_qconst6   | 
------ ---------------------------------------------- ------------------- --------------------- ----------- ------------------------------- --- --------------------- --------------------- ------------------------------------- 
23     slice_23 (Slice, STRIDED_SLICE)                [b:1,h:1,c:784]                                                          conversion_0   |                                             Slice_[17]                            
       reshape_23_reshape (Reshape, STRIDED_SLICE)    [b:1,c:784]                                                                  slice_23   |                                             
------ ---------------------------------------------- ------------------- --------------------- ----------- ------------------------------- --- --------------------- --------------------- ------------------------------------- 
24     gemm_24 (Gemm, FULLY_CONNECTED)                [b:1,c:1000]                                  785,000              reshape_23_reshape   | +788,000(+100.0%)                           Dense_[18]                            
                                                                                                                         tfl_pseudo_qconst5   | 
------ ---------------------------------------------- ------------------- --------------------- ----------- ------------------------------- --- --------------------- --------------------- ------------------------------------- 
25     slice_25 (Slice, STRIDED_SLICE)                [b:1,h:1,c:784]                                                          conversion_0   |                                             Slice_[15]                            
       reshape_25_reshape (Reshape, STRIDED_SLICE)    [b:1,c:784]                                                                  slice_25   |                                             
------ ---------------------------------------------- ------------------- --------------------- ----------- ------------------------------- --- --------------------- --------------------- ------------------------------------- 
26     gemm_26 (Gemm, FULLY_CONNECTED)                [b:1,c:1000]                                  785,000              reshape_25_reshape   | +788,000(+100.0%)                           Dense_[16]                            
                                                                                                                         tfl_pseudo_qconst5   | 
------ ---------------------------------------------- ------------------- --------------------- ----------- ------------------------------- --- --------------------- --------------------- ------------------------------------- 
27     eltwise_27 (Eltwise, ADD)                      [b:1,c:1000]                                    1,000                         gemm_26   |                                             Eltwise/add_[33]                      
                                                                                                                                 eltwise_22   | 
------ ---------------------------------------------- ------------------- --------------------- ----------- ------------------------------- --- --------------------- --------------------- ------------------------------------- 
28     eltwise_28 (Eltwise, MUL)                      [b:1,c:1000]                                    1,000                      eltwise_27   | +1(+100.0%)                                 Eltwise/mul_[34]                      
                                                                                                                         tfl_pseudo_qconst4   | 
------ ---------------------------------------------- ------------------- --------------------- ----------- ------------------------------- --- --------------------- --------------------- ------------------------------------- 
29     eltwise_29 (Eltwise, ADD)                      [b:1,c:1000]                                    1,000                      eltwise_28   | +1(+100.0%)                                 Eltwise/add_[35]                      
                                                                                                                         tfl_pseudo_qconst4   | 
------ ---------------------------------------------- ------------------- --------------------- ----------- ------------------------------- --- --------------------- --------------------- ------------------------------------- 
30     tfl_pseudo_qconst8 (Placeholder, )             []                  1/1                                                                 |                       +1,000(+100.0%)       Eltwise/min_[36]                      
       eltwise_30 (Eltwise, MINIMUM)                  [b:1,c:1000]                                    1,000                      eltwise_29   |                       -1,000(-100.0%)       
                                                                                                                         tfl_pseudo_qconst8   | 
------ ---------------------------------------------- ------------------- --------------------- ----------- ------------------------------- --- --------------------- --------------------- ------------------------------------- 
31     nl_31 (Nonlinearity, RELU)                     [b:1,c:1000]                                    1,000                      eltwise_30   |                                             Nonlinearity_[37]                     
------ ---------------------------------------------- ------------------- --------------------- ----------- ------------------------------- --- --------------------- --------------------- ------------------------------------- 
32     conversion_32 (Conversion, DEQUANTIZE)         [b:1,c:1000]                                    2,000                           nl_31   |                                             Conversion_[38]                       
------ ---------------------------------------------- ------------------- --------------------- ----------- ------------------------------- --- --------------------- --------------------- ------------------------------------- 
33     nl_33 (Nonlinearity, ROUND)                    [b:1,c:1000]                                    2,000                   conversion_32   |                       +2,000(+100.0%)       Nonlinearity_/Conversion_[39, 40]     
------ ---------------------------------------------- ------------------- --------------------- ----------- ------------------------------- --- --------------------- --------------------- ------------------------------------- 
34     reshape_34 (Reshape, EXPAND_DIMS)              [b:1,h:1,c:1000]                                                                nl_33   |                                             
------ ---------------------------------------------- ------------------- --------------------- ----------- ------------------------------- --- --------------------- --------------------- ------------------------------------- 
35     conversion_35 (Conversion, QUANTIZE)           [b:1,h:1,c:1000]                                2,000                      reshape_34   |                       -2,000(-100.0%)       
------ ---------------------------------------------- ------------------- --------------------- ----------- ------------------------------- --- --------------------- --------------------- ------------------------------------- 
36     eltwise_36 (Eltwise, SUB)                      [b:1,c:1000]                                        1                  arith_constant   | +4(+100.0%)                                 Eltwise/sub_[41]                      
                                                                                                                                      nl_33   | 
------ ---------------------------------------------- ------------------- --------------------- ----------- ------------------------------- --- --------------------- --------------------- ------------------------------------- 
37     conversion_37 (Conversion, QUANTIZE)           [b:1,c:1000]                                    2,000                      eltwise_36   |                                             Conversion_[42]                       
------ ---------------------------------------------- ------------------- --------------------- ----------- ------------------------------- --- --------------------- --------------------- ------------------------------------- 
38     eltwise_38 (Eltwise, MUL)                      [b:1,c:1000]                                    1,000                      eltwise_27   |                                             Eltwise/mul_[43]                      
                                                                                                                              conversion_37   | 
------ ---------------------------------------------- ------------------- --------------------- ----------- ------------------------------- --- --------------------- --------------------- ------------------------------------- 
39     eltwise_39 (Eltwise, MUL)                      [b:1,c:1000]                                    1,000                      eltwise_38   | +1,000(+100.0%)                             Eltwise/mul_[44]                      
                                                                                                                         tfl_pseudo_qconst6   | 
------ ---------------------------------------------- ------------------- --------------------- ----------- ------------------------------- --- --------------------- --------------------- ------------------------------------- 
40     slice_40 (Slice, STRIDED_SLICE)                [b:1,h:1,c:784]                                                          conversion_0   |                                             Slice_[13]                            
       reshape_40_reshape (Reshape, STRIDED_SLICE)    [b:1,c:784]                                                                  slice_40   |                                             
------ ---------------------------------------------- ------------------- --------------------- ----------- ------------------------------- --- --------------------- --------------------- ------------------------------------- 
41     gemm_41 (Gemm, FULLY_CONNECTED)                [b:1,c:1000]                                  785,000              reshape_40_reshape   | +788,000(+100.0%)                           Dense_[14]                            
                                                                                                                         tfl_pseudo_qconst5   | 
------ ---------------------------------------------- ------------------- --------------------- ----------- ------------------------------- --- --------------------- --------------------- ------------------------------------- 
42     eltwise_42 (Eltwise, ADD)                      [b:1,c:1000]                                    1,000                         gemm_41   |                                             Eltwise/add_[45]                      
                                                                                                                                 eltwise_39   | 
------ ---------------------------------------------- ------------------- --------------------- ----------- ------------------------------- --- --------------------- --------------------- ------------------------------------- 
43     eltwise_43 (Eltwise, MUL)                      [b:1,c:1000]                                    1,000                      eltwise_42   | +1(+100.0%)                                 Eltwise/mul_[46]                      
                                                                                                                         tfl_pseudo_qconst4   | 
------ ---------------------------------------------- ------------------- --------------------- ----------- ------------------------------- --- --------------------- --------------------- ------------------------------------- 
44     eltwise_44 (Eltwise, ADD)                      [b:1,c:1000]                                    1,000                      eltwise_43   | +1(+100.0%)                                 Eltwise/add_[47]                      
                                                                                                                         tfl_pseudo_qconst4   | 
------ ---------------------------------------------- ------------------- --------------------- ----------- ------------------------------- --- --------------------- --------------------- ------------------------------------- 
45     tfl_pseudo_qconst9 (Placeholder, )             []                  1/1                                                                 |                       +1,000(+100.0%)       Eltwise/min_[48]                      
       eltwise_45 (Eltwise, MINIMUM)                  [b:1,c:1000]                                    1,000                      eltwise_44   |                       -1,000(-100.0%)       
                                                                                                                         tfl_pseudo_qconst9   | 
------ ---------------------------------------------- ------------------- --------------------- ----------- ------------------------------- --- --------------------- --------------------- ------------------------------------- 
46     nl_46 (Nonlinearity, RELU)                     [b:1,c:1000]                                    1,000                      eltwise_45   |                                             Nonlinearity_[49]                     
------ ---------------------------------------------- ------------------- --------------------- ----------- ------------------------------- --- --------------------- --------------------- ------------------------------------- 
47     conversion_47 (Conversion, DEQUANTIZE)         [b:1,c:1000]                                    2,000                           nl_46   |                                             Conversion_[50]                       
------ ---------------------------------------------- ------------------- --------------------- ----------- ------------------------------- --- --------------------- --------------------- ------------------------------------- 
48     nl_48 (Nonlinearity, ROUND)                    [b:1,c:1000]                                    2,000                   conversion_47   |                       +2,000(+100.0%)       Nonlinearity_/Conversion_[51, 52]     
------ ---------------------------------------------- ------------------- --------------------- ----------- ------------------------------- --- --------------------- --------------------- ------------------------------------- 
49     reshape_49 (Reshape, EXPAND_DIMS)              [b:1,h:1,c:1000]                                                                nl_48   |                                             
------ ---------------------------------------------- ------------------- --------------------- ----------- ------------------------------- --- --------------------- --------------------- ------------------------------------- 
50     conversion_50 (Conversion, QUANTIZE)           [b:1,h:1,c:1000]                                2,000                      reshape_49   |                       -2,000(-100.0%)       
------ ---------------------------------------------- ------------------- --------------------- ----------- ------------------------------- --- --------------------- --------------------- ------------------------------------- 
51     eltwise_51 (Eltwise, SUB)                      [b:1,c:1000]                                        1                  arith_constant   | +4(+100.0%)                                 Eltwise/sub_[53]                      
                                                                                                                                      nl_48   | 
------ ---------------------------------------------- ------------------- --------------------- ----------- ------------------------------- --- --------------------- --------------------- ------------------------------------- 
52     conversion_52 (Conversion, QUANTIZE)           [b:1,c:1000]                                    2,000                      eltwise_51   |                                             Conversion_[54]                       
------ ---------------------------------------------- ------------------- --------------------- ----------- ------------------------------- --- --------------------- --------------------- ------------------------------------- 
53     eltwise_53 (Eltwise, MUL)                      [b:1,c:1000]                                    1,000                      eltwise_42   |                                             Eltwise/mul_[55]                      
                                                                                                                              conversion_52   | 
------ ---------------------------------------------- ------------------- --------------------- ----------- ------------------------------- --- --------------------- --------------------- ------------------------------------- 
54     eltwise_54 (Eltwise, MUL)                      [b:1,c:1000]                                    1,000                      eltwise_53   | +1,000(+100.0%)                             Eltwise/mul_[56]                      
                                                                                                                         tfl_pseudo_qconst6   | 
------ ---------------------------------------------- ------------------- --------------------- ----------- ------------------------------- --- --------------------- --------------------- ------------------------------------- 
55     slice_55 (Slice, STRIDED_SLICE)                [b:1,h:1,c:784]                                                          conversion_0   |                                             Slice_[11]                            
       reshape_55_reshape (Reshape, STRIDED_SLICE)    [b:1,c:784]                                                                  slice_55   |                                             
------ ---------------------------------------------- ------------------- --------------------- ----------- ------------------------------- --- --------------------- --------------------- ------------------------------------- 
56     gemm_56 (Gemm, FULLY_CONNECTED)                [b:1,c:1000]                                  785,000              reshape_55_reshape   | +788,000(+100.0%)                           Dense_[12]                            
                                                                                                                         tfl_pseudo_qconst5   | 
------ ---------------------------------------------- ------------------- --------------------- ----------- ------------------------------- --- --------------------- --------------------- ------------------------------------- 
57     eltwise_57 (Eltwise, ADD)                      [b:1,c:1000]                                    1,000                         gemm_56   |                                             Eltwise/add_[57]                      
                                                                                                                                 eltwise_54   | 
------ ---------------------------------------------- ------------------- --------------------- ----------- ------------------------------- --- --------------------- --------------------- ------------------------------------- 
58     eltwise_58 (Eltwise, MUL)                      [b:1,c:1000]                                    1,000                      eltwise_57   | +1(+100.0%)                                 Eltwise/mul_[58]                      
                                                                                                                         tfl_pseudo_qconst4   | 
------ ---------------------------------------------- ------------------- --------------------- ----------- ------------------------------- --- --------------------- --------------------- ------------------------------------- 
59     eltwise_59 (Eltwise, ADD)                      [b:1,c:1000]                                    1,000                      eltwise_58   | +1(+100.0%)                                 Eltwise/add_[59]                      
                                                                                                                         tfl_pseudo_qconst4   | 
------ ---------------------------------------------- ------------------- --------------------- ----------- ------------------------------- --- --------------------- --------------------- ------------------------------------- 
60     tfl_pseudo_qconst10 (Placeholder, )            []                  1/1                                                                 |                       +1,000(+100.0%)       Eltwise/min_[60]                      
       eltwise_60 (Eltwise, MINIMUM)                  [b:1,c:1000]                                    1,000                      eltwise_59   |                       -1,000(-100.0%)       
                                                                                                                        tfl_pseudo_qconst10   | 
------ ---------------------------------------------- ------------------- --------------------- ----------- ------------------------------- --- --------------------- --------------------- ------------------------------------- 
61     nl_61 (Nonlinearity, RELU)                     [b:1,c:1000]                                    1,000                      eltwise_60   |                                             Nonlinearity_[61]                     
------ ---------------------------------------------- ------------------- --------------------- ----------- ------------------------------- --- --------------------- --------------------- ------------------------------------- 
62     conversion_62 (Conversion, DEQUANTIZE)         [b:1,c:1000]                                    2,000                           nl_61   |                                             Conversion_[62]                       
------ ---------------------------------------------- ------------------- --------------------- ----------- ------------------------------- --- --------------------- --------------------- ------------------------------------- 
63     nl_63 (Nonlinearity, ROUND)                    [b:1,c:1000]                                    2,000                   conversion_62   |                       +2,000(+100.0%)       Nonlinearity_/Conversion_[63, 64]     
------ ---------------------------------------------- ------------------- --------------------- ----------- ------------------------------- --- --------------------- --------------------- ------------------------------------- 
64     reshape_64 (Reshape, EXPAND_DIMS)              [b:1,h:1,c:1000]                                                                nl_63   |                                             
------ ---------------------------------------------- ------------------- --------------------- ----------- ------------------------------- --- --------------------- --------------------- ------------------------------------- 
65     conversion_65 (Conversion, QUANTIZE)           [b:1,h:1,c:1000]                                2,000                      reshape_64   |                       -2,000(-100.0%)       
------ ---------------------------------------------- ------------------- --------------------- ----------- ------------------------------- --- --------------------- --------------------- ------------------------------------- 
66     eltwise_66 (Eltwise, SUB)                      [b:1,c:1000]                                        1                  arith_constant   | +4(+100.0%)                                 Eltwise/sub_[65]                      
                                                                                                                                      nl_63   | 
------ ---------------------------------------------- ------------------- --------------------- ----------- ------------------------------- --- --------------------- --------------------- ------------------------------------- 
67     conversion_67 (Conversion, QUANTIZE)           [b:1,c:1000]                                    2,000                      eltwise_66   |                                             Conversion_[66]                       
------ ---------------------------------------------- ------------------- --------------------- ----------- ------------------------------- --- --------------------- --------------------- ------------------------------------- 
68     eltwise_68 (Eltwise, MUL)                      [b:1,c:1000]                                    1,000                      eltwise_57   |                                             Eltwise/mul_[67]                      
                                                                                                                              conversion_67   | 
------ ---------------------------------------------- ------------------- --------------------- ----------- ------------------------------- --- --------------------- --------------------- ------------------------------------- 
69     eltwise_69 (Eltwise, MUL)                      [b:1,c:1000]                                    1,000                      eltwise_68   | +1,000(+100.0%)                             Eltwise/mul_[68]                      
                                                                                                                         tfl_pseudo_qconst6   | 
------ ---------------------------------------------- ------------------- --------------------- ----------- ------------------------------- --- --------------------- --------------------- ------------------------------------- 
70     slice_70 (Slice, STRIDED_SLICE)                [b:1,h:1,c:784]                                                          conversion_0   |                                             Slice_[9]                             
       reshape_70_reshape (Reshape, STRIDED_SLICE)    [b:1,c:784]                                                                  slice_70   |                                             
------ ---------------------------------------------- ------------------- --------------------- ----------- ------------------------------- --- --------------------- --------------------- ------------------------------------- 
71     gemm_71 (Gemm, FULLY_CONNECTED)                [b:1,c:1000]                                  785,000              reshape_70_reshape   | +788,000(+100.0%)                           Dense_[10]                            
                                                                                                                         tfl_pseudo_qconst5   | 
------ ---------------------------------------------- ------------------- --------------------- ----------- ------------------------------- --- --------------------- --------------------- ------------------------------------- 
72     eltwise_72 (Eltwise, ADD)                      [b:1,c:1000]                                    1,000                         gemm_71   |                                             Eltwise/add_[69]                      
                                                                                                                                 eltwise_69   | 
------ ---------------------------------------------- ------------------- --------------------- ----------- ------------------------------- --- --------------------- --------------------- ------------------------------------- 
73     eltwise_73 (Eltwise, MUL)                      [b:1,c:1000]                                    1,000                      eltwise_72   | +1(+100.0%)                                 Eltwise/mul_[70]                      
                                                                                                                         tfl_pseudo_qconst4   | 
------ ---------------------------------------------- ------------------- --------------------- ----------- ------------------------------- --- --------------------- --------------------- ------------------------------------- 
74     eltwise_74 (Eltwise, ADD)                      [b:1,c:1000]                                    1,000                      eltwise_73   | +1(+100.0%)                                 Eltwise/add_[71]                      
                                                                                                                         tfl_pseudo_qconst4   | 
------ ---------------------------------------------- ------------------- --------------------- ----------- ------------------------------- --- --------------------- --------------------- ------------------------------------- 
75     tfl_pseudo_qconst11 (Placeholder, )            []                  1/1                                                                 |                       +1,000(+100.0%)       Eltwise/min_[72]                      
       eltwise_75 (Eltwise, MINIMUM)                  [b:1,c:1000]                                    1,000                      eltwise_74   |                       -1,000(-100.0%)       
                                                                                                                        tfl_pseudo_qconst11   | 
------ ---------------------------------------------- ------------------- --------------------- ----------- ------------------------------- --- --------------------- --------------------- ------------------------------------- 
76     nl_76 (Nonlinearity, RELU)                     [b:1,c:1000]                                    1,000                      eltwise_75   |                                             Nonlinearity_[73]                     
------ ---------------------------------------------- ------------------- --------------------- ----------- ------------------------------- --- --------------------- --------------------- ------------------------------------- 
77     conversion_77 (Conversion, DEQUANTIZE)         [b:1,c:1000]                                    2,000                           nl_76   |                                             Conversion_[74]                       
------ ---------------------------------------------- ------------------- --------------------- ----------- ------------------------------- --- --------------------- --------------------- ------------------------------------- 
78     nl_78 (Nonlinearity, ROUND)                    [b:1,c:1000]                                    2,000                   conversion_77   |                       +2,000(+100.0%)       Nonlinearity_/Conversion_[75, 76]     
------ ---------------------------------------------- ------------------- --------------------- ----------- ------------------------------- --- --------------------- --------------------- ------------------------------------- 
79     reshape_79 (Reshape, EXPAND_DIMS)              [b:1,h:1,c:1000]                                                                nl_78   |                                             
------ ---------------------------------------------- ------------------- --------------------- ----------- ------------------------------- --- --------------------- --------------------- ------------------------------------- 
80     conversion_80 (Conversion, QUANTIZE)           [b:1,h:1,c:1000]                                2,000                      reshape_79   |                       -2,000(-100.0%)       
------ ---------------------------------------------- ------------------- --------------------- ----------- ------------------------------- --- --------------------- --------------------- ------------------------------------- 
81     eltwise_81 (Eltwise, SUB)                      [b:1,c:1000]                                        1                  arith_constant   | +4(+100.0%)                                 Eltwise/sub_[77]                      
                                                                                                                                      nl_78   | 
------ ---------------------------------------------- ------------------- --------------------- ----------- ------------------------------- --- --------------------- --------------------- ------------------------------------- 
82     conversion_82 (Conversion, QUANTIZE)           [b:1,c:1000]                                    2,000                      eltwise_81   |                                             Conversion_[78]                       
------ ---------------------------------------------- ------------------- --------------------- ----------- ------------------------------- --- --------------------- --------------------- ------------------------------------- 
83     eltwise_83 (Eltwise, MUL)                      [b:1,c:1000]                                    1,000                      eltwise_72   |                                             Eltwise/mul_[79]                      
                                                                                                                              conversion_82   | 
------ ---------------------------------------------- ------------------- --------------------- ----------- ------------------------------- --- --------------------- --------------------- ------------------------------------- 
84     eltwise_84 (Eltwise, MUL)                      [b:1,c:1000]                                    1,000                      eltwise_83   | +1,000(+100.0%)                             Eltwise/mul_[80]                      
                                                                                                                         tfl_pseudo_qconst6   | 
------ ---------------------------------------------- ------------------- --------------------- ----------- ------------------------------- --- --------------------- --------------------- ------------------------------------- 
85     slice_85 (Slice, STRIDED_SLICE)                [b:1,h:1,c:784]                                                          conversion_0   |                                             Slice_[7]                             
       reshape_85_reshape (Reshape, STRIDED_SLICE)    [b:1,c:784]                                                                  slice_85   |                                             
------ ---------------------------------------------- ------------------- --------------------- ----------- ------------------------------- --- --------------------- --------------------- ------------------------------------- 
86     gemm_86 (Gemm, FULLY_CONNECTED)                [b:1,c:1000]                                  785,000              reshape_85_reshape   | +788,000(+100.0%)                           Dense_[8]                             
                                                                                                                         tfl_pseudo_qconst5   | 
------ ---------------------------------------------- ------------------- --------------------- ----------- ------------------------------- --- --------------------- --------------------- ------------------------------------- 
87     eltwise_87 (Eltwise, ADD)                      [b:1,c:1000]                                    1,000                         gemm_86   |                                             Eltwise/add_[81]                      
                                                                                                                                 eltwise_84   | 
------ ---------------------------------------------- ------------------- --------------------- ----------- ------------------------------- --- --------------------- --------------------- ------------------------------------- 
88     eltwise_88 (Eltwise, MUL)                      [b:1,c:1000]                                    1,000                      eltwise_87   | +1(+100.0%)                                 Eltwise/mul_[82]                      
                                                                                                                         tfl_pseudo_qconst4   | 
------ ---------------------------------------------- ------------------- --------------------- ----------- ------------------------------- --- --------------------- --------------------- ------------------------------------- 
89     eltwise_89 (Eltwise, ADD)                      [b:1,c:1000]                                    1,000                      eltwise_88   | +1(+100.0%)                                 Eltwise/add_[83]                      
                                                                                                                         tfl_pseudo_qconst4   | 
------ ---------------------------------------------- ------------------- --------------------- ----------- ------------------------------- --- --------------------- --------------------- ------------------------------------- 
90     tfl_pseudo_qconst12 (Placeholder, )            []                  1/1                                                                 |                       +1,000(+100.0%)       Eltwise/min_[84]                      
       eltwise_90 (Eltwise, MINIMUM)                  [b:1,c:1000]                                    1,000                      eltwise_89   |                       -1,000(-100.0%)       
                                                                                                                        tfl_pseudo_qconst12   | 
------ ---------------------------------------------- ------------------- --------------------- ----------- ------------------------------- --- --------------------- --------------------- ------------------------------------- 
91     nl_91 (Nonlinearity, RELU)                     [b:1,c:1000]                                    1,000                      eltwise_90   |                                             Nonlinearity_[85]                     
------ ---------------------------------------------- ------------------- --------------------- ----------- ------------------------------- --- --------------------- --------------------- ------------------------------------- 
92     conversion_92 (Conversion, DEQUANTIZE)         [b:1,c:1000]                                    2,000                           nl_91   |                                             Conversion_[86]                       
------ ---------------------------------------------- ------------------- --------------------- ----------- ------------------------------- --- --------------------- --------------------- ------------------------------------- 
93     nl_93 (Nonlinearity, ROUND)                    [b:1,c:1000]                                    2,000                   conversion_92   |                       +2,000(+100.0%)       Nonlinearity_/Conversion_[87, 88]     
------ ---------------------------------------------- ------------------- --------------------- ----------- ------------------------------- --- --------------------- --------------------- ------------------------------------- 
94     reshape_94 (Reshape, EXPAND_DIMS)              [b:1,h:1,c:1000]                                                                nl_93   |                                             
------ ---------------------------------------------- ------------------- --------------------- ----------- ------------------------------- --- --------------------- --------------------- ------------------------------------- 
95     conversion_95 (Conversion, QUANTIZE)           [b:1,h:1,c:1000]                                2,000                      reshape_94   |                       -2,000(-100.0%)       
------ ---------------------------------------------- ------------------- --------------------- ----------- ------------------------------- --- --------------------- --------------------- ------------------------------------- 
96     eltwise_96 (Eltwise, SUB)                      [b:1,c:1000]                                        1                  arith_constant   | +4(+100.0%)                                 Eltwise/sub_[89]                      
                                                                                                                                      nl_93   | 
------ ---------------------------------------------- ------------------- --------------------- ----------- ------------------------------- --- --------------------- --------------------- ------------------------------------- 
97     conversion_97 (Conversion, QUANTIZE)           [b:1,c:1000]                                    2,000                      eltwise_96   |                                             Conversion_[90]                       
------ ---------------------------------------------- ------------------- --------------------- ----------- ------------------------------- --- --------------------- --------------------- ------------------------------------- 
98     eltwise_98 (Eltwise, MUL)                      [b:1,c:1000]                                    1,000                      eltwise_87   |                                             Eltwise/mul_[91]                      
                                                                                                                              conversion_97   | 
------ ---------------------------------------------- ------------------- --------------------- ----------- ------------------------------- --- --------------------- --------------------- ------------------------------------- 
99     eltwise_99 (Eltwise, MUL)                      [b:1,c:1000]                                    1,000                      eltwise_98   | +1,000(+100.0%)                             Eltwise/mul_[92]                      
                                                                                                                         tfl_pseudo_qconst6   | 
------ ---------------------------------------------- ------------------- --------------------- ----------- ------------------------------- --- --------------------- --------------------- ------------------------------------- 
100    slice_100 (Slice, STRIDED_SLICE)               [b:1,h:1,c:784]                                                          conversion_0   |                                             Slice_[5]                             
       reshape_100_reshape (Reshape, STRIDED_SLICE)   [b:1,c:784]                                                                 slice_100   |                                             
------ ---------------------------------------------- ------------------- --------------------- ----------- ------------------------------- --- --------------------- --------------------- ------------------------------------- 
101    gemm_101 (Gemm, FULLY_CONNECTED)               [b:1,c:1000]                                  785,000             reshape_100_reshape   | +788,000(+100.0%)                           Dense_[6]                             
                                                                                                                         tfl_pseudo_qconst5   | 
------ ---------------------------------------------- ------------------- --------------------- ----------- ------------------------------- --- --------------------- --------------------- ------------------------------------- 
102    eltwise_102 (Eltwise, ADD)                     [b:1,c:1000]                                    1,000                        gemm_101   |                                             Eltwise/add_[93]                      
                                                                                                                                 eltwise_99   | 
------ ---------------------------------------------- ------------------- --------------------- ----------- ------------------------------- --- --------------------- --------------------- ------------------------------------- 
103    eltwise_103 (Eltwise, MUL)                     [b:1,c:1000]                                    1,000                     eltwise_102   | +1(+100.0%)                                 Eltwise/mul_[94]                      
                                                                                                                         tfl_pseudo_qconst4   | 
------ ---------------------------------------------- ------------------- --------------------- ----------- ------------------------------- --- --------------------- --------------------- ------------------------------------- 
104    eltwise_104 (Eltwise, ADD)                     [b:1,c:1000]                                    1,000                     eltwise_103   | +1(+100.0%)                                 Eltwise/add_[95]                      
                                                                                                                         tfl_pseudo_qconst4   | 
------ ---------------------------------------------- ------------------- --------------------- ----------- ------------------------------- --- --------------------- --------------------- ------------------------------------- 
105    tfl_pseudo_qconst13 (Placeholder, )            []                  1/1                                                                 |                       +1,000(+100.0%)       Eltwise/min_[96]                      
       eltwise_105 (Eltwise, MINIMUM)                 [b:1,c:1000]                                    1,000                     eltwise_104   |                       -1,000(-100.0%)       
                                                                                                                        tfl_pseudo_qconst13   | 
------ ---------------------------------------------- ------------------- --------------------- ----------- ------------------------------- --- --------------------- --------------------- ------------------------------------- 
106    nl_106 (Nonlinearity, RELU)                    [b:1,c:1000]                                    1,000                     eltwise_105   |                                             Nonlinearity_[97]                     
------ ---------------------------------------------- ------------------- --------------------- ----------- ------------------------------- --- --------------------- --------------------- ------------------------------------- 
107    conversion_107 (Conversion, DEQUANTIZE)        [b:1,c:1000]                                    2,000                          nl_106   |                                             Conversion_[98]                       
------ ---------------------------------------------- ------------------- --------------------- ----------- ------------------------------- --- --------------------- --------------------- ------------------------------------- 
108    nl_108 (Nonlinearity, ROUND)                   [b:1,c:1000]                                    2,000                  conversion_107   |                       +2,000(+100.0%)       Nonlinearity_/Conversion_[99, 100]    
------ ---------------------------------------------- ------------------- --------------------- ----------- ------------------------------- --- --------------------- --------------------- ------------------------------------- 
109    reshape_109 (Reshape, EXPAND_DIMS)             [b:1,h:1,c:1000]                                                               nl_108   |                                             
------ ---------------------------------------------- ------------------- --------------------- ----------- ------------------------------- --- --------------------- --------------------- ------------------------------------- 
110    conversion_110 (Conversion, QUANTIZE)          [b:1,h:1,c:1000]                                2,000                     reshape_109   |                       -2,000(-100.0%)       
------ ---------------------------------------------- ------------------- --------------------- ----------- ------------------------------- --- --------------------- --------------------- ------------------------------------- 
111    eltwise_111 (Eltwise, SUB)                     [b:1,c:1000]                                        1                  arith_constant   | +4(+100.0%)                                 Eltwise/sub_[101]                     
                                                                                                                                     nl_108   | 
------ ---------------------------------------------- ------------------- --------------------- ----------- ------------------------------- --- --------------------- --------------------- ------------------------------------- 
112    conversion_112 (Conversion, QUANTIZE)          [b:1,c:1000]                                    2,000                     eltwise_111   |                                             Conversion_[102]                      
------ ---------------------------------------------- ------------------- --------------------- ----------- ------------------------------- --- --------------------- --------------------- ------------------------------------- 
113    eltwise_113 (Eltwise, MUL)                     [b:1,c:1000]                                    1,000                     eltwise_102   |                                             Eltwise/mul_[103]                     
                                                                                                                             conversion_112   | 
------ ---------------------------------------------- ------------------- --------------------- ----------- ------------------------------- --- --------------------- --------------------- ------------------------------------- 
114    eltwise_114 (Eltwise, MUL)                     [b:1,c:1000]                                    1,000                     eltwise_113   | +1,000(+100.0%)                             Eltwise/mul_[104]                     
                                                                                                                         tfl_pseudo_qconst6   | 
------ ---------------------------------------------- ------------------- --------------------- ----------- ------------------------------- --- --------------------- --------------------- ------------------------------------- 
115    slice_115 (Slice, STRIDED_SLICE)               [b:1,h:1,c:784]                                                          conversion_0   |                                             Slice_[3]                             
       reshape_115_reshape (Reshape, STRIDED_SLICE)   [b:1,c:784]                                                                 slice_115   |                                             
------ ---------------------------------------------- ------------------- --------------------- ----------- ------------------------------- --- --------------------- --------------------- ------------------------------------- 
116    gemm_116 (Gemm, FULLY_CONNECTED)               [b:1,c:1000]                                  785,000             reshape_115_reshape   | +788,000(+100.0%)                           Dense_[4]                             
                                                                                                                         tfl_pseudo_qconst5   | 
------ ---------------------------------------------- ------------------- --------------------- ----------- ------------------------------- --- --------------------- --------------------- ------------------------------------- 
117    eltwise_117 (Eltwise, ADD)                     [b:1,c:1000]                                    1,000                        gemm_116   |                                             Eltwise/add_[105]                     
                                                                                                                                eltwise_114   | 
------ ---------------------------------------------- ------------------- --------------------- ----------- ------------------------------- --- --------------------- --------------------- ------------------------------------- 
118    eltwise_118 (Eltwise, MUL)                     [b:1,c:1000]                                    1,000                     eltwise_117   | +1(+100.0%)                                 Eltwise/mul_[106]                     
                                                                                                                         tfl_pseudo_qconst4   | 
------ ---------------------------------------------- ------------------- --------------------- ----------- ------------------------------- --- --------------------- --------------------- ------------------------------------- 
119    eltwise_119 (Eltwise, ADD)                     [b:1,c:1000]                                    1,000                     eltwise_118   | +1(+100.0%)                                 Eltwise/add_[107]                     
                                                                                                                         tfl_pseudo_qconst4   | 
------ ---------------------------------------------- ------------------- --------------------- ----------- ------------------------------- --- --------------------- --------------------- ------------------------------------- 
120    tfl_pseudo_qconst14 (Placeholder, )            []                  1/1                                                                 |                       +1,000(+100.0%)       Eltwise/min_[108]                     
       eltwise_120 (Eltwise, MINIMUM)                 [b:1,c:1000]                                    1,000                     eltwise_119   |                       -1,000(-100.0%)       
                                                                                                                        tfl_pseudo_qconst14   | 
------ ---------------------------------------------- ------------------- --------------------- ----------- ------------------------------- --- --------------------- --------------------- ------------------------------------- 
121    nl_121 (Nonlinearity, RELU)                    [b:1,c:1000]                                    1,000                     eltwise_120   |                                             Nonlinearity_[109]                    
------ ---------------------------------------------- ------------------- --------------------- ----------- ------------------------------- --- --------------------- --------------------- ------------------------------------- 
122    conversion_122 (Conversion, DEQUANTIZE)        [b:1,c:1000]                                    2,000                          nl_121   |                                             Conversion_[110]                      
------ ---------------------------------------------- ------------------- --------------------- ----------- ------------------------------- --- --------------------- --------------------- ------------------------------------- 
123    nl_123 (Nonlinearity, ROUND)                   [b:1,c:1000]                                    2,000                  conversion_122   |                       +2,000(+100.0%)       Nonlinearity_/Conversion_[111, 112]   
------ ---------------------------------------------- ------------------- --------------------- ----------- ------------------------------- --- --------------------- --------------------- ------------------------------------- 
124    reshape_124 (Reshape, EXPAND_DIMS)             [b:1,h:1,c:1000]                                                               nl_123   |                                             
------ ---------------------------------------------- ------------------- --------------------- ----------- ------------------------------- --- --------------------- --------------------- ------------------------------------- 
125    conversion_125 (Conversion, QUANTIZE)          [b:1,h:1,c:1000]                                2,000                     reshape_124   |                       -2,000(-100.0%)       
------ ---------------------------------------------- ------------------- --------------------- ----------- ------------------------------- --- --------------------- --------------------- ------------------------------------- 
126    eltwise_126 (Eltwise, SUB)                     [b:1,c:1000]                                        1                  arith_constant   | +4(+100.0%)                                 Eltwise/sub_[113]                     
                                                                                                                                     nl_123   | 
------ ---------------------------------------------- ------------------- --------------------- ----------- ------------------------------- --- --------------------- --------------------- ------------------------------------- 
127    conversion_127 (Conversion, QUANTIZE)          [b:1,c:1000]                                    2,000                     eltwise_126   |                                             Conversion_[114]                      
------ ---------------------------------------------- ------------------- --------------------- ----------- ------------------------------- --- --------------------- --------------------- ------------------------------------- 
128    eltwise_128 (Eltwise, MUL)                     [b:1,c:1000]                                    1,000                     eltwise_117   |                                             Eltwise/mul_[115]                     
                                                                                                                             conversion_127   | 
------ ---------------------------------------------- ------------------- --------------------- ----------- ------------------------------- --- --------------------- --------------------- ------------------------------------- 
129    eltwise_129 (Eltwise, MUL)                     [b:1,c:1000]                                    1,000                     eltwise_128   | +1,000(+100.0%)                             Eltwise/mul_[116]                     
                                                                                                                         tfl_pseudo_qconst6   | 
------ ---------------------------------------------- ------------------- --------------------- ----------- ------------------------------- --- --------------------- --------------------- ------------------------------------- 
130    slice_130 (Slice, STRIDED_SLICE)               [b:1,h:1,c:784]                                                          conversion_0   |                                             Slice_[1]                             
       reshape_130_reshape (Reshape, STRIDED_SLICE)   [b:1,c:784]                                                                 slice_130   |                                             
------ ---------------------------------------------- ------------------- --------------------- ----------- ------------------------------- --- --------------------- --------------------- ------------------------------------- 
131    gemm_131 (Gemm, FULLY_CONNECTED)               [b:1,c:1000]                                  785,000             reshape_130_reshape   | +788,000(+100.0%)                           Dense_[2]                             
                                                                                                                         tfl_pseudo_qconst5   | 
------ ---------------------------------------------- ------------------- --------------------- ----------- ------------------------------- --- --------------------- --------------------- ------------------------------------- 
132    eltwise_132 (Eltwise, ADD)                     [b:1,c:1000]                                    1,000                        gemm_131   |                                             Eltwise/add_[117]                     
                                                                                                                                eltwise_129   | 
------ ---------------------------------------------- ------------------- --------------------- ----------- ------------------------------- --- --------------------- --------------------- ------------------------------------- 
133    eltwise_133 (Eltwise, MUL)                     [b:1,c:1000]                                    1,000                     eltwise_132   | +1(+100.0%)                                 Eltwise/mul_[118]                     
                                                                                                                         tfl_pseudo_qconst4   | 
------ ---------------------------------------------- ------------------- --------------------- ----------- ------------------------------- --- --------------------- --------------------- ------------------------------------- 
134    eltwise_134 (Eltwise, ADD)                     [b:1,c:1000]                                    1,000                     eltwise_133   | +1(+100.0%)                                 Eltwise/add_[119]                     
                                                                                                                         tfl_pseudo_qconst4   | 
------ ---------------------------------------------- ------------------- --------------------- ----------- ------------------------------- --- --------------------- --------------------- ------------------------------------- 
135    tfl_pseudo_qconst15 (Placeholder, )            []                  1/1                                                                 |                       +1,000(+100.0%)       Eltwise/min_[120]                     
       eltwise_135 (Eltwise, MINIMUM)                 [b:1,c:1000]                                    1,000                     eltwise_134   |                       -1,000(-100.0%)       
                                                                                                                        tfl_pseudo_qconst15   | 
------ ---------------------------------------------- ------------------- --------------------- ----------- ------------------------------- --- --------------------- --------------------- ------------------------------------- 
136    nl_136 (Nonlinearity, RELU)                    [b:1,c:1000]                                    1,000                     eltwise_135   |                                             Nonlinearity_[121]                    
------ ---------------------------------------------- ------------------- --------------------- ----------- ------------------------------- --- --------------------- --------------------- ------------------------------------- 
137    conversion_137 (Conversion, DEQUANTIZE)        [b:1,c:1000]                                    2,000                          nl_136   |                                             Conversion_[122]                      
------ ---------------------------------------------- ------------------- --------------------- ----------- ------------------------------- --- --------------------- --------------------- ------------------------------------- 
138    nl_138 (Nonlinearity, ROUND)                   [b:1,c:1000]                                    2,000                  conversion_137   |                       +2,000(+100.0%)       Nonlinearity_/Conversion_[123, 124]   
------ ---------------------------------------------- ------------------- --------------------- ----------- ------------------------------- --- --------------------- --------------------- ------------------------------------- 
139    reshape_139 (Reshape, EXPAND_DIMS)             [b:1,h:1,c:1000]                                                               nl_138   |                                             
------ ---------------------------------------------- ------------------- --------------------- ----------- ------------------------------- --- --------------------- --------------------- ------------------------------------- 
140    conversion_140 (Conversion, QUANTIZE)          [b:1,h:1,c:1000]                                2,000                     reshape_139   |                       -2,000(-100.0%)       
------ ---------------------------------------------- ------------------- --------------------- ----------- ------------------------------- --- --------------------- --------------------- ------------------------------------- 
141    eltwise_141 (Eltwise, SUB)                     [b:1,c:1000]                                        1                  arith_constant   | +4(+100.0%)                                 Eltwise/sub_[125]                     
                                                                                                                                     nl_138   | 
------ ---------------------------------------------- ------------------- --------------------- ----------- ------------------------------- --- --------------------- --------------------- ------------------------------------- 
142    conversion_142 (Conversion, QUANTIZE)          [b:1,c:1000]                                    2,000                     eltwise_141   |                                             Conversion_[126]                      
------ ---------------------------------------------- ------------------- --------------------- ----------- ------------------------------- --- --------------------- --------------------- ------------------------------------- 
143    eltwise_143 (Eltwise, MUL)                     [b:1,c:1000]                                    1,000                     eltwise_132   |                                             Eltwise/mul_[127]                     
                                                                                                                             conversion_142   | 
------ ---------------------------------------------- ------------------- --------------------- ----------- ------------------------------- --- --------------------- --------------------- ------------------------------------- 
144    eltwise_144 (Eltwise, MUL)                     [b:1,c:1000]                                    1,000                     eltwise_143   | +1,000(+100.0%)                             Eltwise/mul_[128]                     
                                                                                                                         tfl_pseudo_qconst6   | 
------ ---------------------------------------------- ------------------- --------------------- ----------- ------------------------------- --- --------------------- --------------------- ------------------------------------- 
145    eltwise_145 (Eltwise, ADD)                     [b:1,c:1000]                                    1,000                         gemm_24   |                                             Eltwise/add_[129]                     
                                                                                                                                eltwise_144   | 
------ ---------------------------------------------- ------------------- --------------------- ----------- ------------------------------- --- --------------------- --------------------- ------------------------------------- 
146    eltwise_146 (Eltwise, MUL)                     [b:1,c:1000]                                    1,000                     eltwise_145   | +1(+100.0%)                                 Eltwise/mul_[130]                     
                                                                                                                         tfl_pseudo_qconst4   | 
------ ---------------------------------------------- ------------------- --------------------- ----------- ------------------------------- --- --------------------- --------------------- ------------------------------------- 
147    eltwise_147 (Eltwise, ADD)                     [b:1,c:1000]                                    1,000                     eltwise_146   | +1(+100.0%)                                 Eltwise/add_[131]                     
                                                                                                                         tfl_pseudo_qconst4   | 
------ ---------------------------------------------- ------------------- --------------------- ----------- ------------------------------- --- --------------------- --------------------- ------------------------------------- 
148    tfl_pseudo_qconst16 (Placeholder, )            []                  1/1                                                                 |                       +1,000(+100.0%)       Eltwise/min_[132]                     
       eltwise_148 (Eltwise, MINIMUM)                 [b:1,c:1000]                                    1,000                     eltwise_147   |                       -1,000(-100.0%)       
                                                                                                                        tfl_pseudo_qconst16   | 
------ ---------------------------------------------- ------------------- --------------------- ----------- ------------------------------- --- --------------------- --------------------- ------------------------------------- 
149    nl_149 (Nonlinearity, RELU)                    [b:1,c:1000]                                    1,000                     eltwise_148   |                                             Nonlinearity_[133]                    
------ ---------------------------------------------- ------------------- --------------------- ----------- ------------------------------- --- --------------------- --------------------- ------------------------------------- 
150    conversion_150 (Conversion, DEQUANTIZE)        [b:1,c:1000]                                    2,000                          nl_149   |                                             Conversion_[134]                      
------ ---------------------------------------------- ------------------- --------------------- ----------- ------------------------------- --- --------------------- --------------------- ------------------------------------- 
151    nl_151 (Nonlinearity, ROUND)                   [b:1,c:1000]                                    2,000                  conversion_150   |                       +2,000(+100.0%)       Nonlinearity_/Conversion_[135, 136]   
------ ---------------------------------------------- ------------------- --------------------- ----------- ------------------------------- --- --------------------- --------------------- ------------------------------------- 
152    reshape_152 (Reshape, EXPAND_DIMS)             [b:1,h:1,c:1000]                                                               nl_151   |                                             
------ ---------------------------------------------- ------------------- --------------------- ----------- ------------------------------- --- --------------------- --------------------- ------------------------------------- 
153    conversion_153 (Conversion, QUANTIZE)          [b:1,h:1,c:1000]                                2,000                     reshape_152   |                       -2,000(-100.0%)       
------ ---------------------------------------------- ------------------- --------------------- ----------- ------------------------------- --- --------------------- --------------------- ------------------------------------- 
154    concat_154 (Concat, CONCATENATION)             [b:1,h:10,c:1000]                                                       conversion_18   |                                             Concat_[137]                          
                                                                                                                              conversion_35   | 
                                                                                                                              conversion_50   | 
                                                                                                                              conversion_65   | 
                                                                                                                              conversion_80   | 
                                                                                                                              conversion_95   | 
                                                                                                                             conversion_110   | 
                                                                                                                             conversion_125   | 
                                                                                                                             conversion_140   | 
                                                                                                                             conversion_153   | 
------ ---------------------------------------------- ------------------- --------------------- ----------- ------------------------------- --- --------------------- --------------------- ------------------------------------- 
161    eltwise_161_const (Placeholder, MUL)           [b:1,c:1000]        1,000/1,000                                                         | -1,000(-100.0%)                             
------ ---------------------------------------------- ------------------- --------------------- ----------- ------------------------------- --- --------------------- --------------------- ------------------------------------- 
162    slice_162 (Slice, STRIDED_SLICE)               [b:1,h:1,c:1000]                                                           concat_154   |                                             Slice_[156]                           
       reshape_162_reshape (Reshape, STRIDED_SLICE)   [b:1,c:1000]                                                                slice_162   |                                             
------ ---------------------------------------------- ------------------- --------------------- ----------- ------------------------------- --- --------------------- --------------------- ------------------------------------- 
163    tfl_pseudo_qconst3 (Placeholder, )             [b:1000,c:1000]     1,000,000/1,000,000                                                 | +4,000(+0.4%)         +1,001,000(+100.0%)   Dense_[157]                           
       gemm_163 (Gemm, FULLY_CONNECTED)               [b:1,c:1000]                                1,001,000             reshape_162_reshape   |                       -1,001,000(-100.0%)   
                                                                                                                         tfl_pseudo_qconst3   | 
------ ---------------------------------------------- ------------------- --------------------- ----------- ------------------------------- --- --------------------- --------------------- ------------------------------------- 
164    eltwise_164 (Eltwise, ADD)                     [b:1,c:1000]                                    1,000                        gemm_163   | +1,000(+100.0%)                             Eltwise/add_[158]                     
                                                                                                                          eltwise_161_const   | 
------ ---------------------------------------------- ------------------- --------------------- ----------- ------------------------------- --- --------------------- --------------------- ------------------------------------- 
165    eltwise_165 (Eltwise, MUL)                     [b:1,c:1000]                                    1,000                     eltwise_164   | +1(+100.0%)                                 Eltwise/mul_[159]                     
                                                                                                                         tfl_pseudo_qconst4   | 
------ ---------------------------------------------- ------------------- --------------------- ----------- ------------------------------- --- --------------------- --------------------- ------------------------------------- 
166    eltwise_166 (Eltwise, ADD)                     [b:1,c:1000]                                    1,000                     eltwise_165   | +1(+100.0%)                                 Eltwise/add_[160]                     
                                                                                                                         tfl_pseudo_qconst4   | 
------ ---------------------------------------------- ------------------- --------------------- ----------- ------------------------------- --- --------------------- --------------------- ------------------------------------- 
167    tfl_pseudo_qconst17 (Placeholder, )            []                  1/1                                                                 |                       +1,000(+100.0%)       Eltwise/min_[161]                     
       eltwise_167 (Eltwise, MINIMUM)                 [b:1,c:1000]                                    1,000                     eltwise_166   |                       -1,000(-100.0%)       
                                                                                                                        tfl_pseudo_qconst17   | 
------ ---------------------------------------------- ------------------- --------------------- ----------- ------------------------------- --- --------------------- --------------------- ------------------------------------- 
168    nl_168 (Nonlinearity, RELU)                    [b:1,c:1000]                                    1,000                     eltwise_167   |                                             Nonlinearity_[162]                    
------ ---------------------------------------------- ------------------- --------------------- ----------- ------------------------------- --- --------------------- --------------------- ------------------------------------- 
169    conversion_169 (Conversion, DEQUANTIZE)        [b:1,c:1000]                                    2,000                          nl_168   |                                             Conversion_[163]                      
------ ---------------------------------------------- ------------------- --------------------- ----------- ------------------------------- --- --------------------- --------------------- ------------------------------------- 
170    nl_170 (Nonlinearity, ROUND)                   [b:1,c:1000]                                    2,000                  conversion_169   |                       +2,000(+100.0%)       Nonlinearity_/Conversion_[164, 165]   
------ ---------------------------------------------- ------------------- --------------------- ----------- ------------------------------- --- --------------------- --------------------- ------------------------------------- 
171    reshape_171 (Reshape, EXPAND_DIMS)             [b:1,h:1,c:1000]                                                               nl_170   |                                             
------ ---------------------------------------------- ------------------- --------------------- ----------- ------------------------------- --- --------------------- --------------------- ------------------------------------- 
172    conversion_172 (Conversion, QUANTIZE)          [b:1,h:1,c:1000]                                2,000                     reshape_171   |                       -2,000(-100.0%)       
------ ---------------------------------------------- ------------------- --------------------- ----------- ------------------------------- --- --------------------- --------------------- ------------------------------------- 
173    eltwise_173 (Eltwise, SUB)                     [b:1,c:1000]                                        1                  arith_constant   | +4(+100.0%)                                 Eltwise/sub_[166]                     
                                                                                                                                     nl_170   | 
------ ---------------------------------------------- ------------------- --------------------- ----------- ------------------------------- --- --------------------- --------------------- ------------------------------------- 
174    conversion_174 (Conversion, QUANTIZE)          [b:1,c:1000]                                    2,000                     eltwise_173   |                                             Conversion_[167]                      
------ ---------------------------------------------- ------------------- --------------------- ----------- ------------------------------- --- --------------------- --------------------- ------------------------------------- 
175    eltwise_175 (Eltwise, MUL)                     [b:1,c:1000]                                    1,000                     eltwise_164   |                                             Eltwise/mul_[168]                     
                                                                                                                             conversion_174   | 
------ ---------------------------------------------- ------------------- --------------------- ----------- ------------------------------- --- --------------------- --------------------- ------------------------------------- 
176    eltwise_176 (Eltwise, MUL)                     [b:1,c:1000]                                    1,000                     eltwise_175   | +1,000(+100.0%)                             Eltwise/mul_[169]                     
                                                                                                                         tfl_pseudo_qconst6   | 
------ ---------------------------------------------- ------------------- --------------------- ----------- ------------------------------- --- --------------------- --------------------- ------------------------------------- 
177    slice_177 (Slice, STRIDED_SLICE)               [b:1,h:1,c:1000]                                                           concat_154   |                                             Slice_[154]                           
       reshape_177_reshape (Reshape, STRIDED_SLICE)   [b:1,c:1000]                                                                slice_177   |                                             
------ ---------------------------------------------- ------------------- --------------------- ----------- ------------------------------- --- --------------------- --------------------- ------------------------------------- 
178    gemm_178 (Gemm, FULLY_CONNECTED)               [b:1,c:1000]                                1,001,000             reshape_177_reshape   | +1,004,000(+100.0%)                         Dense_[155]                           
                                                                                                                         tfl_pseudo_qconst3   | 
------ ---------------------------------------------- ------------------- --------------------- ----------- ------------------------------- --- --------------------- --------------------- ------------------------------------- 
179    slice_179 (Slice, STRIDED_SLICE)               [b:1,h:1,c:1000]                                                           concat_154   |                                             Slice_[152]                           
       reshape_179_reshape (Reshape, STRIDED_SLICE)   [b:1,c:1000]                                                                slice_179   |                                             
------ ---------------------------------------------- ------------------- --------------------- ----------- ------------------------------- --- --------------------- --------------------- ------------------------------------- 
180    gemm_180 (Gemm, FULLY_CONNECTED)               [b:1,c:1000]                                1,001,000             reshape_179_reshape   | +1,004,000(+100.0%)                         Dense_[153]                           
                                                                                                                         tfl_pseudo_qconst3   | 
------ ---------------------------------------------- ------------------- --------------------- ----------- ------------------------------- --- --------------------- --------------------- ------------------------------------- 
181    eltwise_181 (Eltwise, ADD)                     [b:1,c:1000]                                    1,000                        gemm_180   |                                             Eltwise/add_[170]                     
                                                                                                                                eltwise_176   | 
------ ---------------------------------------------- ------------------- --------------------- ----------- ------------------------------- --- --------------------- --------------------- ------------------------------------- 
182    eltwise_182 (Eltwise, MUL)                     [b:1,c:1000]                                    1,000                     eltwise_181   | +1(+100.0%)                                 Eltwise/mul_[171]                     
                                                                                                                         tfl_pseudo_qconst4   | 
------ ---------------------------------------------- ------------------- --------------------- ----------- ------------------------------- --- --------------------- --------------------- ------------------------------------- 
183    eltwise_183 (Eltwise, ADD)                     [b:1,c:1000]                                    1,000                     eltwise_182   | +1(+100.0%)                                 Eltwise/add_[172]                     
                                                                                                                         tfl_pseudo_qconst4   | 
------ ---------------------------------------------- ------------------- --------------------- ----------- ------------------------------- --- --------------------- --------------------- ------------------------------------- 
184    tfl_pseudo_qconst18 (Placeholder, )            []                  1/1                                                                 |                       +1,000(+100.0%)       Eltwise/min_[173]                     
       eltwise_184 (Eltwise, MINIMUM)                 [b:1,c:1000]                                    1,000                     eltwise_183   |                       -1,000(-100.0%)       
                                                                                                                        tfl_pseudo_qconst18   | 
------ ---------------------------------------------- ------------------- --------------------- ----------- ------------------------------- --- --------------------- --------------------- ------------------------------------- 
185    nl_185 (Nonlinearity, RELU)                    [b:1,c:1000]                                    1,000                     eltwise_184   |                                             Nonlinearity_[174]                    
------ ---------------------------------------------- ------------------- --------------------- ----------- ------------------------------- --- --------------------- --------------------- ------------------------------------- 
186    conversion_186 (Conversion, DEQUANTIZE)        [b:1,c:1000]                                    2,000                          nl_185   |                                             Conversion_[175]                      
------ ---------------------------------------------- ------------------- --------------------- ----------- ------------------------------- --- --------------------- --------------------- ------------------------------------- 
187    nl_187 (Nonlinearity, ROUND)                   [b:1,c:1000]                                    2,000                  conversion_186   |                       +2,000(+100.0%)       Nonlinearity_/Conversion_[176, 177]   
------ ---------------------------------------------- ------------------- --------------------- ----------- ------------------------------- --- --------------------- --------------------- ------------------------------------- 
188    reshape_188 (Reshape, EXPAND_DIMS)             [b:1,h:1,c:1000]                                                               nl_187   |                                             
------ ---------------------------------------------- ------------------- --------------------- ----------- ------------------------------- --- --------------------- --------------------- ------------------------------------- 
189    conversion_189 (Conversion, QUANTIZE)          [b:1,h:1,c:1000]                                2,000                     reshape_188   |                       -2,000(-100.0%)       
------ ---------------------------------------------- ------------------- --------------------- ----------- ------------------------------- --- --------------------- --------------------- ------------------------------------- 
190    eltwise_190 (Eltwise, SUB)                     [b:1,c:1000]                                        1                  arith_constant   | +4(+100.0%)                                 Eltwise/sub_[178]                     
                                                                                                                                     nl_187   | 
------ ---------------------------------------------- ------------------- --------------------- ----------- ------------------------------- --- --------------------- --------------------- ------------------------------------- 
191    conversion_191 (Conversion, QUANTIZE)          [b:1,c:1000]                                    2,000                     eltwise_190   |                                             Conversion_[179]                      
------ ---------------------------------------------- ------------------- --------------------- ----------- ------------------------------- --- --------------------- --------------------- ------------------------------------- 
192    eltwise_192 (Eltwise, MUL)                     [b:1,c:1000]                                    1,000                     eltwise_181   |                                             Eltwise/mul_[180]                     
                                                                                                                             conversion_191   | 
------ ---------------------------------------------- ------------------- --------------------- ----------- ------------------------------- --- --------------------- --------------------- ------------------------------------- 
193    eltwise_193 (Eltwise, MUL)                     [b:1,c:1000]                                    1,000                     eltwise_192   | +1,000(+100.0%)                             Eltwise/mul_[181]                     
                                                                                                                         tfl_pseudo_qconst6   | 
------ ---------------------------------------------- ------------------- --------------------- ----------- ------------------------------- --- --------------------- --------------------- ------------------------------------- 
194    slice_194 (Slice, STRIDED_SLICE)               [b:1,h:1,c:1000]                                                           concat_154   |                                             Slice_[150]                           
       reshape_194_reshape (Reshape, STRIDED_SLICE)   [b:1,c:1000]                                                                slice_194   |                                             
------ ---------------------------------------------- ------------------- --------------------- ----------- ------------------------------- --- --------------------- --------------------- ------------------------------------- 
195    gemm_195 (Gemm, FULLY_CONNECTED)               [b:1,c:1000]                                1,001,000             reshape_194_reshape   | +1,004,000(+100.0%)                         Dense_[151]                           
                                                                                                                         tfl_pseudo_qconst3   | 
------ ---------------------------------------------- ------------------- --------------------- ----------- ------------------------------- --- --------------------- --------------------- ------------------------------------- 
196    eltwise_196 (Eltwise, ADD)                     [b:1,c:1000]                                    1,000                        gemm_195   |                                             Eltwise/add_[182]                     
                                                                                                                                eltwise_193   | 
------ ---------------------------------------------- ------------------- --------------------- ----------- ------------------------------- --- --------------------- --------------------- ------------------------------------- 
197    eltwise_197 (Eltwise, MUL)                     [b:1,c:1000]                                    1,000                     eltwise_196   | +1(+100.0%)                                 Eltwise/mul_[183]                     
                                                                                                                         tfl_pseudo_qconst4   | 
------ ---------------------------------------------- ------------------- --------------------- ----------- ------------------------------- --- --------------------- --------------------- ------------------------------------- 
198    eltwise_198 (Eltwise, ADD)                     [b:1,c:1000]                                    1,000                     eltwise_197   | +1(+100.0%)                                 Eltwise/add_[184]                     
                                                                                                                         tfl_pseudo_qconst4   | 
------ ---------------------------------------------- ------------------- --------------------- ----------- ------------------------------- --- --------------------- --------------------- ------------------------------------- 
199    tfl_pseudo_qconst19 (Placeholder, )            []                  1/1                                                                 |                       +1,000(+100.0%)       Eltwise/min_[185]                     
       eltwise_199 (Eltwise, MINIMUM)                 [b:1,c:1000]                                    1,000                     eltwise_198   |                       -1,000(-100.0%)       
                                                                                                                        tfl_pseudo_qconst19   | 
------ ---------------------------------------------- ------------------- --------------------- ----------- ------------------------------- --- --------------------- --------------------- ------------------------------------- 
200    nl_200 (Nonlinearity, RELU)                    [b:1,c:1000]                                    1,000                     eltwise_199   |                                             Nonlinearity_[186]                    
------ ---------------------------------------------- ------------------- --------------------- ----------- ------------------------------- --- --------------------- --------------------- ------------------------------------- 
201    conversion_201 (Conversion, DEQUANTIZE)        [b:1,c:1000]                                    2,000                          nl_200   |                                             Conversion_[187]                      
------ ---------------------------------------------- ------------------- --------------------- ----------- ------------------------------- --- --------------------- --------------------- ------------------------------------- 
202    nl_202 (Nonlinearity, ROUND)                   [b:1,c:1000]                                    2,000                  conversion_201   |                       +2,000(+100.0%)       Nonlinearity_/Conversion_[188, 189]   
------ ---------------------------------------------- ------------------- --------------------- ----------- ------------------------------- --- --------------------- --------------------- ------------------------------------- 
203    reshape_203 (Reshape, EXPAND_DIMS)             [b:1,h:1,c:1000]                                                               nl_202   |                                             
------ ---------------------------------------------- ------------------- --------------------- ----------- ------------------------------- --- --------------------- --------------------- ------------------------------------- 
204    conversion_204 (Conversion, QUANTIZE)          [b:1,h:1,c:1000]                                2,000                     reshape_203   |                       -2,000(-100.0%)       
------ ---------------------------------------------- ------------------- --------------------- ----------- ------------------------------- --- --------------------- --------------------- ------------------------------------- 
205    eltwise_205 (Eltwise, SUB)                     [b:1,c:1000]                                        1                  arith_constant   | +4(+100.0%)                                 Eltwise/sub_[190]                     
                                                                                                                                     nl_202   | 
------ ---------------------------------------------- ------------------- --------------------- ----------- ------------------------------- --- --------------------- --------------------- ------------------------------------- 
206    conversion_206 (Conversion, QUANTIZE)          [b:1,c:1000]                                    2,000                     eltwise_205   |                                             Conversion_[191]                      
------ ---------------------------------------------- ------------------- --------------------- ----------- ------------------------------- --- --------------------- --------------------- ------------------------------------- 
207    eltwise_207 (Eltwise, MUL)                     [b:1,c:1000]                                    1,000                     eltwise_196   |                                             Eltwise/mul_[192]                     
                                                                                                                             conversion_206   | 
------ ---------------------------------------------- ------------------- --------------------- ----------- ------------------------------- --- --------------------- --------------------- ------------------------------------- 
208    eltwise_208 (Eltwise, MUL)                     [b:1,c:1000]                                    1,000                     eltwise_207   | +1,000(+100.0%)                             Eltwise/mul_[193]                     
                                                                                                                         tfl_pseudo_qconst6   | 
------ ---------------------------------------------- ------------------- --------------------- ----------- ------------------------------- --- --------------------- --------------------- ------------------------------------- 
209    slice_209 (Slice, STRIDED_SLICE)               [b:1,h:1,c:1000]                                                           concat_154   |                                             Slice_[148]                           
       reshape_209_reshape (Reshape, STRIDED_SLICE)   [b:1,c:1000]                                                                slice_209   |                                             
------ ---------------------------------------------- ------------------- --------------------- ----------- ------------------------------- --- --------------------- --------------------- ------------------------------------- 
210    gemm_210 (Gemm, FULLY_CONNECTED)               [b:1,c:1000]                                1,001,000             reshape_209_reshape   | +1,004,000(+100.0%)                         Dense_[149]                           
                                                                                                                         tfl_pseudo_qconst3   | 
------ ---------------------------------------------- ------------------- --------------------- ----------- ------------------------------- --- --------------------- --------------------- ------------------------------------- 
211    eltwise_211 (Eltwise, ADD)                     [b:1,c:1000]                                    1,000                        gemm_210   |                                             Eltwise/add_[194]                     
                                                                                                                                eltwise_208   | 
------ ---------------------------------------------- ------------------- --------------------- ----------- ------------------------------- --- --------------------- --------------------- ------------------------------------- 
212    eltwise_212 (Eltwise, MUL)                     [b:1,c:1000]                                    1,000                     eltwise_211   | +1(+100.0%)                                 Eltwise/mul_[195]                     
                                                                                                                         tfl_pseudo_qconst4   | 
------ ---------------------------------------------- ------------------- --------------------- ----------- ------------------------------- --- --------------------- --------------------- ------------------------------------- 
213    eltwise_213 (Eltwise, ADD)                     [b:1,c:1000]                                    1,000                     eltwise_212   | +1(+100.0%)                                 Eltwise/add_[196]                     
                                                                                                                         tfl_pseudo_qconst4   | 
------ ---------------------------------------------- ------------------- --------------------- ----------- ------------------------------- --- --------------------- --------------------- ------------------------------------- 
214    tfl_pseudo_qconst20 (Placeholder, )            []                  1/1                                                                 |                       +1,000(+100.0%)       Eltwise/min_[197]                     
       eltwise_214 (Eltwise, MINIMUM)                 [b:1,c:1000]                                    1,000                     eltwise_213   |                       -1,000(-100.0%)       
                                                                                                                        tfl_pseudo_qconst20   | 
------ ---------------------------------------------- ------------------- --------------------- ----------- ------------------------------- --- --------------------- --------------------- ------------------------------------- 
215    nl_215 (Nonlinearity, RELU)                    [b:1,c:1000]                                    1,000                     eltwise_214   |                                             Nonlinearity_[198]                    
------ ---------------------------------------------- ------------------- --------------------- ----------- ------------------------------- --- --------------------- --------------------- ------------------------------------- 
216    conversion_216 (Conversion, DEQUANTIZE)        [b:1,c:1000]                                    2,000                          nl_215   |                                             Conversion_[199]                      
------ ---------------------------------------------- ------------------- --------------------- ----------- ------------------------------- --- --------------------- --------------------- ------------------------------------- 
217    nl_217 (Nonlinearity, ROUND)                   [b:1,c:1000]                                    2,000                  conversion_216   |                       +2,000(+100.0%)       Nonlinearity_/Conversion_[200, 201]   
------ ---------------------------------------------- ------------------- --------------------- ----------- ------------------------------- --- --------------------- --------------------- ------------------------------------- 
218    reshape_218 (Reshape, EXPAND_DIMS)             [b:1,h:1,c:1000]                                                               nl_217   |                                             
------ ---------------------------------------------- ------------------- --------------------- ----------- ------------------------------- --- --------------------- --------------------- ------------------------------------- 
219    conversion_219 (Conversion, QUANTIZE)          [b:1,h:1,c:1000]                                2,000                     reshape_218   |                       -2,000(-100.0%)       
------ ---------------------------------------------- ------------------- --------------------- ----------- ------------------------------- --- --------------------- --------------------- ------------------------------------- 
220    eltwise_220 (Eltwise, SUB)                     [b:1,c:1000]                                        1                  arith_constant   | +4(+100.0%)                                 Eltwise/sub_[202]                     
                                                                                                                                     nl_217   | 
------ ---------------------------------------------- ------------------- --------------------- ----------- ------------------------------- --- --------------------- --------------------- ------------------------------------- 
221    conversion_221 (Conversion, QUANTIZE)          [b:1,c:1000]                                    2,000                     eltwise_220   |                                             Conversion_[203]                      
------ ---------------------------------------------- ------------------- --------------------- ----------- ------------------------------- --- --------------------- --------------------- ------------------------------------- 
222    eltwise_222 (Eltwise, MUL)                     [b:1,c:1000]                                    1,000                     eltwise_211   |                                             Eltwise/mul_[204]                     
                                                                                                                             conversion_221   | 
------ ---------------------------------------------- ------------------- --------------------- ----------- ------------------------------- --- --------------------- --------------------- ------------------------------------- 
223    eltwise_223 (Eltwise, MUL)                     [b:1,c:1000]                                    1,000                     eltwise_222   | +1,000(+100.0%)                             Eltwise/mul_[205]                     
                                                                                                                         tfl_pseudo_qconst6   | 
------ ---------------------------------------------- ------------------- --------------------- ----------- ------------------------------- --- --------------------- --------------------- ------------------------------------- 
224    slice_224 (Slice, STRIDED_SLICE)               [b:1,h:1,c:1000]                                                           concat_154   |                                             Slice_[146]                           
       reshape_224_reshape (Reshape, STRIDED_SLICE)   [b:1,c:1000]                                                                slice_224   |                                             
------ ---------------------------------------------- ------------------- --------------------- ----------- ------------------------------- --- --------------------- --------------------- ------------------------------------- 
225    gemm_225 (Gemm, FULLY_CONNECTED)               [b:1,c:1000]                                1,001,000             reshape_224_reshape   | +1,004,000(+100.0%)                         Dense_[147]                           
                                                                                                                         tfl_pseudo_qconst3   | 
------ ---------------------------------------------- ------------------- --------------------- ----------- ------------------------------- --- --------------------- --------------------- ------------------------------------- 
226    eltwise_226 (Eltwise, ADD)                     [b:1,c:1000]                                    1,000                        gemm_225   |                                             Eltwise/add_[206]                     
                                                                                                                                eltwise_223   | 
------ ---------------------------------------------- ------------------- --------------------- ----------- ------------------------------- --- --------------------- --------------------- ------------------------------------- 
227    eltwise_227 (Eltwise, MUL)                     [b:1,c:1000]                                    1,000                     eltwise_226   | +1(+100.0%)                                 Eltwise/mul_[207]                     
                                                                                                                         tfl_pseudo_qconst4   | 
------ ---------------------------------------------- ------------------- --------------------- ----------- ------------------------------- --- --------------------- --------------------- ------------------------------------- 
228    eltwise_228 (Eltwise, ADD)                     [b:1,c:1000]                                    1,000                     eltwise_227   | +1(+100.0%)                                 Eltwise/add_[208]                     
                                                                                                                         tfl_pseudo_qconst4   | 
------ ---------------------------------------------- ------------------- --------------------- ----------- ------------------------------- --- --------------------- --------------------- ------------------------------------- 
229    tfl_pseudo_qconst21 (Placeholder, )            []                  1/1                                                                 |                       +1,000(+100.0%)       Eltwise/min_[209]                     
       eltwise_229 (Eltwise, MINIMUM)                 [b:1,c:1000]                                    1,000                     eltwise_228   |                       -1,000(-100.0%)       
                                                                                                                        tfl_pseudo_qconst21   | 
------ ---------------------------------------------- ------------------- --------------------- ----------- ------------------------------- --- --------------------- --------------------- ------------------------------------- 
230    nl_230 (Nonlinearity, RELU)                    [b:1,c:1000]                                    1,000                     eltwise_229   |                                             Nonlinearity_[210]                    
------ ---------------------------------------------- ------------------- --------------------- ----------- ------------------------------- --- --------------------- --------------------- ------------------------------------- 
231    conversion_231 (Conversion, DEQUANTIZE)        [b:1,c:1000]                                    2,000                          nl_230   |                                             Conversion_[211]                      
------ ---------------------------------------------- ------------------- --------------------- ----------- ------------------------------- --- --------------------- --------------------- ------------------------------------- 
232    nl_232 (Nonlinearity, ROUND)                   [b:1,c:1000]                                    2,000                  conversion_231   |                       +2,000(+100.0%)       Nonlinearity_/Conversion_[212, 213]   
------ ---------------------------------------------- ------------------- --------------------- ----------- ------------------------------- --- --------------------- --------------------- ------------------------------------- 
233    reshape_233 (Reshape, EXPAND_DIMS)             [b:1,h:1,c:1000]                                                               nl_232   |                                             
------ ---------------------------------------------- ------------------- --------------------- ----------- ------------------------------- --- --------------------- --------------------- ------------------------------------- 
234    conversion_234 (Conversion, QUANTIZE)          [b:1,h:1,c:1000]                                2,000                     reshape_233   |                       -2,000(-100.0%)       
------ ---------------------------------------------- ------------------- --------------------- ----------- ------------------------------- --- --------------------- --------------------- ------------------------------------- 
235    eltwise_235 (Eltwise, SUB)                     [b:1,c:1000]                                        1                  arith_constant   | +4(+100.0%)                                 Eltwise/sub_[214]                     
                                                                                                                                     nl_232   | 
------ ---------------------------------------------- ------------------- --------------------- ----------- ------------------------------- --- --------------------- --------------------- ------------------------------------- 
236    conversion_236 (Conversion, QUANTIZE)          [b:1,c:1000]                                    2,000                     eltwise_235   |                                             Conversion_[215]                      
------ ---------------------------------------------- ------------------- --------------------- ----------- ------------------------------- --- --------------------- --------------------- ------------------------------------- 
237    eltwise_237 (Eltwise, MUL)                     [b:1,c:1000]                                    1,000                     eltwise_226   |                                             Eltwise/mul_[216]                     
                                                                                                                             conversion_236   | 
------ ---------------------------------------------- ------------------- --------------------- ----------- ------------------------------- --- --------------------- --------------------- ------------------------------------- 
238    eltwise_238 (Eltwise, MUL)                     [b:1,c:1000]                                    1,000                     eltwise_237   | +1,000(+100.0%)                             Eltwise/mul_[217]                     
                                                                                                                         tfl_pseudo_qconst6   | 
------ ---------------------------------------------- ------------------- --------------------- ----------- ------------------------------- --- --------------------- --------------------- ------------------------------------- 
239    slice_239 (Slice, STRIDED_SLICE)               [b:1,h:1,c:1000]                                                           concat_154   |                                             Slice_[144]                           
       reshape_239_reshape (Reshape, STRIDED_SLICE)   [b:1,c:1000]                                                                slice_239   |                                             
------ ---------------------------------------------- ------------------- --------------------- ----------- ------------------------------- --- --------------------- --------------------- ------------------------------------- 
240    gemm_240 (Gemm, FULLY_CONNECTED)               [b:1,c:1000]                                1,001,000             reshape_239_reshape   | +1,004,000(+100.0%)                         Dense_[145]                           
                                                                                                                         tfl_pseudo_qconst3   | 
------ ---------------------------------------------- ------------------- --------------------- ----------- ------------------------------- --- --------------------- --------------------- ------------------------------------- 
241    eltwise_241 (Eltwise, ADD)                     [b:1,c:1000]                                    1,000                        gemm_240   |                                             Eltwise/add_[218]                     
                                                                                                                                eltwise_238   | 
------ ---------------------------------------------- ------------------- --------------------- ----------- ------------------------------- --- --------------------- --------------------- ------------------------------------- 
242    eltwise_242 (Eltwise, MUL)                     [b:1,c:1000]                                    1,000                     eltwise_241   | +1(+100.0%)                                 Eltwise/mul_[219]                     
                                                                                                                         tfl_pseudo_qconst4   | 
------ ---------------------------------------------- ------------------- --------------------- ----------- ------------------------------- --- --------------------- --------------------- ------------------------------------- 
243    eltwise_243 (Eltwise, ADD)                     [b:1,c:1000]                                    1,000                     eltwise_242   | +1(+100.0%)                                 Eltwise/add_[220]                     
                                                                                                                         tfl_pseudo_qconst4   | 
------ ---------------------------------------------- ------------------- --------------------- ----------- ------------------------------- --- --------------------- --------------------- ------------------------------------- 
244    tfl_pseudo_qconst22 (Placeholder, )            []                  1/1                                                                 |                       +1,000(+100.0%)       Eltwise/min_[221]                     
       eltwise_244 (Eltwise, MINIMUM)                 [b:1,c:1000]                                    1,000                     eltwise_243   |                       -1,000(-100.0%)       
                                                                                                                        tfl_pseudo_qconst22   | 
------ ---------------------------------------------- ------------------- --------------------- ----------- ------------------------------- --- --------------------- --------------------- ------------------------------------- 
245    nl_245 (Nonlinearity, RELU)                    [b:1,c:1000]                                    1,000                     eltwise_244   |                                             Nonlinearity_[222]                    
------ ---------------------------------------------- ------------------- --------------------- ----------- ------------------------------- --- --------------------- --------------------- ------------------------------------- 
246    conversion_246 (Conversion, DEQUANTIZE)        [b:1,c:1000]                                    2,000                          nl_245   |                                             Conversion_[223]                      
------ ---------------------------------------------- ------------------- --------------------- ----------- ------------------------------- --- --------------------- --------------------- ------------------------------------- 
247    nl_247 (Nonlinearity, ROUND)                   [b:1,c:1000]                                    2,000                  conversion_246   |                       +2,000(+100.0%)       Nonlinearity_/Conversion_[224, 225]   
------ ---------------------------------------------- ------------------- --------------------- ----------- ------------------------------- --- --------------------- --------------------- ------------------------------------- 
248    reshape_248 (Reshape, EXPAND_DIMS)             [b:1,h:1,c:1000]                                                               nl_247   |                                             
------ ---------------------------------------------- ------------------- --------------------- ----------- ------------------------------- --- --------------------- --------------------- ------------------------------------- 
249    conversion_249 (Conversion, QUANTIZE)          [b:1,h:1,c:1000]                                2,000                     reshape_248   |                       -2,000(-100.0%)       
------ ---------------------------------------------- ------------------- --------------------- ----------- ------------------------------- --- --------------------- --------------------- ------------------------------------- 
250    eltwise_250 (Eltwise, SUB)                     [b:1,c:1000]                                        1                  arith_constant   | +4(+100.0%)                                 Eltwise/sub_[226]                     
                                                                                                                                     nl_247   | 
------ ---------------------------------------------- ------------------- --------------------- ----------- ------------------------------- --- --------------------- --------------------- ------------------------------------- 
251    conversion_251 (Conversion, QUANTIZE)          [b:1,c:1000]                                    2,000                     eltwise_250   |                                             Conversion_[227]                      
------ ---------------------------------------------- ------------------- --------------------- ----------- ------------------------------- --- --------------------- --------------------- ------------------------------------- 
252    eltwise_252 (Eltwise, MUL)                     [b:1,c:1000]                                    1,000                     eltwise_241   |                                             Eltwise/mul_[228]                     
                                                                                                                             conversion_251   | 
------ ---------------------------------------------- ------------------- --------------------- ----------- ------------------------------- --- --------------------- --------------------- ------------------------------------- 
253    eltwise_253 (Eltwise, MUL)                     [b:1,c:1000]                                    1,000                     eltwise_252   | +1,000(+100.0%)                             Eltwise/mul_[229]                     
                                                                                                                         tfl_pseudo_qconst6   | 
------ ---------------------------------------------- ------------------- --------------------- ----------- ------------------------------- --- --------------------- --------------------- ------------------------------------- 
254    slice_254 (Slice, STRIDED_SLICE)               [b:1,h:1,c:1000]                                                           concat_154   |                                             Slice_[142]                           
       reshape_254_reshape (Reshape, STRIDED_SLICE)   [b:1,c:1000]                                                                slice_254   |                                             
------ ---------------------------------------------- ------------------- --------------------- ----------- ------------------------------- --- --------------------- --------------------- ------------------------------------- 
255    gemm_255 (Gemm, FULLY_CONNECTED)               [b:1,c:1000]                                1,001,000             reshape_254_reshape   | +1,004,000(+100.0%)                         Dense_[143]                           
                                                                                                                         tfl_pseudo_qconst3   | 
------ ---------------------------------------------- ------------------- --------------------- ----------- ------------------------------- --- --------------------- --------------------- ------------------------------------- 
256    eltwise_256 (Eltwise, ADD)                     [b:1,c:1000]                                    1,000                        gemm_255   |                                             Eltwise/add_[230]                     
                                                                                                                                eltwise_253   | 
------ ---------------------------------------------- ------------------- --------------------- ----------- ------------------------------- --- --------------------- --------------------- ------------------------------------- 
257    eltwise_257 (Eltwise, MUL)                     [b:1,c:1000]                                    1,000                     eltwise_256   | +1(+100.0%)                                 Eltwise/mul_[231]                     
                                                                                                                         tfl_pseudo_qconst4   | 
------ ---------------------------------------------- ------------------- --------------------- ----------- ------------------------------- --- --------------------- --------------------- ------------------------------------- 
258    eltwise_258 (Eltwise, ADD)                     [b:1,c:1000]                                    1,000                     eltwise_257   | +1(+100.0%)                                 Eltwise/add_[232]                     
                                                                                                                         tfl_pseudo_qconst4   | 
------ ---------------------------------------------- ------------------- --------------------- ----------- ------------------------------- --- --------------------- --------------------- ------------------------------------- 
259    tfl_pseudo_qconst23 (Placeholder, )            []                  1/1                                                                 |                       +1,000(+100.0%)       Eltwise/min_[233]                     
       eltwise_259 (Eltwise, MINIMUM)                 [b:1,c:1000]                                    1,000                     eltwise_258   |                       -1,000(-100.0%)       
                                                                                                                        tfl_pseudo_qconst23   | 
------ ---------------------------------------------- ------------------- --------------------- ----------- ------------------------------- --- --------------------- --------------------- ------------------------------------- 
260    nl_260 (Nonlinearity, RELU)                    [b:1,c:1000]                                    1,000                     eltwise_259   |                                             Nonlinearity_[234]                    
------ ---------------------------------------------- ------------------- --------------------- ----------- ------------------------------- --- --------------------- --------------------- ------------------------------------- 
261    conversion_261 (Conversion, DEQUANTIZE)        [b:1,c:1000]                                    2,000                          nl_260   |                                             Conversion_[235]                      
------ ---------------------------------------------- ------------------- --------------------- ----------- ------------------------------- --- --------------------- --------------------- ------------------------------------- 
262    nl_262 (Nonlinearity, ROUND)                   [b:1,c:1000]                                    2,000                  conversion_261   |                       +2,000(+100.0%)       Nonlinearity_/Conversion_[236, 237]   
------ ---------------------------------------------- ------------------- --------------------- ----------- ------------------------------- --- --------------------- --------------------- ------------------------------------- 
263    reshape_263 (Reshape, EXPAND_DIMS)             [b:1,h:1,c:1000]                                                               nl_262   |                                             
------ ---------------------------------------------- ------------------- --------------------- ----------- ------------------------------- --- --------------------- --------------------- ------------------------------------- 
264    conversion_264 (Conversion, QUANTIZE)          [b:1,h:1,c:1000]                                2,000                     reshape_263   |                       -2,000(-100.0%)       
------ ---------------------------------------------- ------------------- --------------------- ----------- ------------------------------- --- --------------------- --------------------- ------------------------------------- 
265    eltwise_265 (Eltwise, SUB)                     [b:1,c:1000]                                        1                  arith_constant   | +4(+100.0%)                                 Eltwise/sub_[238]                     
                                                                                                                                     nl_262   | 
------ ---------------------------------------------- ------------------- --------------------- ----------- ------------------------------- --- --------------------- --------------------- ------------------------------------- 
266    conversion_266 (Conversion, QUANTIZE)          [b:1,c:1000]                                    2,000                     eltwise_265   |                                             Conversion_[239]                      
------ ---------------------------------------------- ------------------- --------------------- ----------- ------------------------------- --- --------------------- --------------------- ------------------------------------- 
267    eltwise_267 (Eltwise, MUL)                     [b:1,c:1000]                                    1,000                     eltwise_256   |                                             Eltwise/mul_[240]                     
                                                                                                                             conversion_266   | 
------ ---------------------------------------------- ------------------- --------------------- ----------- ------------------------------- --- --------------------- --------------------- ------------------------------------- 
268    eltwise_268 (Eltwise, MUL)                     [b:1,c:1000]                                    1,000                     eltwise_267   | +1,000(+100.0%)                             Eltwise/mul_[241]                     
                                                                                                                         tfl_pseudo_qconst6   | 
------ ---------------------------------------------- ------------------- --------------------- ----------- ------------------------------- --- --------------------- --------------------- ------------------------------------- 
269    slice_269 (Slice, STRIDED_SLICE)               [b:1,h:1,c:1000]                                                           concat_154   |                                             Slice_[140]                           
       reshape_269_reshape (Reshape, STRIDED_SLICE)   [b:1,c:1000]                                                                slice_269   |                                             
------ ---------------------------------------------- ------------------- --------------------- ----------- ------------------------------- --- --------------------- --------------------- ------------------------------------- 
270    gemm_270 (Gemm, FULLY_CONNECTED)               [b:1,c:1000]                                1,001,000             reshape_269_reshape   | +1,004,000(+100.0%)                         Dense_[141]                           
                                                                                                                         tfl_pseudo_qconst3   | 
------ ---------------------------------------------- ------------------- --------------------- ----------- ------------------------------- --- --------------------- --------------------- ------------------------------------- 
271    eltwise_271 (Eltwise, ADD)                     [b:1,c:1000]                                    1,000                        gemm_270   |                                             Eltwise/add_[242]                     
                                                                                                                                eltwise_268   | 
…
26     gemm_26                         ||||||||||||       2.8%   ||||||||||||      28.1%   [16]           2.8%                    
27     eltwise_27                      |                  0.0%   |                  0.0%   [33]           0.0%                    
28     eltwise_28                      |                  0.0%   |                  0.0%   [34]           0.0%                    
29     eltwise_29                      |                  0.0%   |                  0.0%   [35]           0.0%                    
30     tfl_pseudo_qconst8              |                  0.0%   |                  0.0%   [36]           0.0%                    
31     nl_31                           |                  0.0%   |                  0.0%   [37]           0.0%                    
32     conversion_32                   |                  0.0%   |                  0.0%   [38]           0.0%                    
33     nl_33                           |                  0.0%   |                  0.0%   [39, 40]       0.0%                    
36     eltwise_36                      |                  0.0%   |                  0.0%   [41]           0.0%                    
37     conversion_37                   |                  0.0%   |                  0.0%   [42]           0.0%                    
38     eltwise_38                      |                  0.0%   |                  0.0%   [43]           0.0%                    
39     eltwise_39                      |                  0.0%   |                  0.0%   [44]           0.0%                    
40     slice_40                        |                  0.0%   |                  0.0%   [13]           0.0%                    
41     gemm_41                         ||||||||||||       2.8%   ||||||||||||      28.1%   [14]           2.8%                    
42     eltwise_42                      |                  0.0%   |                  0.0%   [45]           0.0%                    
43     eltwise_43                      |                  0.0%   |                  0.0%   [46]           0.0%                    
44     eltwise_44                      |                  0.0%   |                  0.0%   [47]           0.0%                    
45     tfl_pseudo_qconst9              |                  0.0%   |                  0.0%   [48]           0.0%                    
46     nl_46                           |                  0.0%   |                  0.0%   [49]           0.0%                    
47     conversion_47                   |                  0.0%   |                  0.0%   [50]           0.0%                    
48     nl_48                           |                  0.0%   |                  0.0%   [51, 52]       0.0%                    
51     eltwise_51                      |                  0.0%   |                  0.0%   [53]           0.0%                    
52     conversion_52                   |                  0.0%   |                  0.0%   [54]           0.0%                    
53     eltwise_53                      |                  0.0%   |                  0.0%   [55]           0.0%                    
54     eltwise_54                      |                  0.0%   |                  0.0%   [56]           0.0%                    
55     slice_55                        |                  0.0%   |                  0.0%   [11]           0.0%                    
56     gemm_56                         ||||||||||||       2.8%   ||||||||||||      28.1%   [12]           2.8%                    
57     eltwise_57                      |                  0.0%   |                  0.0%   [57]           0.0%                    
58     eltwise_58                      |                  0.0%   |                  0.0%   [58]           0.0%                    
59     eltwise_59                      |                  0.0%   |                  0.0%   [59]           0.0%                    
60     tfl_pseudo_qconst10             |                  0.0%   |                  0.0%   [60]           0.0%                    
61     nl_61                           |                  0.0%   |                  0.0%   [61]           0.0%                    
62     conversion_62                   |                  0.0%   |                  0.0%   [62]           0.0%                    
63     nl_63                           |                  0.0%   |                  0.0%   [63, 64]       0.0%                    
66     eltwise_66                      |                  0.0%   |                  0.0%   [65]           0.0%                    
67     conversion_67                   |                  0.0%   |                  0.0%   [66]           0.0%                    
68     eltwise_68                      |                  0.0%   |                  0.0%   [67]           0.0%                    
69     eltwise_69                      |                  0.0%   |                  0.0%   [68]           0.0%                    
70     slice_70                        |                  0.0%   |                  0.0%   [9]            0.0%                    
71     gemm_71                         ||||||||||||       2.8%   ||||||||||||      28.1%   [10]           2.8%                    
72     eltwise_72                      |                  0.0%   |                  0.0%   [69]           0.0%                    
73     eltwise_73                      |                  0.0%   |                  0.0%   [70]           0.0%                    
74     eltwise_74                      |                  0.0%   |                  0.0%   [71]           0.0%                    
75     tfl_pseudo_qconst11             |                  0.0%   |                  0.0%   [72]           0.0%                    
76     nl_76                           |                  0.0%   |                  0.0%   [73]           0.0%                    
77     conversion_77                   |                  0.0%   |                  0.0%   [74]           0.0%                    
78     nl_78                           |                  0.0%   |                  0.0%   [75, 76]       0.0%                    
81     eltwise_81                      |                  0.0%   |                  0.0%   [77]           0.0%                    
82     conversion_82                   |                  0.0%   |                  0.0%   [78]           0.0%                    
83     eltwise_83                      |                  0.0%   |                  0.0%   [79]           0.0%                    
84     eltwise_84                      |                  0.0%   |                  0.0%   [80]           0.0%                    
85     slice_85                        |                  0.0%   |                  0.0%   [7]            0.0%                    
86     gemm_86                         ||||||||||||       2.8%   ||||||||||||      28.1%   [8]            2.8%                    
87     eltwise_87                      |                  0.0%   |                  0.0%   [81]           0.0%                    
88     eltwise_88                      |                  0.0%   |                  0.0%   [82]           0.0%                    
89     eltwise_89                      |                  0.0%   |                  0.0%   [83]           0.0%                    
90     tfl_pseudo_qconst12             |                  0.0%   |                  0.0%   [84]           0.0%                    
91     nl_91                           |                  0.0%   |                  0.0%   [85]           0.0%                    
92     conversion_92                   |                  0.0%   |                  0.0%   [86]           0.0%                    
93     nl_93                           |                  0.0%   |                  0.0%   [87, 88]       0.0%                    
96     eltwise_96                      |                  0.0%   |                  0.0%   [89]           0.0%                    
97     conversion_97                   |                  0.0%   |                  0.0%   [90]           0.0%                    
98     eltwise_98                      |                  0.0%   |                  0.0%   [91]           0.0%                    
99     eltwise_99                      |                  0.0%   |                  0.0%   [92]           0.0%                    
100    slice_100                       |                  0.0%   |                  0.0%   [5]            0.0%                    
101    gemm_101                        ||||||||||||       2.8%   ||||||||||||      28.1%   [6]            2.8%                    
102    eltwise_102                     |                  0.0%   |                  0.0%   [93]           0.0%                    
103    eltwise_103                     |                  0.0%   |                  0.0%   [94]           0.0%                    
104    eltwise_104                     |                  0.0%   |                  0.0%   [95]           0.0%                    
105    tfl_pseudo_qconst13             |                  0.0%   |                  0.0%   [96]           0.0%                    
106    nl_106                          |                  0.0%   |                  0.0%   [97]           0.0%                    
107    conversion_107                  |                  0.0%   |                  0.0%   [98]           0.0%                    
108    nl_108                          |                  0.0%   |                  0.0%   [99, 100]      0.0%                    
111    eltwise_111                     |                  0.0%   |                  0.0%   [101]          0.0%                    
112    conversion_112                  |                  0.0%   |                  0.0%   [102]          0.0%                    
113    eltwise_113                     |                  0.0%   |                  0.0%   [103]          0.0%                    
114    eltwise_114                     |                  0.0%   |                  0.0%   [104]          0.0%                    
115    slice_115                       |                  0.0%   |                  0.0%   [3]            0.0%                    
116    gemm_116                        ||||||||||||       2.8%   ||||||||||||      28.1%   [4]            2.8%                    
117    eltwise_117                     |                  0.0%   |                  0.0%   [105]          0.0%                    
118    eltwise_118                     |                  0.0%   |                  0.0%   [106]          0.0%                    
119    eltwise_119                     |                  0.0%   |                  0.0%   [107]          0.0%                    
120    tfl_pseudo_qconst14             |                  0.0%   |                  0.0%   [108]          0.0%                    
121    nl_121                          |                  0.0%   |                  0.0%   [109]          0.0%                    
122    conversion_122                  |                  0.0%   |                  0.0%   [110]          0.0%                    
123    nl_123                          |                  0.0%   |                  0.0%   [111, 112]     0.0%                    
126    eltwise_126                     |                  0.0%   |                  0.0%   [113]          0.0%                    
127    conversion_127                  |                  0.0%   |                  0.0%   [114]          0.0%                    
128    eltwise_128                     |                  0.0%   |                  0.0%   [115]          0.0%                    
129    eltwise_129                     |                  0.0%   |                  0.0%   [116]          0.0%                    
130    slice_130                       |                  0.0%   |                  0.0%   [1]            0.0%                    
131    gemm_131                        ||||||||||||       2.8%   ||||||||||||      28.1%   [2]            2.8%                    
132    eltwise_132                     |                  0.0%   |                  0.0%   [117]          0.0%                    
133    eltwise_133                     |                  0.0%   |                  0.0%   [118]          0.0%                    
134    eltwise_134                     |                  0.0%   |                  0.0%   [119]          0.0%                    
135    tfl_pseudo_qconst15             |                  0.0%   |                  0.0%   [120]          0.0%                    
136    nl_136                          |                  0.0%   |                  0.0%   [121]          0.0%                    
137    conversion_137                  |                  0.0%   |                  0.0%   [122]          0.0%                    
138    nl_138                          |                  0.0%   |                  0.0%   [123, 124]     0.0%                    
141    eltwise_141                     |                  0.0%   |                  0.0%   [125]          0.0%                    
142    conversion_142                  |                  0.0%   |                  0.0%   [126]          0.0%                    
143    eltwise_143                     |                  0.0%   |                  0.0%   [127]          0.0%                    
144    eltwise_144                     |                  0.0%   |                  0.0%   [128]          0.0%                    
145    eltwise_145                     |                  0.0%   |                  0.0%   [129]          0.0%                    
146    eltwise_146                     |                  0.0%   |                  0.0%   [130]          0.0%                    
147    eltwise_147                     |                  0.0%   |                  0.0%   [131]          0.0%                    
148    tfl_pseudo_qconst16             |                  0.0%   |                  0.0%   [132]          0.0%                    
149    nl_149                          |                  0.0%   |                  0.0%   [133]          0.0%                    
150    conversion_150                  |                  0.0%   |                  0.0%   [134]          0.0%                    
151    nl_151                          |                  0.0%   |                  0.0%   [135, 136]     0.0%                    
154    concat_154                      |                  0.0%   |                  0.0%   [137]          0.0%                    
162    slice_162                       |                  0.0%   |                  0.0%   [156]          0.0%                    
163    tfl_pseudo_qconst3              ||||||||||||||||   3.5%   ||||||||||||||||  35.8%   [157]          3.6%                    
164    eltwise_164                     |                  0.0%   |                  0.0%   [158]          0.0%                    
165    eltwise_165                     |                  0.0%   |                  0.0%   [159]          0.0%                    
166    eltwise_166                     |                  0.0%   |                  0.0%   [160]          0.0%                    
167    tfl_pseudo_qconst17             |                  0.0%   |                  0.0%   [161]          0.0%                    
168    nl_168                          |                  0.0%   |                  0.0%   [162]          0.0%                    
169    conversion_169                  |                  0.0%   |                  0.0%   [163]          0.0%                    
170    nl_170                          |                  0.0%   |                  0.0%   [164, 165]     0.0%                    
173    eltwise_173                     |                  0.0%   |                  0.0%   [166]          0.0%                    
174    conversion_174                  |                  0.0%   |                  0.0%   [167]          0.0%                    
175    eltwise_175                     |                  0.0%   |                  0.0%   [168]          0.0%                    
176    eltwise_176                     |                  0.0%   |                  0.0%   [169]          0.0%                    
177    slice_177                       |                  0.0%   |                  0.0%   [154]          0.0%                    
178    gemm_178                        ||||||||||||||||   3.5%   ||||||||||||||||  35.8%   [155]          3.6%                    
179    slice_179                       |                  0.0%   |                  0.0%   [152]          0.0%                    
180    gemm_180                        ||||||||||||||||   3.5%   ||||||||||||||||  35.8%   [153]          3.6%                    
181    eltwise_181                     |                  0.0%   |                  0.0%   [170]          0.0%                    
182    eltwise_182                     |                  0.0%   |                  0.0%   [171]          0.0%                    
183    eltwise_183                     |                  0.0%   |                  0.0%   [172]          0.0%                    
184    tfl_pseudo_qconst18             |                  0.0%   |                  0.0%   [173]          0.0%                    
185    nl_185                          |                  0.0%   |                  0.0%   [174]          0.0%                    
186    conversion_186                  |                  0.0%   |                  0.0%   [175]          0.0%                    
187    nl_187                          |                  0.0%   |                  0.0%   [176, 177]     0.0%                    
190    eltwise_190                     |                  0.0%   |                  0.0%   [178]          0.0%                    
191    conversion_191                  |                  0.0%   |                  0.0%   [179]          0.0%                    
192    eltwise_192                     |                  0.0%   |                  0.0%   [180]          0.0%                    
193    eltwise_193                     |                  0.0%   |                  0.0%   [181]          0.0%                    
194    slice_194                       |                  0.0%   |                  0.0%   [150]          0.0%                    
195    gemm_195                        ||||||||||||||||   3.5%   ||||||||||||||||  35.8%   [151]          3.5%                    
196    eltwise_196                     |                  0.0%   |                  0.0%   [182]          0.0%                    
197    eltwise_197                     |                  0.0%   |                  0.0%   [183]          0.0%                    
198    eltwise_198                     |                  0.0%   |                  0.0%   [184]          0.0%                    
199    tfl_pseudo_qconst19             |                  0.0%   |                  0.0%   [185]          0.0%                    
200    nl_200                          |                  0.0%   |                  0.0%   [186]          0.0%                    
201    conversion_201                  |                  0.0%   |                  0.0%   [187]          0.0%                    
202    nl_202                          |                  0.0%   |                  0.0%   [188, 189]     0.0%                    
205    eltwise_205                     |                  0.0%   |                  0.0%   [190]          0.0%                    
206    conversion_206                  |                  0.0%   |                  0.0%   [191]          0.0%                    
207    eltwise_207                     |                  0.0%   |                  0.0%   [192]          0.0%                    
208    eltwise_208                     |                  0.0%   |                  0.0%   [193]          0.0%                    
209    slice_209                       |                  0.0%   |                  0.0%   [148]          0.0%                    
210    gemm_210                        ||||||||||||||||   3.5%   ||||||||||||||||  35.8%   [149]          3.5%                    
211    eltwise_211                     |                  0.0%   |                  0.0%   [194]          0.0%                    
212    eltwise_212                     |                  0.0%   |                  0.0%   [195]          0.0%                    
213    eltwise_213                     |                  0.0%   |                  0.0%   [196]          0.0%                    
214    tfl_pseudo_qconst20             |                  0.0%   |                  0.0%   [197]          0.0%                    
215    nl_215                          |                  0.0%   |                  0.0%   [198]          0.0%                    
216    conversion_216                  |                  0.0%   |                  0.0%   [199]          0.0%                    
217    nl_217                          |                  0.0%   |                  0.0%   [200, 201]     0.0%                    
220    eltwise_220                     |                  0.0%   |                  0.0%   [202]          0.0%                    
221    conversion_221                  |                  0.0%   |                  0.0%   [203]          0.0%                    
222    eltwise_222                     |                  0.0%   |                  0.0%   [204]          0.0%                    
223    eltwise_223                     |                  0.0%   |                  0.0%   [205]          0.0%                    
224    slice_224                       |                  0.0%   |                  0.0%   [146]          0.0%                    
225    gemm_225                        ||||||||||||||||   3.5%   ||||||||||||||||  35.8%   [147]          3.5%                    
226    eltwise_226                     |                  0.0%   |                  0.0%   [206]          0.0%                    
227    eltwise_227                     |                  0.0%   |                  0.0%   [207]          0.0%                    
228    eltwise_228                     |                  0.0%   |                  0.0%   [208]          0.0%                    
229    tfl_pseudo_qconst21             |                  0.0%   |                  0.0%   [209]          0.0%                    
230    nl_230                          |                  0.0%   |                  0.0%   [210]          0.0%                    
231    conversion_231                  |                  0.0%   |                  0.0%   [211]          0.0%                    
232    nl_232                          |                  0.0%   |                  0.0%   [212, 213]     0.0%                    
235    eltwise_235                     |                  0.0%   |                  0.0%   [214]          0.0%                    
236    conversion_236                  |                  0.0%   |                  0.0%   [215]          0.0%                    
237    eltwise_237                     |                  0.0%   |                  0.0%   [216]          0.0%                    
238    eltwise_238                     |                  0.0%   |                  0.0%   [217]          0.0%                    
239    slice_239                       |                  0.0%   |                  0.0%   [144]          0.0%                    
240    gemm_240                        ||||||||||||||||   3.5%   ||||||||||||||||  35.8%   [145]          3.6%                    
241    eltwise_241                     |                  0.0%   |                  0.0%   [218]          0.0%                    
242    eltwise_242                     |                  0.0%   |                  0.0%   [219]          0.0%                    
243    eltwise_243                     |                  0.0%   |                  0.0%   [220]          0.0%                    
244    tfl_pseudo_qconst22             |                  0.0%   |                  0.0%   [221]          0.0%                    
245    nl_245                          |                  0.0%   |                  0.0%   [222]          0.0%                    
246    conversion_246                  |                  0.0%   |                  0.0%   [223]          0.0%                    
247    nl_247                          |                  0.0%   |                  0.0%   [224, 225]     0.0%                    
250    eltwise_250                     |                  0.0%   |                  0.0%   [226]          0.0%                    
251    conversion_251                  |                  0.0%   |                  0.0%   [227]          0.0%                    
252    eltwise_252                     |                  0.0%   |                  0.0%   [228]          0.0%                    
253    eltwise_253                     |                  0.0%   |                  0.0%   [229]          0.0%                    
254    slice_254                       |                  0.0%   |                  0.0%   [142]          0.0%                    
255    gemm_255                        ||||||||||||||||   3.5%   ||||||||||||||||  35.8%   [143]          3.6%                    
256    eltwise_256                     |                  0.0%   |                  0.0%   [230]          0.0%                    
257    eltwise_257                     |                  0.0%   |                  0.0%   [231]          0.0%                    
258    eltwise_258                     |                  0.0%   |                  0.0%   [232]          0.0%                    
259    tfl_pseudo_qconst23             |                  0.0%   |                  0.0%   [233]          0.0%                    
260    nl_260                          |                  0.0%   |                  0.0%   [234]          0.0%                    
261    conversion_261                  |                  0.0%   |                  0.0%   [235]          0.0%                    
262    nl_262                          |                  0.0%   |                  0.0%   [236, 237]     0.0%                    
265    eltwise_265                     |                  0.0%   |                  0.0%   [238]          0.0%                    
266    conversion_266                  |                  0.0%   |                  0.0%   [239]          0.0%                    
267    eltwise_267                     |                  0.0%   |                  0.0%   [240]          0.0%                    
268    eltwise_268                     |                  0.0%   |                  0.0%   [241]          0.0%                    
269    slice_269                       |                  0.0%   |                  0.0%   [140]          0.0%                    
270    gemm_270                        ||||||||||||||||   3.5%   ||||||||||||||||  35.8%   [141]          3.6%                    
271    eltwise_271                     |                  0.0%   |                  0.0%   [242]          0.0%                    
272    eltwise_272                     |                  0.0%   |                  0.0%   [243]          0.0%                    
273    eltwise_273                     |                  0.0%   |                  0.0%   [244]          0.0%                    
274    tfl_pseudo_qconst24             |                  0.0%   |                  0.0%   [245]          0.0%                    
275    nl_275                          |                  0.0%   |                  0.0%   [246]          0.0%                    
276    conversion_276                  |                  0.0%   |                  0.0%   [247]          0.0%                    
277    nl_277                          |                  0.0%   |                  0.0%   [248, 249]     0.0%                    
280    eltwise_280                     |                  0.0%   |                  0.0%   [250]          0.0%                    
281    conversion_281                  |                  0.0%   |                  0.0%   [251]          0.0%                    
282    eltwise_282                     |                  0.0%   |                  0.0%   [252]          0.0%                    
283    eltwise_283                     |                  0.0%   |                  0.0%   [253]          0.0%                    
284    slice_284                       |                  0.0%   |                  0.0%   [138]          0.0%                    
285    gemm_285                        ||||||||||||||||   3.5%   ||||||||||||||||  35.8%   [139]          3.6%                    
286    eltwise_286                     |                  0.0%   |                  0.0%   [254]          0.0%                    
287    eltwise_287                     |                  0.0%   |                  0.0%   [255]          0.0%                    
288    eltwise_288                     |                  0.0%   |                  0.0%   [256]          0.0%                    
289    tfl_pseudo_qconst25             |                  0.0%   |                  0.0%   [257]          0.0%                    
290    nl_290                          |                  0.0%   |                  0.0%   [258]          0.0%                    
291    conversion_291                  |                  0.0%   |                  0.0%   [259]          0.0%                    
292    nl_292                          |                  0.0%   |                  0.0%   [260, 261]     0.0%                    
295    eltwise_295                     |                  0.0%   |                  0.0%   [262]          0.0%                    
296    conversion_296                  |                  0.0%   |                  0.0%   [263]          0.0%                    
297    eltwise_297                     |                  0.0%   |                  0.0%   [264]          0.0%                    
298    eltwise_298                     |                  0.0%   |                  0.0%   [265]          0.0%                    
299    eltwise_299                     |                  0.0%   |                  0.0%   [266]          0.0%                    
300    eltwise_300                     |                  0.0%   |                  0.0%   [267]          0.0%                    
301    eltwise_301                     |                  0.0%   |                  0.0%   [268]          0.0%                    
302    tfl_pseudo_qconst26             |                  0.0%   |                  0.0%   [269]          0.0%                    
303    nl_303                          |                  0.0%   |                  0.0%   [270]          0.0%                    
304    conversion_304                  |                  0.0%   |                  0.0%   [271]          0.0%                    
305    nl_305                          |                  0.0%   |                  0.0%   [272, 273]     0.0%                    
308    concat_308                      |                  0.0%   |                  0.0%   [274]          0.0%                    
316    slice_316                       |                  0.0%   |                  0.0%   [293]          0.0%                    
317    tfl_pseudo_qconst2              ||||||||||||||||   3.5%   ||||||||||||||||  35.8%   [294]          3.6%                    
318    eltwise_318                     |                  0.0%   |                  0.0%   [295]          0.0%                    
319    eltwise_319                     |                  0.0%   |                  0.0%   [296]          0.0%                    
320    eltwise_320                     |                  0.0%   |                  0.0%   [297]          0.0%                    
321    tfl_pseudo_qconst27             |                  0.0%   |                  0.0%   [298]          0.0%                    
322    nl_322                          |                  0.0%   |                  0.0%   [299]          0.0%                    
323    conversion_323                  |                  0.0%   |                  0.0%   [300]          0.0%                    
324    nl_324                          |                  0.0%   |                  0.0%   [301, 302]     0.0%                    
327    eltwise_327                     |                  0.0%   |                  0.0%   [303]          0.0%                    
328    conversion_328                  |                  0.0%   |                  0.0%   [304]          0.0%                    
329    eltwise_329                     |                  0.0%   |                  0.0%   [305]          0.0%                    
330    eltwise_330                     |                  0.0%   |                  0.0%   [306]          0.0%                    
331    slice_331                       |                  0.0%   |                  0.0%   [291]          0.0%                    
332    gemm_332                        ||||||||||||||||   3.5%   ||||||||||||||||  35.8%   [292]          3.6%                    
333    slice_333                       |                  0.0%   |                  0.0%   [289]          0.0%                    
334    gemm_334                        ||||||||||||||||   3.5%   ||||||||||||||||  35.8%   [290]          3.6%                    
335    eltwise_335                     |                  0.0%   |                  0.0%   [307]          0.0%                    
336    eltwise_336                     |                  0.0%   |                  0.0%   [308]          0.0%                    
337    eltwise_337                     |                  0.0%   |                  0.0%   [309]          0.0%                    
338    tfl_pseudo_qconst28             |                  0.0%   |                  0.0%   [310]          0.0%                    
339    nl_339                          |                  0.0%   |                  0.0%   [311]          0.0%                    
340    conversion_340                  |                  0.0%   |                  0.0%   [312]          0.0%                    
341    nl_341                          |                  0.0%   |                  0.0%   [313, 314]     0.0%                    
344    eltwise_344                     |                  0.0%   |                  0.0%   [315]          0.0%                    
345    conversion_345                  |                  0.0%   |                  0.0%   [316]          0.0%                    
346    eltwise_346                     |                  0.0%   |                  0.0%   [317]          0.0%                    
347    eltwise_347                     |                  0.0%   |                  0.0%   [318]          0.0%                    
348    slice_348                       |                  0.0%   |                  0.0%   [287]          0.0%                    
349    gemm_349                        ||||||||||||||||   3.5%   ||||||||||||||||  35.8%   [288]          3.5%                    
350    eltwise_350                     |                  0.0%   |                  0.0%   [319]          0.0%                    
351    eltwise_351                     |                  0.0%   |                  0.0%   [320]          0.0%                    
352    eltwise_352                     |                  0.0%   |                  0.0%   [321]          0.0%                    
353    tfl_pseudo_qconst29             |                  0.0%   |                  0.0%   [322]          0.0%                    
354    nl_354                          |                  0.0%   |                  0.0%   [323]          0.0%                    
355    conversion_355                  |                  0.0%   |                  0.0%   [324]          0.0%                    
356    nl_356                          |                  0.0%   |                  0.0%   [325, 326]     0.0%                    
359    eltwise_359                     |                  0.0%   |                  0.0%   [327]          0.0%                    
360    conversion_360                  |                  0.0%   |                  0.0%   [328]          0.0%                    
361    eltwise_361                     |                  0.0%   |                  0.0%   [329]          0.0%                    
362    eltwise_362                     |                  0.0%   |                  0.0%   [330]          0.0%                    
363    slice_363                       |                  0.0%   |                  0.0%   [285]          0.0%                    
364    gemm_364                        ||||||||||||||||   3.5%   ||||||||||||||||  35.8%   [286]          3.6%                    
365    eltwise_365                     |                  0.0%   |                  0.0%   [331]          0.0%                    
366    eltwise_366                     |                  0.0%   |                  0.0%   [332]          0.0%                    
367    eltwise_367                     |                  0.0%   |                  0.0%   [333]          0.0%                    
368    tfl_pseudo_qconst30             |                  0.0%   |                  0.0%   [334]          0.0%                    
369    nl_369                          |                  0.0%   |                  0.0%   [335]          0.0%                    
370    conversion_370                  |                  0.0%   |                  0.0%   [336]          0.0%                    
371    nl_371                          |                  0.0%   |                  0.0%   [337, 338]     0.0%                    
374    eltwise_374                     |                  0.0%   |                  0.0%   [339]          0.0%                    
375    conversion_375                  |                  0.0%   |                  0.0%   [340]          0.0%                    
376    eltwise_376                     |                  0.0%   |                  0.0%   [341]          0.0%                    
377    eltwise_377                     |                  0.0%   |                  0.0%   [342]          0.0%                    
378    slice_378                       |                  0.0%   |                  0.0%   [283]          0.0%                    
379    gemm_379                        ||||||||||||||||   3.5%   ||||||||||||||||  35.8%   [284]          3.6%                    
380    eltwise_380                     |                  0.0%   |                  0.0%   [343]          0.0%                    
381    eltwise_381                     |                  0.0%   |                  0.0%   [344]          0.0%                    
382    eltwise_382                     |                  0.0%   |                  0.0%   [345]          0.0%                    
383    tfl_pseudo_qconst31             |                  0.0%   |                  0.0%   [346]          0.0%                    
384    nl_384                          |                  0.0%   |                  0.0%   [347]          0.0%                    
385    conversion_385                  |                  0.0%   |                  0.0%   [348]          0.0%                    
386    nl_386                          |                  0.0%   |                  0.0%   [349, 350]     0.0%                    
389    eltwise_389                     |                  0.0%   |                  0.0%   [351]          0.0%                    
390    conversion_390                  |                  0.0%   |                  0.0%   [352]          0.0%                    
391    eltwise_391                     |                  0.0%   |                  0.0%   [353]          0.0%                    
392    eltwise_392                     |                  0.0%   |                  0.0%   [354]          0.0%                    
393    slice_393                       |                  0.0%   |                  0.0%   [281]          0.0%                    
394    gemm_394                        ||||||||||||||||   3.5%   ||||||||||||||||  35.8%   [282]          3.6%                    
395    eltwise_395                     |                  0.0%   |                  0.0%   [355]          0.0%                    
396    eltwise_396                     |                  0.0%   |                  0.0%   [356]          0.0%                    
397    eltwise_397                     |                  0.0%   |                  0.0%   [357]          0.0%                    
398    tfl_pseudo_qconst32             |                  0.0%   |                  0.0%   [358]          0.0%                    
399    nl_399                          |                  0.0%   |                  0.0%   [359]          0.0%                    
400    conversion_400                  |                  0.0%   |                  0.0%   [360]          0.0%                    
401    nl_401                          |                  0.0%   |                  0.0%   [361, 362]     0.0%                    
404    eltwise_404                     |                  0.0%   |                  0.0%   [363]          0.0%                    
405    conversion_405                  |                  0.0%   |                  0.0%   [364]          0.0%                    
406    eltwise_406                     |                  0.0%   |                  0.0%   [365]          0.0%                    
407    eltwise_407                     |                  0.0%   |                  0.0%   [366]          0.0%                    
408    slice_408                       |                  0.0%   |                  0.0%   [279]          0.0%                    
409    gemm_409                        ||||||||||||||||   3.5%   ||||||||||||||||  35.8%   [280]          3.6%                    
410    eltwise_410                     |                  0.0%   |                  0.0%   [367]          0.0%                    
411    eltwise_411                     |                  0.0%   |                  0.0%   [368]          0.0%                    
412    eltwise_412                     |                  0.0%   |                  0.0%   [369]          0.0%                    
413    tfl_pseudo_qconst33             |                  0.0%   |                  0.0%   [370]          0.0%                    
414    nl_414                          |                  0.0%   |                  0.0%   [371]          0.0%                    
415    conversion_415                  |                  0.0%   |                  0.0%   [372]          0.0%                    
416    nl_416                          |                  0.0%   |                  0.0%   [373, 374]     0.0%                    
419    eltwise_419                     |                  0.0%   |                  0.0%   [375]          0.0%                    
420    conversion_420                  |                  0.0%   |                  0.0%   [376]          0.0%                    
421    eltwise_421                     |                  0.0%   |                  0.0%   [377]          0.0%                    
422    eltwise_422                     |                  0.0%   |                  0.0%   [378]          0.0%                    
423    slice_423                       |                  0.0%   |                  0.0%   [277]          0.0%                    
424    gemm_424                        ||||||||||||||||   3.5%   ||||||||||||||||  35.8%   [278]          3.6%                    
425    eltwise_425                     |                  0.0%   |                  0.0%   [379]          0.0%                    
426    eltwise_426                     |                  0.0%   |                  0.0%   [380]          0.0%                    
427    eltwise_427                     |                  0.0%   |                  0.0%   [381]          0.0%                    
428    tfl_pseudo_qconst34             |                  0.0%   |                  0.0%   [382]          0.0%                    
429    nl_429                          |                  0.0%   |                  0.0%   [383]          0.0%                    
430    conversion_430                  |                  0.0%   |                  0.0%   [384]          0.0%                    
431    nl_431                          |                  0.0%   |                  0.0%   [385, 386]     0.0%                    
434    eltwise_434                     |                  0.0%   |                  0.0%   [387]          0.0%                    
435    conversion_435                  |                  0.0%   |                  0.0%   [388]          0.0%                    
436    eltwise_436                     |                  0.0%   |                  0.0%   [389]          0.0%                    
437    eltwise_437                     |                  0.0%   |                  0.0%   [390]          0.0%                    
438    slice_438                       |                  0.0%   |                  0.0%   [275]          0.0%                    
439    gemm_439                        ||||||||||||||||   3.5%   ||||||||||||||||  35.8%   [276]          3.6%                    
440    eltwise_440                     |                  0.0%   |                  0.0%   [391]          0.0%                    
441    eltwise_441                     |                  0.0%   |                  0.0%   [392]          0.0%                    
442    eltwise_442                     |                  0.0%   |                  0.0%   [393]          0.0%                    
443    tfl_pseudo_qconst35             |                  0.0%   |                  0.0%   [394]          0.0%                    
444    nl_444                          |                  0.0%   |                  0.0%   [395]          0.0%                    
445    conversion_445                  |                  0.0%   |                  0.0%   [396]          0.0%                    
446    nl_446                          |                  0.0%   |                  0.0%   [397, 398]     0.0%                    
449    eltwise_449                     |                  0.0%   |                  0.0%   [399]          0.0%                    
450    conversion_450                  |                  0.0%   |                  0.0%   [400]          0.0%                    
451    eltwise_451                     |                  0.0%   |                  0.0%   [401]          0.0%                    
452    eltwise_452                     |                  0.0%   |                  0.0%   [402]          0.0%                    
453    eltwise_453                     |                  0.0%   |                  0.0%   [403]          0.0%                    
454    eltwise_454                     |                  0.0%   |                  0.0%   [404]          0.0%                    
455    eltwise_455                     |                  0.0%   |                  0.0%   [405]          0.0%                    
456    tfl_pseudo_qconst36             |                  0.0%   |                  0.0%   [406]          0.0%                    
457    nl_457                          |                  0.0%   |                  0.0%   [407]          0.0%                    
458    conversion_458                  |                  0.0%   |                  0.0%   [408]          0.0%                    
459    nl_459                          |                  0.0%   |                  0.0%   [409, 410]     0.0%                    
462    concat_462                      |                  0.1%   |                  0.0%   [411, 412]     0.0%                    
463    reduce_463                      |                  0.0%   |                  0.0%   [413, 414]     0.1%                    
464    tfl_pseudo_qconst1              |                  0.0%   |                  0.4%   [415]          0.0%                    
465    nl_465                          |                  0.0%   |                  0.0%   [416]          0.0%                    
466    conversion_466                  |                  0.0%   |                  0.0%   [417]          0.0%   4.71994001e-03   
------ ------------------------------- ------------------------- ------------------------- ------------ -------- ---------------- 
macc=28,365,887 weights=2,802,168 act=52,000 ram_io=0

Evaluation report (summary)
---------------------------------------------------------------------------------------------------------------------------------------------------------------------------
Output              acc       rmse          mae           l2r           mean        std        nse             cos        tensor                                           
---------------------------------------------------------------------------------------------------------------------------------------------------------------------------
TARGET c-model #1   90.00%    0.292705864   0.099492185   0.996185660   -0.099414   0.276693   -56875.211287   0.907657   'conversion_466', 10 x uint8(1x10), m_id=[466]   
original model #1   90.00%    0.293573588   0.099414065   0.996187150   -0.099336   0.277649   -57212.927108   0.910005   'conversion_466', 10 x uint8(1x10), m_id=[466]   
X-cross #1          100.00%   0.004719940   0.001015625   0.016063690   -0.000078   0.004743   0.999713        0.999876   'conversion_466', 10 x uint8(1x10), m_id=[466]   
---------------------------------------------------------------------------------------------------------------------------------------------------------------------------

 acc  : Accuracy (class, axis=-1)
 rmse : Root Mean Squared Error
 mae  : Mean Absolute Error
 l2r  : L2 relative error
 mean : Mean error
 std  : Standard deviation error
 nse  : Nash-Sutcliffe efficiency criteria, bigger is better, best=1, range=(-inf, 1]
 cos  : COsine Similarity, bigger is better, best=1, range=(0, 1]
