ST Edge AI Core v2.2.0-20266 2adc00962
Created date          : 2025-08-06 14:55:09
Parameters            : validate -m .\snn_100_4_V2.tflite --target stm32n6 --mode target --desc serial:921600 --memory-pool ./mypool_N6.json -vi .\val_data_10.npz --classifier -v 3

Exec/report summary (validate)
--------------------------------------------------------------------------------------------------------------------
model file         :   C:\ST\STEdgeAI\2.2\Projects\STM32N6570-DK\Applications\CM55_Validation\snn_100_4_V2.tflite   
type               :   tflite                                                                                       
c_name             :   network                                                                                      
compression        :   lossless                                                                                     
options            :   allocate-inputs, allocate-outputs, multi-heaps                                               
optimization       :   balanced                                                                                     
target/series      :   stm32n6                                                                                      
memory pool        :   C:\ST\STEdgeAI\2.2\Projects\STM32N6570-DK\Applications\CM55_Validation\mypool_N6.json        
workspace dir      :   C:\ST\STEdgeAI\2.2\Projects\STM32N6570-DK\Applications\CM55_Validation\st_ai_ws              
output dir         :   C:\ST\STEdgeAI\2.2\Projects\STM32N6570-DK\Applications\CM55_Validation\st_ai_output          
vinput files       :   C:\ST\STEdgeAI\2.2\Projects\STM32N6570-DK\Applications\CM55_Validation\val_data_10.npz       
model_fmt          :   sa/sa per tensor                                                                             
model_name         :   snn_100_4_V2                                                                                 
model_hash         :   0xe2d1321daaadf374032a0ecf37744d1e                                                           
params #           :   109,952 items (107.41 KiB)                                                                   
--------------------------------------------------------------------------------------------------------------------
input 1/1          :   'serving_default_keras_tensor0', f32(1x10x784), 30.62 KBytes, activations                    
output 1/1         :   'conversion_620', uint8(1x10), 10 Bytes, QLinear(0.003906250,0,uint8), activations           
macc               :   1,166,496                                                                                    
weights (ro)       :   110,508 B (107.92 KiB) (1 segment) / -329,300(-74.9%) vs float model                         
activations (rw)   :   32,560 B (31.80 KiB) (1 segment) *                                                           
ram (total)        :   32,560 B (31.80 KiB) = 32,560 + 0 + 0                                                        
--------------------------------------------------------------------------------------------------------------------
(*) 'input'/'output' buffers are allocated in the activations buffer
 
 Memory-pools summary (activations/ domain)
 --------------- -------- -------------------------- --------- 
 name            id       used                       buffer#   
 --------------- -------- -------------------------- --------- 
 POOL_INTERNAL   0        31.80 KiB (3.1%)           598       
 POOL_NPU        unused   -                          0         
 POOL_EXT        unused   -                          0         
 weights_array   3        107.92 KiB (11050800.0%)   54        
 --------------- -------- -------------------------- --------- 
 Warning: ['POOL_NPU', 'POOL_EXT'] memory pool s not used

Model name - snn_100_4_V2
------ ---------------------------------------------- ------------------ --------------- -------- ------------------------------- --- ------------------ ------------------ ------------------------------------- 
m_id   layer (type,original)                          oshape             param/size          macc                    connected to   | c_size             c_macc             c_type                                
------ ---------------------------------------------- ------------------ --------------- -------- ------------------------------- --- ------------------ ------------------ ------------------------------------- 
0      serving_default_keras_tensor0 (Input, )        [b:1,h:10,c:784]                                                              |                    +15,680(+100.0%)   Conversion_[0]                        
       conversion_0 (Conversion, QUANTIZE)            [b:1,h:10,c:784]                     15,680   serving_default_keras_tensor0   |                    -15,680(-100.0%)   
------ ---------------------------------------------- ------------------ --------------- -------- ------------------------------- --- ------------------ ------------------ ------------------------------------- 
7      tfl_pseudo_qconst7 (Placeholder, )             [b:100]            100/100                                                    | -100(-100.0%)                         
       eltwise_7_const (Placeholder, MUL)             [b:1,c:100]        100/100                                                    | -100(-100.0%)                         
------ ---------------------------------------------- ------------------ --------------- -------- ------------------------------- --- ------------------ ------------------ ------------------------------------- 
8      slice_8 (Slice, STRIDED_SLICE)                 [b:1,h:1,c:784]                                                conversion_0   |                                       Slice_[19]                            
       reshape_8_reshape (Reshape, STRIDED_SLICE)     [b:1,c:784]                                                         slice_8   |                                       
------ ---------------------------------------------- ------------------ --------------- -------- ------------------------------- --- ------------------ ------------------ ------------------------------------- 
9      tfl_pseudo_qconst6 (Placeholder, )             [b:100,c:784]      78,400/78,400                                              | +400(+0.5%)        +78,500(+100.0%)   Dense_[20]                            
       gemm_9 (Gemm, FULLY_CONNECTED)                 [b:1,c:100]                          78,500               reshape_8_reshape   |                    -78,500(-100.0%)   
                                                                                                               tfl_pseudo_qconst6   | 
------ ---------------------------------------------- ------------------ --------------- -------- ------------------------------- --- ------------------ ------------------ ------------------------------------- 
10     eltwise_10 (Eltwise, ADD)                      [b:1,c:100]                             100                          gemm_9   | +100(+100.0%)                         Eltwise/add_[21]                      
                                                                                                                  eltwise_7_const   | 
------ ---------------------------------------------- ------------------ --------------- -------- ------------------------------- --- ------------------ ------------------ ------------------------------------- 
11     tfl_pseudo_qconst5 (Placeholder, )             []                 1/1                                                        |                    +100(+100.0%)      Eltwise/mul_[22]                      
       eltwise_11 (Eltwise, MUL)                      [b:1,c:100]                             100                      eltwise_10   |                    -100(-100.0%)      
                                                                                                               tfl_pseudo_qconst5   | 
------ ---------------------------------------------- ------------------ --------------- -------- ------------------------------- --- ------------------ ------------------ ------------------------------------- 
12     eltwise_12 (Eltwise, ADD)                      [b:1,c:100]                             100                      eltwise_11   | +1(+100.0%)                           Eltwise/add_[23]                      
                                                                                                               tfl_pseudo_qconst5   | 
------ ---------------------------------------------- ------------------ --------------- -------- ------------------------------- --- ------------------ ------------------ ------------------------------------- 
13     tfl_pseudo_qconst8 (Placeholder, )             []                 1/1                                                        |                    +100(+100.0%)      Eltwise/min_[24]                      
       eltwise_13 (Eltwise, MINIMUM)                  [b:1,c:100]                             100                      eltwise_12   |                    -100(-100.0%)      
                                                                                                               tfl_pseudo_qconst8   | 
------ ---------------------------------------------- ------------------ --------------- -------- ------------------------------- --- ------------------ ------------------ ------------------------------------- 
14     nl_14 (Nonlinearity, RELU)                     [b:1,c:100]                             100                      eltwise_13   |                                       Nonlinearity_[25]                     
------ ---------------------------------------------- ------------------ --------------- -------- ------------------------------- --- ------------------ ------------------ ------------------------------------- 
15     conversion_15 (Conversion, DEQUANTIZE)         [b:1,c:100]                             200                           nl_14   |                                       Conversion_[26]                       
------ ---------------------------------------------- ------------------ --------------- -------- ------------------------------- --- ------------------ ------------------ ------------------------------------- 
16     nl_16 (Nonlinearity, ROUND)                    [b:1,c:100]                             200                   conversion_15   |                    +200(+100.0%)      Nonlinearity_/Conversion_[27, 28]     
------ ---------------------------------------------- ------------------ --------------- -------- ------------------------------- --- ------------------ ------------------ ------------------------------------- 
17     reshape_17 (Reshape, EXPAND_DIMS)              [b:1,h:1,c:100]                                                       nl_16   |                                       
------ ---------------------------------------------- ------------------ --------------- -------- ------------------------------- --- ------------------ ------------------ ------------------------------------- 
18     conversion_18 (Conversion, QUANTIZE)           [b:1,h:1,c:100]                         200                      reshape_17   |                    -200(-100.0%)      
------ ---------------------------------------------- ------------------ --------------- -------- ------------------------------- --- ------------------ ------------------ ------------------------------------- 
19     arith_constant (Placeholder, )                 []                 1/4                                                        |                    +1(+100.0%)        Eltwise/sub_[29]                      
       eltwise_19 (Eltwise, SUB)                      [b:1,c:100]                               1                  arith_constant   |                    -1(-100.0%)        
                                                                                                                            nl_16   | 
------ ---------------------------------------------- ------------------ --------------- -------- ------------------------------- --- ------------------ ------------------ ------------------------------------- 
20     conversion_20 (Conversion, QUANTIZE)           [b:1,c:100]                             200                      eltwise_19   |                                       Conversion_[30]                       
------ ---------------------------------------------- ------------------ --------------- -------- ------------------------------- --- ------------------ ------------------ ------------------------------------- 
21     eltwise_21 (Eltwise, MUL)                      [b:1,c:100]                             100                      eltwise_10   |                                       Eltwise/mul_[31]                      
                                                                                                                    conversion_20   | 
------ ---------------------------------------------- ------------------ --------------- -------- ------------------------------- --- ------------------ ------------------ ------------------------------------- 
22     eltwise_22 (Eltwise, MUL)                      [b:1,c:100]                             100                      eltwise_21   | +100(+100.0%)                         Eltwise/mul_[32]                      
                                                                                                               tfl_pseudo_qconst7   | 
------ ---------------------------------------------- ------------------ --------------- -------- ------------------------------- --- ------------------ ------------------ ------------------------------------- 
23     slice_23 (Slice, STRIDED_SLICE)                [b:1,h:1,c:784]                                                conversion_0   |                                       Slice_[17]                            
       reshape_23_reshape (Reshape, STRIDED_SLICE)    [b:1,c:784]                                                        slice_23   |                                       
------ ---------------------------------------------- ------------------ --------------- -------- ------------------------------- --- ------------------ ------------------ ------------------------------------- 
24     gemm_24 (Gemm, FULLY_CONNECTED)                [b:1,c:100]                          78,500              reshape_23_reshape   | +78,800(+100.0%)                      Dense_[18]                            
                                                                                                               tfl_pseudo_qconst6   | 
------ ---------------------------------------------- ------------------ --------------- -------- ------------------------------- --- ------------------ ------------------ ------------------------------------- 
25     slice_25 (Slice, STRIDED_SLICE)                [b:1,h:1,c:784]                                                conversion_0   |                                       Slice_[15]                            
       reshape_25_reshape (Reshape, STRIDED_SLICE)    [b:1,c:784]                                                        slice_25   |                                       
------ ---------------------------------------------- ------------------ --------------- -------- ------------------------------- --- ------------------ ------------------ ------------------------------------- 
26     gemm_26 (Gemm, FULLY_CONNECTED)                [b:1,c:100]                          78,500              reshape_25_reshape   | +78,800(+100.0%)                      Dense_[16]                            
                                                                                                               tfl_pseudo_qconst6   | 
------ ---------------------------------------------- ------------------ --------------- -------- ------------------------------- --- ------------------ ------------------ ------------------------------------- 
27     eltwise_27 (Eltwise, ADD)                      [b:1,c:100]                             100                         gemm_26   |                                       Eltwise/add_[33]                      
                                                                                                                       eltwise_22   | 
------ ---------------------------------------------- ------------------ --------------- -------- ------------------------------- --- ------------------ ------------------ ------------------------------------- 
28     eltwise_28 (Eltwise, MUL)                      [b:1,c:100]                             100                      eltwise_27   | +1(+100.0%)                           Eltwise/mul_[34]                      
                                                                                                               tfl_pseudo_qconst5   | 
------ ---------------------------------------------- ------------------ --------------- -------- ------------------------------- --- ------------------ ------------------ ------------------------------------- 
29     eltwise_29 (Eltwise, ADD)                      [b:1,c:100]                             100                      eltwise_28   | +1(+100.0%)                           Eltwise/add_[35]                      
                                                                                                               tfl_pseudo_qconst5   | 
------ ---------------------------------------------- ------------------ --------------- -------- ------------------------------- --- ------------------ ------------------ ------------------------------------- 
30     tfl_pseudo_qconst9 (Placeholder, )             []                 1/1                                                        |                    +100(+100.0%)      Eltwise/min_[36]                      
       eltwise_30 (Eltwise, MINIMUM)                  [b:1,c:100]                             100                      eltwise_29   |                    -100(-100.0%)      
                                                                                                               tfl_pseudo_qconst9   | 
------ ---------------------------------------------- ------------------ --------------- -------- ------------------------------- --- ------------------ ------------------ ------------------------------------- 
31     nl_31 (Nonlinearity, RELU)                     [b:1,c:100]                             100                      eltwise_30   |                                       Nonlinearity_[37]                     
------ ---------------------------------------------- ------------------ --------------- -------- ------------------------------- --- ------------------ ------------------ ------------------------------------- 
32     conversion_32 (Conversion, DEQUANTIZE)         [b:1,c:100]                             200                           nl_31   |                                       Conversion_[38]                       
------ ---------------------------------------------- ------------------ --------------- -------- ------------------------------- --- ------------------ ------------------ ------------------------------------- 
33     nl_33 (Nonlinearity, ROUND)                    [b:1,c:100]                             200                   conversion_32   |                    +200(+100.0%)      Nonlinearity_/Conversion_[39, 40]     
------ ---------------------------------------------- ------------------ --------------- -------- ------------------------------- --- ------------------ ------------------ ------------------------------------- 
34     reshape_34 (Reshape, EXPAND_DIMS)              [b:1,h:1,c:100]                                                       nl_33   |                                       
------ ---------------------------------------------- ------------------ --------------- -------- ------------------------------- --- ------------------ ------------------ ------------------------------------- 
35     conversion_35 (Conversion, QUANTIZE)           [b:1,h:1,c:100]                         200                      reshape_34   |                    -200(-100.0%)      
------ ---------------------------------------------- ------------------ --------------- -------- ------------------------------- --- ------------------ ------------------ ------------------------------------- 
36     eltwise_36 (Eltwise, SUB)                      [b:1,c:100]                               1                  arith_constant   | +4(+100.0%)                           Eltwise/sub_[41]                      
                                                                                                                            nl_33   | 
------ ---------------------------------------------- ------------------ --------------- -------- ------------------------------- --- ------------------ ------------------ ------------------------------------- 
37     conversion_37 (Conversion, QUANTIZE)           [b:1,c:100]                             200                      eltwise_36   |                                       Conversion_[42]                       
------ ---------------------------------------------- ------------------ --------------- -------- ------------------------------- --- ------------------ ------------------ ------------------------------------- 
38     eltwise_38 (Eltwise, MUL)                      [b:1,c:100]                             100                      eltwise_27   |                                       Eltwise/mul_[43]                      
                                                                                                                    conversion_37   | 
------ ---------------------------------------------- ------------------ --------------- -------- ------------------------------- --- ------------------ ------------------ ------------------------------------- 
39     eltwise_39 (Eltwise, MUL)                      [b:1,c:100]                             100                      eltwise_38   | +100(+100.0%)                         Eltwise/mul_[44]                      
                                                                                                               tfl_pseudo_qconst7   | 
------ ---------------------------------------------- ------------------ --------------- -------- ------------------------------- --- ------------------ ------------------ ------------------------------------- 
40     slice_40 (Slice, STRIDED_SLICE)                [b:1,h:1,c:784]                                                conversion_0   |                                       Slice_[13]                            
       reshape_40_reshape (Reshape, STRIDED_SLICE)    [b:1,c:784]                                                        slice_40   |                                       
------ ---------------------------------------------- ------------------ --------------- -------- ------------------------------- --- ------------------ ------------------ ------------------------------------- 
41     gemm_41 (Gemm, FULLY_CONNECTED)                [b:1,c:100]                          78,500              reshape_40_reshape   | +78,800(+100.0%)                      Dense_[14]                            
                                                                                                               tfl_pseudo_qconst6   | 
------ ---------------------------------------------- ------------------ --------------- -------- ------------------------------- --- ------------------ ------------------ ------------------------------------- 
42     eltwise_42 (Eltwise, ADD)                      [b:1,c:100]                             100                         gemm_41   |                                       Eltwise/add_[45]                      
                                                                                                                       eltwise_39   | 
------ ---------------------------------------------- ------------------ --------------- -------- ------------------------------- --- ------------------ ------------------ ------------------------------------- 
43     eltwise_43 (Eltwise, MUL)                      [b:1,c:100]                             100                      eltwise_42   | +1(+100.0%)                           Eltwise/mul_[46]                      
                                                                                                               tfl_pseudo_qconst5   | 
------ ---------------------------------------------- ------------------ --------------- -------- ------------------------------- --- ------------------ ------------------ ------------------------------------- 
44     eltwise_44 (Eltwise, ADD)                      [b:1,c:100]                             100                      eltwise_43   | +1(+100.0%)                           Eltwise/add_[47]                      
                                                                                                               tfl_pseudo_qconst5   | 
------ ---------------------------------------------- ------------------ --------------- -------- ------------------------------- --- ------------------ ------------------ ------------------------------------- 
45     tfl_pseudo_qconst10 (Placeholder, )            []                 1/1                                                        |                    +100(+100.0%)      Eltwise/min_[48]                      
       eltwise_45 (Eltwise, MINIMUM)                  [b:1,c:100]                             100                      eltwise_44   |                    -100(-100.0%)      
                                                                                                              tfl_pseudo_qconst10   | 
------ ---------------------------------------------- ------------------ --------------- -------- ------------------------------- --- ------------------ ------------------ ------------------------------------- 
46     nl_46 (Nonlinearity, RELU)                     [b:1,c:100]                             100                      eltwise_45   |                                       Nonlinearity_[49]                     
------ ---------------------------------------------- ------------------ --------------- -------- ------------------------------- --- ------------------ ------------------ ------------------------------------- 
47     conversion_47 (Conversion, DEQUANTIZE)         [b:1,c:100]                             200                           nl_46   |                                       Conversion_[50]                       
------ ---------------------------------------------- ------------------ --------------- -------- ------------------------------- --- ------------------ ------------------ ------------------------------------- 
48     nl_48 (Nonlinearity, ROUND)                    [b:1,c:100]                             200                   conversion_47   |                    +200(+100.0%)      Nonlinearity_/Conversion_[51, 52]     
------ ---------------------------------------------- ------------------ --------------- -------- ------------------------------- --- ------------------ ------------------ ------------------------------------- 
49     reshape_49 (Reshape, EXPAND_DIMS)              [b:1,h:1,c:100]                                                       nl_48   |                                       
------ ---------------------------------------------- ------------------ --------------- -------- ------------------------------- --- ------------------ ------------------ ------------------------------------- 
50     conversion_50 (Conversion, QUANTIZE)           [b:1,h:1,c:100]                         200                      reshape_49   |                    -200(-100.0%)      
------ ---------------------------------------------- ------------------ --------------- -------- ------------------------------- --- ------------------ ------------------ ------------------------------------- 
51     eltwise_51 (Eltwise, SUB)                      [b:1,c:100]                               1                  arith_constant   | +4(+100.0%)                           Eltwise/sub_[53]                      
                                                                                                                            nl_48   | 
------ ---------------------------------------------- ------------------ --------------- -------- ------------------------------- --- ------------------ ------------------ ------------------------------------- 
52     conversion_52 (Conversion, QUANTIZE)           [b:1,c:100]                             200                      eltwise_51   |                                       Conversion_[54]                       
------ ---------------------------------------------- ------------------ --------------- -------- ------------------------------- --- ------------------ ------------------ ------------------------------------- 
53     eltwise_53 (Eltwise, MUL)                      [b:1,c:100]                             100                      eltwise_42   |                                       Eltwise/mul_[55]                      
                                                                                                                    conversion_52   | 
------ ---------------------------------------------- ------------------ --------------- -------- ------------------------------- --- ------------------ ------------------ ------------------------------------- 
54     eltwise_54 (Eltwise, MUL)                      [b:1,c:100]                             100                      eltwise_53   | +100(+100.0%)                         Eltwise/mul_[56]                      
                                                                                                               tfl_pseudo_qconst7   | 
------ ---------------------------------------------- ------------------ --------------- -------- ------------------------------- --- ------------------ ------------------ ------------------------------------- 
55     slice_55 (Slice, STRIDED_SLICE)                [b:1,h:1,c:784]                                                conversion_0   |                                       Slice_[11]                            
       reshape_55_reshape (Reshape, STRIDED_SLICE)    [b:1,c:784]                                                        slice_55   |                                       
------ ---------------------------------------------- ------------------ --------------- -------- ------------------------------- --- ------------------ ------------------ ------------------------------------- 
56     gemm_56 (Gemm, FULLY_CONNECTED)                [b:1,c:100]                          78,500              reshape_55_reshape   | +78,800(+100.0%)                      Dense_[12]                            
                                                                                                               tfl_pseudo_qconst6   | 
------ ---------------------------------------------- ------------------ --------------- -------- ------------------------------- --- ------------------ ------------------ ------------------------------------- 
57     eltwise_57 (Eltwise, ADD)                      [b:1,c:100]                             100                         gemm_56   |                                       Eltwise/add_[57]                      
                                                                                                                       eltwise_54   | 
------ ---------------------------------------------- ------------------ --------------- -------- ------------------------------- --- ------------------ ------------------ ------------------------------------- 
58     eltwise_58 (Eltwise, MUL)                      [b:1,c:100]                             100                      eltwise_57   | +1(+100.0%)                           Eltwise/mul_[58]                      
                                                                                                               tfl_pseudo_qconst5   | 
------ ---------------------------------------------- ------------------ --------------- -------- ------------------------------- --- ------------------ ------------------ ------------------------------------- 
59     eltwise_59 (Eltwise, ADD)                      [b:1,c:100]                             100                      eltwise_58   | +1(+100.0%)                           Eltwise/add_[59]                      
                                                                                                               tfl_pseudo_qconst5   | 
------ ---------------------------------------------- ------------------ --------------- -------- ------------------------------- --- ------------------ ------------------ ------------------------------------- 
60     tfl_pseudo_qconst11 (Placeholder, )            []                 1/1                                                        |                    +100(+100.0%)      Eltwise/min_[60]                      
       eltwise_60 (Eltwise, MINIMUM)                  [b:1,c:100]                             100                      eltwise_59   |                    -100(-100.0%)      
                                                                                                              tfl_pseudo_qconst11   | 
------ ---------------------------------------------- ------------------ --------------- -------- ------------------------------- --- ------------------ ------------------ ------------------------------------- 
61     nl_61 (Nonlinearity, RELU)                     [b:1,c:100]                             100                      eltwise_60   |                                       Nonlinearity_[61]                     
------ ---------------------------------------------- ------------------ --------------- -------- ------------------------------- --- ------------------ ------------------ ------------------------------------- 
62     conversion_62 (Conversion, DEQUANTIZE)         [b:1,c:100]                             200                           nl_61   |                                       Conversion_[62]                       
------ ---------------------------------------------- ------------------ --------------- -------- ------------------------------- --- ------------------ ------------------ ------------------------------------- 
63     nl_63 (Nonlinearity, ROUND)                    [b:1,c:100]                             200                   conversion_62   |                    +200(+100.0%)      Nonlinearity_/Conversion_[63, 64]     
------ ---------------------------------------------- ------------------ --------------- -------- ------------------------------- --- ------------------ ------------------ ------------------------------------- 
64     reshape_64 (Reshape, EXPAND_DIMS)              [b:1,h:1,c:100]                                                       nl_63   |                                       
------ ---------------------------------------------- ------------------ --------------- -------- ------------------------------- --- ------------------ ------------------ ------------------------------------- 
65     conversion_65 (Conversion, QUANTIZE)           [b:1,h:1,c:100]                         200                      reshape_64   |                    -200(-100.0%)      
------ ---------------------------------------------- ------------------ --------------- -------- ------------------------------- --- ------------------ ------------------ ------------------------------------- 
66     eltwise_66 (Eltwise, SUB)                      [b:1,c:100]                               1                  arith_constant   | +4(+100.0%)                           Eltwise/sub_[65]                      
                                                                                                                            nl_63   | 
------ ---------------------------------------------- ------------------ --------------- -------- ------------------------------- --- ------------------ ------------------ ------------------------------------- 
67     conversion_67 (Conversion, QUANTIZE)           [b:1,c:100]                             200                      eltwise_66   |                                       Conversion_[66]                       
------ ---------------------------------------------- ------------------ --------------- -------- ------------------------------- --- ------------------ ------------------ ------------------------------------- 
68     eltwise_68 (Eltwise, MUL)                      [b:1,c:100]                             100                      eltwise_57   |                                       Eltwise/mul_[67]                      
                                                                                                                    conversion_67   | 
------ ---------------------------------------------- ------------------ --------------- -------- ------------------------------- --- ------------------ ------------------ ------------------------------------- 
69     eltwise_69 (Eltwise, MUL)                      [b:1,c:100]                             100                      eltwise_68   | +100(+100.0%)                         Eltwise/mul_[68]                      
                                                                                                               tfl_pseudo_qconst7   | 
------ ---------------------------------------------- ------------------ --------------- -------- ------------------------------- --- ------------------ ------------------ ------------------------------------- 
70     slice_70 (Slice, STRIDED_SLICE)                [b:1,h:1,c:784]                                                conversion_0   |                                       Slice_[9]                             
       reshape_70_reshape (Reshape, STRIDED_SLICE)    [b:1,c:784]                                                        slice_70   |                                       
------ ---------------------------------------------- ------------------ --------------- -------- ------------------------------- --- ------------------ ------------------ ------------------------------------- 
71     gemm_71 (Gemm, FULLY_CONNECTED)                [b:1,c:100]                          78,500              reshape_70_reshape   | +78,800(+100.0%)                      Dense_[10]                            
                                                                                                               tfl_pseudo_qconst6   | 
------ ---------------------------------------------- ------------------ --------------- -------- ------------------------------- --- ------------------ ------------------ ------------------------------------- 
72     eltwise_72 (Eltwise, ADD)                      [b:1,c:100]                             100                         gemm_71   |                                       Eltwise/add_[69]                      
                                                                                                                       eltwise_69   | 
------ ---------------------------------------------- ------------------ --------------- -------- ------------------------------- --- ------------------ ------------------ ------------------------------------- 
73     eltwise_73 (Eltwise, MUL)                      [b:1,c:100]                             100                      eltwise_72   | +1(+100.0%)                           Eltwise/mul_[70]                      
                                                                                                               tfl_pseudo_qconst5   | 
------ ---------------------------------------------- ------------------ --------------- -------- ------------------------------- --- ------------------ ------------------ ------------------------------------- 
74     eltwise_74 (Eltwise, ADD)                      [b:1,c:100]                             100                      eltwise_73   | +1(+100.0%)                           Eltwise/add_[71]                      
                                                                                                               tfl_pseudo_qconst5   | 
------ ---------------------------------------------- ------------------ --------------- -------- ------------------------------- --- ------------------ ------------------ ------------------------------------- 
75     tfl_pseudo_qconst12 (Placeholder, )            []                 1/1                                                        |                    +100(+100.0%)      Eltwise/min_[72]                      
       eltwise_75 (Eltwise, MINIMUM)                  [b:1,c:100]                             100                      eltwise_74   |                    -100(-100.0%)      
                                                                                                              tfl_pseudo_qconst12   | 
------ ---------------------------------------------- ------------------ --------------- -------- ------------------------------- --- ------------------ ------------------ ------------------------------------- 
76     nl_76 (Nonlinearity, RELU)                     [b:1,c:100]                             100                      eltwise_75   |                                       Nonlinearity_[73]                     
------ ---------------------------------------------- ------------------ --------------- -------- ------------------------------- --- ------------------ ------------------ ------------------------------------- 
77     conversion_77 (Conversion, DEQUANTIZE)         [b:1,c:100]                             200                           nl_76   |                                       Conversion_[74]                       
------ ---------------------------------------------- ------------------ --------------- -------- ------------------------------- --- ------------------ ------------------ ------------------------------------- 
78     nl_78 (Nonlinearity, ROUND)                    [b:1,c:100]                             200                   conversion_77   |                    +200(+100.0%)      Nonlinearity_/Conversion_[75, 76]     
------ ---------------------------------------------- ------------------ --------------- -------- ------------------------------- --- ------------------ ------------------ ------------------------------------- 
79     reshape_79 (Reshape, EXPAND_DIMS)              [b:1,h:1,c:100]                                                       nl_78   |                                       
------ ---------------------------------------------- ------------------ --------------- -------- ------------------------------- --- ------------------ ------------------ ------------------------------------- 
80     conversion_80 (Conversion, QUANTIZE)           [b:1,h:1,c:100]                         200                      reshape_79   |                    -200(-100.0%)      
------ ---------------------------------------------- ------------------ --------------- -------- ------------------------------- --- ------------------ ------------------ ------------------------------------- 
81     eltwise_81 (Eltwise, SUB)                      [b:1,c:100]                               1                  arith_constant   | +4(+100.0%)                           Eltwise/sub_[77]                      
                                                                                                                            nl_78   | 
------ ---------------------------------------------- ------------------ --------------- -------- ------------------------------- --- ------------------ ------------------ ------------------------------------- 
82     conversion_82 (Conversion, QUANTIZE)           [b:1,c:100]                             200                      eltwise_81   |                                       Conversion_[78]                       
------ ---------------------------------------------- ------------------ --------------- -------- ------------------------------- --- ------------------ ------------------ ------------------------------------- 
83     eltwise_83 (Eltwise, MUL)                      [b:1,c:100]                             100                      eltwise_72   |                                       Eltwise/mul_[79]                      
                                                                                                                    conversion_82   | 
------ ---------------------------------------------- ------------------ --------------- -------- ------------------------------- --- ------------------ ------------------ ------------------------------------- 
84     eltwise_84 (Eltwise, MUL)                      [b:1,c:100]                             100                      eltwise_83   | +100(+100.0%)                         Eltwise/mul_[80]                      
                                                                                                               tfl_pseudo_qconst7   | 
------ ---------------------------------------------- ------------------ --------------- -------- ------------------------------- --- ------------------ ------------------ ------------------------------------- 
85     slice_85 (Slice, STRIDED_SLICE)                [b:1,h:1,c:784]                                                conversion_0   |                                       Slice_[7]                             
       reshape_85_reshape (Reshape, STRIDED_SLICE)    [b:1,c:784]                                                        slice_85   |                                       
------ ---------------------------------------------- ------------------ --------------- -------- ------------------------------- --- ------------------ ------------------ ------------------------------------- 
86     gemm_86 (Gemm, FULLY_CONNECTED)                [b:1,c:100]                          78,500              reshape_85_reshape   | +78,800(+100.0%)                      Dense_[8]                             
                                                                                                               tfl_pseudo_qconst6   | 
------ ---------------------------------------------- ------------------ --------------- -------- ------------------------------- --- ------------------ ------------------ ------------------------------------- 
87     eltwise_87 (Eltwise, ADD)                      [b:1,c:100]                             100                         gemm_86   |                                       Eltwise/add_[81]                      
                                                                                                                       eltwise_84   | 
------ ---------------------------------------------- ------------------ --------------- -------- ------------------------------- --- ------------------ ------------------ ------------------------------------- 
88     eltwise_88 (Eltwise, MUL)                      [b:1,c:100]                             100                      eltwise_87   | +1(+100.0%)                           Eltwise/mul_[82]                      
                                                                                                               tfl_pseudo_qconst5   | 
------ ---------------------------------------------- ------------------ --------------- -------- ------------------------------- --- ------------------ ------------------ ------------------------------------- 
89     eltwise_89 (Eltwise, ADD)                      [b:1,c:100]                             100                      eltwise_88   | +1(+100.0%)                           Eltwise/add_[83]                      
                                                                                                               tfl_pseudo_qconst5   | 
------ ---------------------------------------------- ------------------ --------------- -------- ------------------------------- --- ------------------ ------------------ ------------------------------------- 
90     tfl_pseudo_qconst13 (Placeholder, )            []                 1/1                                                        |                    +100(+100.0%)      Eltwise/min_[84]                      
       eltwise_90 (Eltwise, MINIMUM)                  [b:1,c:100]                             100                      eltwise_89   |                    -100(-100.0%)      
                                                                                                              tfl_pseudo_qconst13   | 
------ ---------------------------------------------- ------------------ --------------- -------- ------------------------------- --- ------------------ ------------------ ------------------------------------- 
91     nl_91 (Nonlinearity, RELU)                     [b:1,c:100]                             100                      eltwise_90   |                                       Nonlinearity_[85]                     
------ ---------------------------------------------- ------------------ --------------- -------- ------------------------------- --- ------------------ ------------------ ------------------------------------- 
92     conversion_92 (Conversion, DEQUANTIZE)         [b:1,c:100]                             200                           nl_91   |                                       Conversion_[86]                       
------ ---------------------------------------------- ------------------ --------------- -------- ------------------------------- --- ------------------ ------------------ ------------------------------------- 
93     nl_93 (Nonlinearity, ROUND)                    [b:1,c:100]                             200                   conversion_92   |                    +200(+100.0%)      Nonlinearity_/Conversion_[87, 88]     
------ ---------------------------------------------- ------------------ --------------- -------- ------------------------------- --- ------------------ ------------------ ------------------------------------- 
94     reshape_94 (Reshape, EXPAND_DIMS)              [b:1,h:1,c:100]                                                       nl_93   |                                       
------ ---------------------------------------------- ------------------ --------------- -------- ------------------------------- --- ------------------ ------------------ ------------------------------------- 
95     conversion_95 (Conversion, QUANTIZE)           [b:1,h:1,c:100]                         200                      reshape_94   |                    -200(-100.0%)      
------ ---------------------------------------------- ------------------ --------------- -------- ------------------------------- --- ------------------ ------------------ ------------------------------------- 
96     eltwise_96 (Eltwise, SUB)                      [b:1,c:100]                               1                  arith_constant   | +4(+100.0%)                           Eltwise/sub_[89]                      
                                                                                                                            nl_93   | 
------ ---------------------------------------------- ------------------ --------------- -------- ------------------------------- --- ------------------ ------------------ ------------------------------------- 
97     conversion_97 (Conversion, QUANTIZE)           [b:1,c:100]                             200                      eltwise_96   |                                       Conversion_[90]                       
------ ---------------------------------------------- ------------------ --------------- -------- ------------------------------- --- ------------------ ------------------ ------------------------------------- 
98     eltwise_98 (Eltwise, MUL)                      [b:1,c:100]                             100                      eltwise_87   |                                       Eltwise/mul_[91]                      
                                                                                                                    conversion_97   | 
------ ---------------------------------------------- ------------------ --------------- -------- ------------------------------- --- ------------------ ------------------ ------------------------------------- 
99     eltwise_99 (Eltwise, MUL)                      [b:1,c:100]                             100                      eltwise_98   | +100(+100.0%)                         Eltwise/mul_[92]                      
                                                                                                               tfl_pseudo_qconst7   | 
------ ---------------------------------------------- ------------------ --------------- -------- ------------------------------- --- ------------------ ------------------ ------------------------------------- 
100    slice_100 (Slice, STRIDED_SLICE)               [b:1,h:1,c:784]                                                conversion_0   |                                       Slice_[5]                             
       reshape_100_reshape (Reshape, STRIDED_SLICE)   [b:1,c:784]                                                       slice_100   |                                       
------ ---------------------------------------------- ------------------ --------------- -------- ------------------------------- --- ------------------ ------------------ ------------------------------------- 
101    gemm_101 (Gemm, FULLY_CONNECTED)               [b:1,c:100]                          78,500             reshape_100_reshape   | +78,800(+100.0%)                      Dense_[6]                             
                                                                                                               tfl_pseudo_qconst6   | 
------ ---------------------------------------------- ------------------ --------------- -------- ------------------------------- --- ------------------ ------------------ ------------------------------------- 
102    eltwise_102 (Eltwise, ADD)                     [b:1,c:100]                             100                        gemm_101   |                                       Eltwise/add_[93]                      
                                                                                                                       eltwise_99   | 
------ ---------------------------------------------- ------------------ --------------- -------- ------------------------------- --- ------------------ ------------------ ------------------------------------- 
103    eltwise_103 (Eltwise, MUL)                     [b:1,c:100]                             100                     eltwise_102   | +1(+100.0%)                           Eltwise/mul_[94]                      
                                                                                                               tfl_pseudo_qconst5   | 
------ ---------------------------------------------- ------------------ --------------- -------- ------------------------------- --- ------------------ ------------------ ------------------------------------- 
104    eltwise_104 (Eltwise, ADD)                     [b:1,c:100]                             100                     eltwise_103   | +1(+100.0%)                           Eltwise/add_[95]                      
                                                                                                               tfl_pseudo_qconst5   | 
------ ---------------------------------------------- ------------------ --------------- -------- ------------------------------- --- ------------------ ------------------ ------------------------------------- 
105    tfl_pseudo_qconst14 (Placeholder, )            []                 1/1                                                        |                    +100(+100.0%)      Eltwise/min_[96]                      
       eltwise_105 (Eltwise, MINIMUM)                 [b:1,c:100]                             100                     eltwise_104   |                    -100(-100.0%)      
                                                                                                              tfl_pseudo_qconst14   | 
------ ---------------------------------------------- ------------------ --------------- -------- ------------------------------- --- ------------------ ------------------ ------------------------------------- 
106    nl_106 (Nonlinearity, RELU)                    [b:1,c:100]                             100                     eltwise_105   |                                       Nonlinearity_[97]                     
------ ---------------------------------------------- ------------------ --------------- -------- ------------------------------- --- ------------------ ------------------ ------------------------------------- 
107    conversion_107 (Conversion, DEQUANTIZE)        [b:1,c:100]                             200                          nl_106   |                                       Conversion_[98]                       
------ ---------------------------------------------- ------------------ --------------- -------- ------------------------------- --- ------------------ ------------------ ------------------------------------- 
108    nl_108 (Nonlinearity, ROUND)                   [b:1,c:100]                             200                  conversion_107   |                    +200(+100.0%)      Nonlinearity_/Conversion_[99, 100]    
------ ---------------------------------------------- ------------------ --------------- -------- ------------------------------- --- ------------------ ------------------ ------------------------------------- 
109    reshape_109 (Reshape, EXPAND_DIMS)             [b:1,h:1,c:100]                                                      nl_108   |                                       
------ ---------------------------------------------- ------------------ --------------- -------- ------------------------------- --- ------------------ ------------------ ------------------------------------- 
110    conversion_110 (Conversion, QUANTIZE)          [b:1,h:1,c:100]                         200                     reshape_109   |                    -200(-100.0%)      
------ ---------------------------------------------- ------------------ --------------- -------- ------------------------------- --- ------------------ ------------------ ------------------------------------- 
111    eltwise_111 (Eltwise, SUB)                     [b:1,c:100]                               1                  arith_constant   | +4(+100.0%)                           Eltwise/sub_[101]                     
                                                                                                                           nl_108   | 
------ ---------------------------------------------- ------------------ --------------- -------- ------------------------------- --- ------------------ ------------------ ------------------------------------- 
112    conversion_112 (Conversion, QUANTIZE)          [b:1,c:100]                             200                     eltwise_111   |                                       Conversion_[102]                      
------ ---------------------------------------------- ------------------ --------------- -------- ------------------------------- --- ------------------ ------------------ ------------------------------------- 
113    eltwise_113 (Eltwise, MUL)                     [b:1,c:100]                             100                     eltwise_102   |                                       Eltwise/mul_[103]                     
                                                                                                                   conversion_112   | 
------ ---------------------------------------------- ------------------ --------------- -------- ------------------------------- --- ------------------ ------------------ ------------------------------------- 
114    eltwise_114 (Eltwise, MUL)                     [b:1,c:100]                             100                     eltwise_113   | +100(+100.0%)                         Eltwise/mul_[104]                     
                                                                                                               tfl_pseudo_qconst7   | 
------ ---------------------------------------------- ------------------ --------------- -------- ------------------------------- --- ------------------ ------------------ ------------------------------------- 
115    slice_115 (Slice, STRIDED_SLICE)               [b:1,h:1,c:784]                                                conversion_0   |                                       Slice_[3]                             
       reshape_115_reshape (Reshape, STRIDED_SLICE)   [b:1,c:784]                                                       slice_115   |                                       
------ ---------------------------------------------- ------------------ --------------- -------- ------------------------------- --- ------------------ ------------------ ------------------------------------- 
116    gemm_116 (Gemm, FULLY_CONNECTED)               [b:1,c:100]                          78,500             reshape_115_reshape   | +78,800(+100.0%)                      Dense_[4]                             
                                                                                                               tfl_pseudo_qconst6   | 
------ ---------------------------------------------- ------------------ --------------- -------- ------------------------------- --- ------------------ ------------------ ------------------------------------- 
117    eltwise_117 (Eltwise, ADD)                     [b:1,c:100]                             100                        gemm_116   |                                       Eltwise/add_[105]                     
                                                                                                                      eltwise_114   | 
------ ---------------------------------------------- ------------------ --------------- -------- ------------------------------- --- ------------------ ------------------ ------------------------------------- 
118    eltwise_118 (Eltwise, MUL)                     [b:1,c:100]                             100                     eltwise_117   | +1(+100.0%)                           Eltwise/mul_[106]                     
                                                                                                               tfl_pseudo_qconst5   | 
------ ---------------------------------------------- ------------------ --------------- -------- ------------------------------- --- ------------------ ------------------ ------------------------------------- 
119    eltwise_119 (Eltwise, ADD)                     [b:1,c:100]                             100                     eltwise_118   | +1(+100.0%)                           Eltwise/add_[107]                     
                                                                                                               tfl_pseudo_qconst5   | 
------ ---------------------------------------------- ------------------ --------------- -------- ------------------------------- --- ------------------ ------------------ ------------------------------------- 
120    tfl_pseudo_qconst15 (Placeholder, )            []                 1/1                                                        |                    +100(+100.0%)      Eltwise/min_[108]                     
       eltwise_120 (Eltwise, MINIMUM)                 [b:1,c:100]                             100                     eltwise_119   |                    -100(-100.0%)      
                                                                                                              tfl_pseudo_qconst15   | 
------ ---------------------------------------------- ------------------ --------------- -------- ------------------------------- --- ------------------ ------------------ ------------------------------------- 
121    nl_121 (Nonlinearity, RELU)                    [b:1,c:100]                             100                     eltwise_120   |                                       Nonlinearity_[109]                    
------ ---------------------------------------------- ------------------ --------------- -------- ------------------------------- --- ------------------ ------------------ ------------------------------------- 
122    conversion_122 (Conversion, DEQUANTIZE)        [b:1,c:100]                             200                          nl_121   |                                       Conversion_[110]                      
------ ---------------------------------------------- ------------------ --------------- -------- ------------------------------- --- ------------------ ------------------ ------------------------------------- 
123    nl_123 (Nonlinearity, ROUND)                   [b:1,c:100]                             200                  conversion_122   |                    +200(+100.0%)      Nonlinearity_/Conversion_[111, 112]   
------ ---------------------------------------------- ------------------ --------------- -------- ------------------------------- --- ------------------ ------------------ ------------------------------------- 
124    reshape_124 (Reshape, EXPAND_DIMS)             [b:1,h:1,c:100]                                                      nl_123   |                                       
------ ---------------------------------------------- ------------------ --------------- -------- ------------------------------- --- ------------------ ------------------ ------------------------------------- 
125    conversion_125 (Conversion, QUANTIZE)          [b:1,h:1,c:100]                         200                     reshape_124   |                    -200(-100.0%)      
------ ---------------------------------------------- ------------------ --------------- -------- ------------------------------- --- ------------------ ------------------ ------------------------------------- 
126    eltwise_126 (Eltwise, SUB)                     [b:1,c:100]                               1                  arith_constant   | +4(+100.0%)                           Eltwise/sub_[113]                     
                                                                                                                           nl_123   | 
------ ---------------------------------------------- ------------------ --------------- -------- ------------------------------- --- ------------------ ------------------ ------------------------------------- 
127    conversion_127 (Conversion, QUANTIZE)          [b:1,c:100]                             200                     eltwise_126   |                                       Conversion_[114]                      
------ ---------------------------------------------- ------------------ --------------- -------- ------------------------------- --- ------------------ ------------------ ------------------------------------- 
128    eltwise_128 (Eltwise, MUL)                     [b:1,c:100]                             100                     eltwise_117   |                                       Eltwise/mul_[115]                     
                                                                                                                   conversion_127   | 
------ ---------------------------------------------- ------------------ --------------- -------- ------------------------------- --- ------------------ ------------------ ------------------------------------- 
129    eltwise_129 (Eltwise, MUL)                     [b:1,c:100]                             100                     eltwise_128   | +100(+100.0%)                         Eltwise/mul_[116]                     
                                                                                                               tfl_pseudo_qconst7   | 
------ ---------------------------------------------- ------------------ --------------- -------- ------------------------------- --- ------------------ ------------------ ------------------------------------- 
130    slice_130 (Slice, STRIDED_SLICE)               [b:1,h:1,c:784]                                                conversion_0   |                                       Slice_[1]                             
       reshape_130_reshape (Reshape, STRIDED_SLICE)   [b:1,c:784]                                                       slice_130   |                                       
------ ---------------------------------------------- ------------------ --------------- -------- ------------------------------- --- ------------------ ------------------ ------------------------------------- 
131    gemm_131 (Gemm, FULLY_CONNECTED)               [b:1,c:100]                          78,500             reshape_130_reshape   | +78,800(+100.0%)                      Dense_[2]                             
                                                                                                               tfl_pseudo_qconst6   | 
------ ---------------------------------------------- ------------------ --------------- -------- ------------------------------- --- ------------------ ------------------ ------------------------------------- 
132    eltwise_132 (Eltwise, ADD)                     [b:1,c:100]                             100                        gemm_131   |                                       Eltwise/add_[117]                     
                                                                                                                      eltwise_129   | 
------ ---------------------------------------------- ------------------ --------------- -------- ------------------------------- --- ------------------ ------------------ ------------------------------------- 
133    eltwise_133 (Eltwise, MUL)                     [b:1,c:100]                             100                     eltwise_132   | +1(+100.0%)                           Eltwise/mul_[118]                     
                                                                                                               tfl_pseudo_qconst5   | 
------ ---------------------------------------------- ------------------ --------------- -------- ------------------------------- --- ------------------ ------------------ ------------------------------------- 
134    eltwise_134 (Eltwise, ADD)                     [b:1,c:100]                             100                     eltwise_133   | +1(+100.0%)                           Eltwise/add_[119]                     
                                                                                                               tfl_pseudo_qconst5   | 
------ ---------------------------------------------- ------------------ --------------- -------- ------------------------------- --- ------------------ ------------------ ------------------------------------- 
135    tfl_pseudo_qconst16 (Placeholder, )            []                 1/1                                                        |                    +100(+100.0%)      Eltwise/min_[120]                     
       eltwise_135 (Eltwise, MINIMUM)                 [b:1,c:100]                             100                     eltwise_134   |                    -100(-100.0%)      
                                                                                                              tfl_pseudo_qconst16   | 
------ ---------------------------------------------- ------------------ --------------- -------- ------------------------------- --- ------------------ ------------------ ------------------------------------- 
136    nl_136 (Nonlinearity, RELU)                    [b:1,c:100]                             100                     eltwise_135   |                                       Nonlinearity_[121]                    
------ ---------------------------------------------- ------------------ --------------- -------- ------------------------------- --- ------------------ ------------------ ------------------------------------- 
137    conversion_137 (Conversion, DEQUANTIZE)        [b:1,c:100]                             200                          nl_136   |                                       Conversion_[122]                      
------ ---------------------------------------------- ------------------ --------------- -------- ------------------------------- --- ------------------ ------------------ ------------------------------------- 
138    nl_138 (Nonlinearity, ROUND)                   [b:1,c:100]                             200                  conversion_137   |                    +200(+100.0%)      Nonlinearity_/Conversion_[123, 124]   
------ ---------------------------------------------- ------------------ --------------- -------- ------------------------------- --- ------------------ ------------------ ------------------------------------- 
139    reshape_139 (Reshape, EXPAND_DIMS)             [b:1,h:1,c:100]                                                      nl_138   |                                       
------ ---------------------------------------------- ------------------ --------------- -------- ------------------------------- --- ------------------ ------------------ ------------------------------------- 
140    conversion_140 (Conversion, QUANTIZE)          [b:1,h:1,c:100]                         200                     reshape_139   |                    -200(-100.0%)      
------ ---------------------------------------------- ------------------ --------------- -------- ------------------------------- --- ------------------ ------------------ ------------------------------------- 
141    eltwise_141 (Eltwise, SUB)                     [b:1,c:100]                               1                  arith_constant   | +4(+100.0%)                           Eltwise/sub_[125]                     
                                                                                                                           nl_138   | 
------ ---------------------------------------------- ------------------ --------------- -------- ------------------------------- --- ------------------ ------------------ ------------------------------------- 
142    conversion_142 (Conversion, QUANTIZE)          [b:1,c:100]                             200                     eltwise_141   |                                       Conversion_[126]                      
------ ---------------------------------------------- ------------------ --------------- -------- ------------------------------- --- ------------------ ------------------ ------------------------------------- 
143    eltwise_143 (Eltwise, MUL)                     [b:1,c:100]                             100                     eltwise_132   |                                       Eltwise/mul_[127]                     
                                                                                                                   conversion_142   | 
------ ---------------------------------------------- ------------------ --------------- -------- ------------------------------- --- ------------------ ------------------ ------------------------------------- 
144    eltwise_144 (Eltwise, MUL)                     [b:1,c:100]                             100                     eltwise_143   | +100(+100.0%)                         Eltwise/mul_[128]                     
                                                                                                               tfl_pseudo_qconst7   | 
------ ---------------------------------------------- ------------------ --------------- -------- ------------------------------- --- ------------------ ------------------ ------------------------------------- 
145    eltwise_145 (Eltwise, ADD)                     [b:1,c:100]                             100                         gemm_24   |                                       Eltwise/add_[129]                     
                                                                                                                      eltwise_144   | 
------ ---------------------------------------------- ------------------ --------------- -------- ------------------------------- --- ------------------ ------------------ ------------------------------------- 
146    eltwise_146 (Eltwise, MUL)                     [b:1,c:100]                             100                     eltwise_145   | +1(+100.0%)                           Eltwise/mul_[130]                     
                                                                                                               tfl_pseudo_qconst5   | 
------ ---------------------------------------------- ------------------ --------------- -------- ------------------------------- --- ------------------ ------------------ ------------------------------------- 
147    eltwise_147 (Eltwise, ADD)                     [b:1,c:100]                             100                     eltwise_146   | +1(+100.0%)                           Eltwise/add_[131]                     
                                                                                                               tfl_pseudo_qconst5   | 
------ ---------------------------------------------- ------------------ --------------- -------- ------------------------------- --- ------------------ ------------------ ------------------------------------- 
148    tfl_pseudo_qconst17 (Placeholder, )            []                 1/1                                                        |                    +100(+100.0%)      Eltwise/min_[132]                     
       eltwise_148 (Eltwise, MINIMUM)                 [b:1,c:100]                             100                     eltwise_147   |                    -100(-100.0%)      
                                                                                                              tfl_pseudo_qconst17   | 
------ ---------------------------------------------- ------------------ --------------- -------- ------------------------------- --- ------------------ ------------------ ------------------------------------- 
149    nl_149 (Nonlinearity, RELU)                    [b:1,c:100]                             100                     eltwise_148   |                                       Nonlinearity_[133]                    
------ ---------------------------------------------- ------------------ --------------- -------- ------------------------------- --- ------------------ ------------------ ------------------------------------- 
150    conversion_150 (Conversion, DEQUANTIZE)        [b:1,c:100]                             200                          nl_149   |                                       Conversion_[134]                      
------ ---------------------------------------------- ------------------ --------------- -------- ------------------------------- --- ------------------ ------------------ ------------------------------------- 
151    nl_151 (Nonlinearity, ROUND)                   [b:1,c:100]                             200                  conversion_150   |                    +200(+100.0%)      Nonlinearity_/Conversion_[135, 136]   
------ ---------------------------------------------- ------------------ --------------- -------- ------------------------------- --- ------------------ ------------------ ------------------------------------- 
152    reshape_152 (Reshape, EXPAND_DIMS)             [b:1,h:1,c:100]                                                      nl_151   |                                       
------ ---------------------------------------------- ------------------ --------------- -------- ------------------------------- --- ------------------ ------------------ ------------------------------------- 
153    conversion_153 (Conversion, QUANTIZE)          [b:1,h:1,c:100]                         200                     reshape_152   |                    -200(-100.0%)      
------ ---------------------------------------------- ------------------ --------------- -------- ------------------------------- --- ------------------ ------------------ ------------------------------------- 
154    concat_154 (Concat, CONCATENATION)             [b:1,h:10,c:100]                                              conversion_18   |                                       Concat_[137]                          
                                                                                                                    conversion_35   | 
                                                                                                                    conversion_50   | 
                                                                                                                    conversion_65   | 
                                                                                                                    conversion_80   | 
                                                                                                                    conversion_95   | 
                                                                                                                   conversion_110   | 
                                                                                                                   conversion_125   | 
                                                                                                                   conversion_140   | 
                                                                                                                   conversion_153   | 
------ ---------------------------------------------- ------------------ --------------- -------- ------------------------------- --- ------------------ ------------------ ------------------------------------- 
161    eltwise_161_const (Placeholder, MUL)           [b:1,c:100]        100/100                                                    | -100(-100.0%)                         
------ ---------------------------------------------- ------------------ --------------- -------- ------------------------------- --- ------------------ ------------------ ------------------------------------- 
162    slice_162 (Slice, STRIDED_SLICE)               [b:1,h:1,c:100]                                                  concat_154   |                                       Slice_[156]                           
       reshape_162_reshape (Reshape, STRIDED_SLICE)   [b:1,c:100]                                                       slice_162   |                                       
------ ---------------------------------------------- ------------------ --------------- -------- ------------------------------- --- ------------------ ------------------ ------------------------------------- 
163    tfl_pseudo_qconst4 (Placeholder, )             [b:100,c:100]      10,000/10,000                                              | +400(+4.0%)        +10,100(+100.0%)   Dense_[157]                           
       gemm_163 (Gemm, FULLY_CONNECTED)               [b:1,c:100]                          10,100             reshape_162_reshape   |                    -10,100(-100.0%)   
                                                                                                               tfl_pseudo_qconst4   | 
------ ---------------------------------------------- ------------------ --------------- -------- ------------------------------- --- ------------------ ------------------ ------------------------------------- 
164    eltwise_164 (Eltwise, ADD)                     [b:1,c:100]                             100                        gemm_163   | +100(+100.0%)                         Eltwise/add_[158]                     
                                                                                                                eltwise_161_const   | 
------ ---------------------------------------------- ------------------ --------------- -------- ------------------------------- --- ------------------ ------------------ ------------------------------------- 
165    eltwise_165 (Eltwise, MUL)                     [b:1,c:100]                             100                     eltwise_164   | +1(+100.0%)                           Eltwise/mul_[159]                     
                                                                                                               tfl_pseudo_qconst5   | 
------ ---------------------------------------------- ------------------ --------------- -------- ------------------------------- --- ------------------ ------------------ ------------------------------------- 
166    eltwise_166 (Eltwise, ADD)                     [b:1,c:100]                             100                     eltwise_165   | +1(+100.0%)                           Eltwise/add_[160]                     
                                                                                                               tfl_pseudo_qconst5   | 
------ ---------------------------------------------- ------------------ --------------- -------- ------------------------------- --- ------------------ ------------------ ------------------------------------- 
167    tfl_pseudo_qconst18 (Placeholder, )            []                 1/1                                                        |                    +100(+100.0%)      Eltwise/min_[161]                     
       eltwise_167 (Eltwise, MINIMUM)                 [b:1,c:100]                             100                     eltwise_166   |                    -100(-100.0%)      
                                                                                                              tfl_pseudo_qconst18   | 
------ ---------------------------------------------- ------------------ --------------- -------- ------------------------------- --- ------------------ ------------------ ------------------------------------- 
168    nl_168 (Nonlinearity, RELU)                    [b:1,c:100]                             100                     eltwise_167   |                                       Nonlinearity_[162]                    
------ ---------------------------------------------- ------------------ --------------- -------- ------------------------------- --- ------------------ ------------------ ------------------------------------- 
169    conversion_169 (Conversion, DEQUANTIZE)        [b:1,c:100]                             200                          nl_168   |                                       Conversion_[163]                      
------ ---------------------------------------------- ------------------ --------------- -------- ------------------------------- --- ------------------ ------------------ ------------------------------------- 
170    nl_170 (Nonlinearity, ROUND)                   [b:1,c:100]                             200                  conversion_169   |                    +200(+100.0%)      Nonlinearity_/Conversion_[164, 165]   
------ ---------------------------------------------- ------------------ --------------- -------- ------------------------------- --- ------------------ ------------------ ------------------------------------- 
171    reshape_171 (Reshape, EXPAND_DIMS)             [b:1,h:1,c:100]                                                      nl_170   |                                       
------ ---------------------------------------------- ------------------ --------------- -------- ------------------------------- --- ------------------ ------------------ ------------------------------------- 
172    conversion_172 (Conversion, QUANTIZE)          [b:1,h:1,c:100]                         200                     reshape_171   |                    -200(-100.0%)      
------ ---------------------------------------------- ------------------ --------------- -------- ------------------------------- --- ------------------ ------------------ ------------------------------------- 
173    eltwise_173 (Eltwise, SUB)                     [b:1,c:100]                               1                  arith_constant   | +4(+100.0%)                           Eltwise/sub_[166]                     
                                                                                                                           nl_170   | 
------ ---------------------------------------------- ------------------ --------------- -------- ------------------------------- --- ------------------ ------------------ ------------------------------------- 
174    conversion_174 (Conversion, QUANTIZE)          [b:1,c:100]                             200                     eltwise_173   |                                       Conversion_[167]                      
------ ---------------------------------------------- ------------------ --------------- -------- ------------------------------- --- ------------------ ------------------ ------------------------------------- 
175    eltwise_175 (Eltwise, MUL)                     [b:1,c:100]                             100                     eltwise_164   |                                       Eltwise/mul_[168]                     
                                                                                                                   conversion_174   | 
------ ---------------------------------------------- ------------------ --------------- -------- ------------------------------- --- ------------------ ------------------ ------------------------------------- 
176    eltwise_176 (Eltwise, MUL)                     [b:1,c:100]                             100                     eltwise_175   | +100(+100.0%)                         Eltwise/mul_[169]                     
                                                                                                               tfl_pseudo_qconst7   | 
------ ---------------------------------------------- ------------------ --------------- -------- ------------------------------- --- ------------------ ------------------ ------------------------------------- 
177    slice_177 (Slice, STRIDED_SLICE)               [b:1,h:1,c:100]                                                  concat_154   |                                       Slice_[154]                           
       reshape_177_reshape (Reshape, STRIDED_SLICE)   [b:1,c:100]                                                       slice_177   |                                       
------ ---------------------------------------------- ------------------ --------------- -------- ------------------------------- --- ------------------ ------------------ ------------------------------------- 
178    gemm_178 (Gemm, FULLY_CONNECTED)               [b:1,c:100]                          10,100             reshape_177_reshape   | +10,400(+100.0%)                      Dense_[155]                           
                                                                                                               tfl_pseudo_qconst4   | 
------ ---------------------------------------------- ------------------ --------------- -------- ------------------------------- --- ------------------ ------------------ ------------------------------------- 
179    slice_179 (Slice, STRIDED_SLICE)               [b:1,h:1,c:100]                                                  concat_154   |                                       Slice_[152]                           
       reshape_179_reshape (Reshape, STRIDED_SLICE)   [b:1,c:100]                                                       slice_179   |                                       
------ ---------------------------------------------- ------------------ --------------- -------- ------------------------------- --- ------------------ ------------------ ------------------------------------- 
180    gemm_180 (Gemm, FULLY_CONNECTED)               [b:1,c:100]                          10,100             reshape_179_reshape   | +10,400(+100.0%)                      Dense_[153]                           
                                                                                                               tfl_pseudo_qconst4   | 
------ ---------------------------------------------- ------------------ --------------- -------- ------------------------------- --- ------------------ ------------------ ------------------------------------- 
181    eltwise_181 (Eltwise, ADD)                     [b:1,c:100]                             100                        gemm_180   |                                       Eltwise/add_[170]                     
                                                                                                                      eltwise_176   | 
------ ---------------------------------------------- ------------------ --------------- -------- ------------------------------- --- ------------------ ------------------ ------------------------------------- 
182    eltwise_182 (Eltwise, MUL)                     [b:1,c:100]                             100                     eltwise_181   | +1(+100.0%)                           Eltwise/mul_[171]                     
                                                                                                               tfl_pseudo_qconst5   | 
------ ---------------------------------------------- ------------------ --------------- -------- ------------------------------- --- ------------------ ------------------ ------------------------------------- 
183    eltwise_183 (Eltwise, ADD)                     [b:1,c:100]                             100                     eltwise_182   | +1(+100.0%)                           Eltwise/add_[172]                     
                                                                                                               tfl_pseudo_qconst5   | 
------ ---------------------------------------------- ------------------ --------------- -------- ------------------------------- --- ------------------ ------------------ ------------------------------------- 
184    tfl_pseudo_qconst19 (Placeholder, )            []                 1/1                                                        |                    +100(+100.0%)      Eltwise/min_[173]                     
       eltwise_184 (Eltwise, MINIMUM)                 [b:1,c:100]                             100                     eltwise_183   |                    -100(-100.0%)      
                                                                                                              tfl_pseudo_qconst19   | 
------ ---------------------------------------------- ------------------ --------------- -------- ------------------------------- --- ------------------ ------------------ ------------------------------------- 
185    nl_185 (Nonlinearity, RELU)                    [b:1,c:100]                             100                     eltwise_184   |                                       Nonlinearity_[174]                    
------ ---------------------------------------------- ------------------ --------------- -------- ------------------------------- --- ------------------ ------------------ ------------------------------------- 
186    conversion_186 (Conversion, DEQUANTIZE)        [b:1,c:100]                             200                          nl_185   |                                       Conversion_[175]                      
------ ---------------------------------------------- ------------------ --------------- -------- ------------------------------- --- ------------------ ------------------ ------------------------------------- 
187    nl_187 (Nonlinearity, ROUND)                   [b:1,c:100]                             200                  conversion_186   |                    +200(+100.0%)      Nonlinearity_/Conversion_[176, 177]   
------ ---------------------------------------------- ------------------ --------------- -------- ------------------------------- --- ------------------ ------------------ ------------------------------------- 
188    reshape_188 (Reshape, EXPAND_DIMS)             [b:1,h:1,c:100]                                                      nl_187   |                                       
------ ---------------------------------------------- ------------------ --------------- -------- ------------------------------- --- ------------------ ------------------ ------------------------------------- 
189    conversion_189 (Conversion, QUANTIZE)          [b:1,h:1,c:100]                         200                     reshape_188   |                    -200(-100.0%)      
------ ---------------------------------------------- ------------------ --------------- -------- ------------------------------- --- ------------------ ------------------ ------------------------------------- 
190    eltwise_190 (Eltwise, SUB)                     [b:1,c:100]                               1                  arith_constant   | +4(+100.0%)                           Eltwise/sub_[178]                     
                                                                                                                           nl_187   | 
------ ---------------------------------------------- ------------------ --------------- -------- ------------------------------- --- ------------------ ------------------ ------------------------------------- 
191    conversion_191 (Conversion, QUANTIZE)          [b:1,c:100]                             200                     eltwise_190   |                                       Conversion_[179]                      
------ ---------------------------------------------- ------------------ --------------- -------- ------------------------------- --- ------------------ ------------------ ------------------------------------- 
192    eltwise_192 (Eltwise, MUL)                     [b:1,c:100]                             100                     eltwise_181   |                                       Eltwise/mul_[180]                     
                                                                                                                   conversion_191   | 
------ ---------------------------------------------- ------------------ --------------- -------- ------------------------------- --- ------------------ ------------------ ------------------------------------- 
193    eltwise_193 (Eltwise, MUL)                     [b:1,c:100]                             100                     eltwise_192   | +100(+100.0%)                         Eltwise/mul_[181]                     
                                                                                                               tfl_pseudo_qconst7   | 
------ ---------------------------------------------- ------------------ --------------- -------- ------------------------------- --- ------------------ ------------------ ------------------------------------- 
194    slice_194 (Slice, STRIDED_SLICE)               [b:1,h:1,c:100]                                                  concat_154   |                                       Slice_[150]                           
       reshape_194_reshape (Reshape, STRIDED_SLICE)   [b:1,c:100]                                                       slice_194   |                                       
------ ---------------------------------------------- ------------------ --------------- -------- ------------------------------- --- ------------------ ------------------ ------------------------------------- 
195    gemm_195 (Gemm, FULLY_CONNECTED)               [b:1,c:100]                          10,100             reshape_194_reshape   | +10,400(+100.0%)                      Dense_[151]                           
                                                                                                               tfl_pseudo_qconst4   | 
------ ---------------------------------------------- ------------------ --------------- -------- ------------------------------- --- ------------------ ------------------ ------------------------------------- 
196    eltwise_196 (Eltwise, ADD)                     [b:1,c:100]                             100                        gemm_195   |                                       Eltwise/add_[182]                     
                                                                                                                      eltwise_193   | 
------ ---------------------------------------------- ------------------ --------------- -------- ------------------------------- --- ------------------ ------------------ ------------------------------------- 
197    eltwise_197 (Eltwise, MUL)                     [b:1,c:100]                             100                     eltwise_196   | +1(+100.0%)                           Eltwise/mul_[183]                     
                                                                                                               tfl_pseudo_qconst5   | 
------ ---------------------------------------------- ------------------ --------------- -------- ------------------------------- --- ------------------ ------------------ ------------------------------------- 
198    eltwise_198 (Eltwise, ADD)                     [b:1,c:100]                             100                     eltwise_197   | +1(+100.0%)                           Eltwise/add_[184]                     
                                                                                                               tfl_pseudo_qconst5   | 
------ ---------------------------------------------- ------------------ --------------- -------- ------------------------------- --- ------------------ ------------------ ------------------------------------- 
199    tfl_pseudo_qconst20 (Placeholder, )            []                 1/1                                                        |                    +100(+100.0%)      Eltwise/min_[185]                     
       eltwise_199 (Eltwise, MINIMUM)                 [b:1,c:100]                             100                     eltwise_198   |                    -100(-100.0%)      
                                                                                                              tfl_pseudo_qconst20   | 
------ ---------------------------------------------- ------------------ --------------- -------- ------------------------------- --- ------------------ ------------------ ------------------------------------- 
200    nl_200 (Nonlinearity, RELU)                    [b:1,c:100]                             100                     eltwise_199   |                                       Nonlinearity_[186]                    
------ ---------------------------------------------- ------------------ --------------- -------- ------------------------------- --- ------------------ ------------------ ------------------------------------- 
201    conversion_201 (Conversion, DEQUANTIZE)        [b:1,c:100]                             200                          nl_200   |                                       Conversion_[187]                      
------ ---------------------------------------------- ------------------ --------------- -------- ------------------------------- --- ------------------ ------------------ ------------------------------------- 
202    nl_202 (Nonlinearity, ROUND)                   [b:1,c:100]                             200                  conversion_201   |                    +200(+100.0%)      Nonlinearity_/Conversion_[188, 189]   
------ ---------------------------------------------- ------------------ --------------- -------- ------------------------------- --- ------------------ ------------------ ------------------------------------- 
203    reshape_203 (Reshape, EXPAND_DIMS)             [b:1,h:1,c:100]                                                      nl_202   |                                       
------ ---------------------------------------------- ------------------ --------------- -------- ------------------------------- --- ------------------ ------------------ ------------------------------------- 
204    conversion_204 (Conversion, QUANTIZE)          [b:1,h:1,c:100]                         200                     reshape_203   |                    -200(-100.0%)      
------ ---------------------------------------------- ------------------ --------------- -------- ------------------------------- --- ------------------ ------------------ ------------------------------------- 
205    eltwise_205 (Eltwise, SUB)                     [b:1,c:100]                               1                  arith_constant   | +4(+100.0%)                           Eltwise/sub_[190]                     
                                                                                                                           nl_202   | 
------ ---------------------------------------------- ------------------ --------------- -------- ------------------------------- --- ------------------ ------------------ ------------------------------------- 
206    conversion_206 (Conversion, QUANTIZE)          [b:1,c:100]                             200                     eltwise_205   |                                       Conversion_[191]                      
------ ---------------------------------------------- ------------------ --------------- -------- ------------------------------- --- ------------------ ------------------ ------------------------------------- 
207    eltwise_207 (Eltwise, MUL)                     [b:1,c:100]                             100                     eltwise_196   |                                       Eltwise/mul_[192]                     
                                                                                                                   conversion_206   | 
------ ---------------------------------------------- ------------------ --------------- -------- ------------------------------- --- ------------------ ------------------ ------------------------------------- 
208    eltwise_208 (Eltwise, MUL)                     [b:1,c:100]                             100                     eltwise_207   | +100(+100.0%)                         Eltwise/mul_[193]                     
                                                                                                               tfl_pseudo_qconst7   | 
------ ---------------------------------------------- ------------------ --------------- -------- ------------------------------- --- ------------------ ------------------ ------------------------------------- 
209    slice_209 (Slice, STRIDED_SLICE)               [b:1,h:1,c:100]                                                  concat_154   |                                       Slice_[148]                           
       reshape_209_reshape (Reshape, STRIDED_SLICE)   [b:1,c:100]                                                       slice_209   |                                       
------ ---------------------------------------------- ------------------ --------------- -------- ------------------------------- --- ------------------ ------------------ ------------------------------------- 
210    gemm_210 (Gemm, FULLY_CONNECTED)               [b:1,c:100]                          10,100             reshape_209_reshape   | +10,400(+100.0%)                      Dense_[149]                           
                                                                                                               tfl_pseudo_qconst4   | 
------ ---------------------------------------------- ------------------ --------------- -------- ------------------------------- --- ------------------ ------------------ ------------------------------------- 
211    eltwise_211 (Eltwise, ADD)                     [b:1,c:100]                             100                        gemm_210   |                                       Eltwise/add_[194]                     
                                                                                                                      eltwise_208   | 
------ ---------------------------------------------- ------------------ --------------- -------- ------------------------------- --- ------------------ ------------------ ------------------------------------- 
212    eltwise_212 (Eltwise, MUL)                     [b:1,c:100]                             100                     eltwise_211   | +1(+100.0%)                           Eltwise/mul_[195]                     
                                                                                                               tfl_pseudo_qconst5   | 
------ ---------------------------------------------- ------------------ --------------- -------- ------------------------------- --- ------------------ ------------------ ------------------------------------- 
213    eltwise_213 (Eltwise, ADD)                     [b:1,c:100]                             100                     eltwise_212   | +1(+100.0%)                           Eltwise/add_[196]                     
                                                                                                               tfl_pseudo_qconst5   | 
------ ---------------------------------------------- ------------------ --------------- -------- ------------------------------- --- ------------------ ------------------ ------------------------------------- 
214    tfl_pseudo_qconst21 (Placeholder, )            []                 1/1                                                        |                    +100(+100.0%)      Eltwise/min_[197]                     
       eltwise_214 (Eltwise, MINIMUM)                 [b:1,c:100]                             100                     eltwise_213   |                    -100(-100.0%)      
                                                                                                              tfl_pseudo_qconst21   | 
------ ---------------------------------------------- ------------------ --------------- -------- ------------------------------- --- ------------------ ------------------ ------------------------------------- 
215    nl_215 (Nonlinearity, RELU)                    [b:1,c:100]                             100                     eltwise_214   |                                       Nonlinearity_[198]                    
------ ---------------------------------------------- ------------------ --------------- -------- ------------------------------- --- ------------------ ------------------ ------------------------------------- 
216    conversion_216 (Conversion, DEQUANTIZE)        [b:1,c:100]                             200                          nl_215   |                                       Conversion_[199]                      
------ ---------------------------------------------- ------------------ --------------- -------- ------------------------------- --- ------------------ ------------------ ------------------------------------- 
217    nl_217 (Nonlinearity, ROUND)                   [b:1,c:100]                             200                  conversion_216   |                    +200(+100.0%)      Nonlinearity_/Conversion_[200, 201]   
------ ---------------------------------------------- ------------------ --------------- -------- ------------------------------- --- ------------------ ------------------ ------------------------------------- 
218    reshape_218 (Reshape, EXPAND_DIMS)             [b:1,h:1,c:100]                                                      nl_217   |                                       
------ ---------------------------------------------- ------------------ --------------- -------- ------------------------------- --- ------------------ ------------------ ------------------------------------- 
219    conversion_219 (Conversion, QUANTIZE)          [b:1,h:1,c:100]                         200                     reshape_218   |                    -200(-100.0%)      
------ ---------------------------------------------- ------------------ --------------- -------- ------------------------------- --- ------------------ ------------------ ------------------------------------- 
220    eltwise_220 (Eltwise, SUB)                     [b:1,c:100]                               1                  arith_constant   | +4(+100.0%)                           Eltwise/sub_[202]                     
                                                                                                                           nl_217   | 
------ ---------------------------------------------- ------------------ --------------- -------- ------------------------------- --- ------------------ ------------------ ------------------------------------- 
221    conversion_221 (Conversion, QUANTIZE)          [b:1,c:100]                             200                     eltwise_220   |                                       Conversion_[203]                      
------ ---------------------------------------------- ------------------ --------------- -------- ------------------------------- --- ------------------ ------------------ ------------------------------------- 
222    eltwise_222 (Eltwise, MUL)                     [b:1,c:100]                             100                     eltwise_211   |                                       Eltwise/mul_[204]                     
                                                                                                                   conversion_221   | 
------ ---------------------------------------------- ------------------ --------------- -------- ------------------------------- --- ------------------ ------------------ ------------------------------------- 
223    eltwise_223 (Eltwise, MUL)                     [b:1,c:100]                             100                     eltwise_222   | +100(+100.0%)                         Eltwise/mul_[205]                     
                                                                                                               tfl_pseudo_qconst7   | 
------ ---------------------------------------------- ------------------ --------------- -------- ------------------------------- --- ------------------ ------------------ ------------------------------------- 
224    slice_224 (Slice, STRIDED_SLICE)               [b:1,h:1,c:100]                                                  concat_154   |                                       Slice_[146]                           
       reshape_224_reshape (Reshape, STRIDED_SLICE)   [b:1,c:100]                                                       slice_224   |                                       
------ ---------------------------------------------- ------------------ --------------- -------- ------------------------------- --- ------------------ ------------------ ------------------------------------- 
225    gemm_225 (Gemm, FULLY_CONNECTED)               [b:1,c:100]                          10,100             reshape_224_reshape   | +10,400(+100.0%)                      Dense_[147]                           
                                                                                                               tfl_pseudo_qconst4   | 
------ ---------------------------------------------- ------------------ --------------- -------- ------------------------------- --- ------------------ ------------------ ------------------------------------- 
226    eltwise_226 (Eltwise, ADD)                     [b:1,c:100]                             100                        gemm_225   |                                       Eltwise/add_[206]                     
                                                                                                                      eltwise_223   | 
------ ---------------------------------------------- ------------------ --------------- -------- ------------------------------- --- ------------------ ------------------ ------------------------------------- 
227    eltwise_227 (Eltwise, MUL)                     [b:1,c:100]                             100                     eltwise_226   | +1(+100.0%)                           Eltwise/mul_[207]                     
                                                                                                               tfl_pseudo_qconst5   | 
------ ---------------------------------------------- ------------------ --------------- -------- ------------------------------- --- ------------------ ------------------ ------------------------------------- 
228    eltwise_228 (Eltwise, ADD)                     [b:1,c:100]                             100                     eltwise_227   | +1(+100.0%)                           Eltwise/add_[208]                     
                                                                                                               tfl_pseudo_qconst5   | 
------ ---------------------------------------------- ------------------ --------------- -------- ------------------------------- --- ------------------ ------------------ ------------------------------------- 
229    tfl_pseudo_qconst22 (Placeholder, )            []                 1/1                                                        |                    +100(+100.0%)      Eltwise/min_[209]                     
       eltwise_229 (Eltwise, MINIMUM)                 [b:1,c:100]                             100                     eltwise_228   |                    -100(-100.0%)      
                                                                                                              tfl_pseudo_qconst22   | 
------ ---------------------------------------------- ------------------ --------------- -------- ------------------------------- --- ------------------ ------------------ ------------------------------------- 
230    nl_230 (Nonlinearity, RELU)                    [b:1,c:100]                             100                     eltwise_229   |                                       Nonlinearity_[210]                    
------ ---------------------------------------------- ------------------ --------------- -------- ------------------------------- --- ------------------ ------------------ ------------------------------------- 
231    conversion_231 (Conversion, DEQUANTIZE)        [b:1,c:100]                             200                          nl_230   |                                       Conversion_[211]                      
------ ---------------------------------------------- ------------------ --------------- -------- ------------------------------- --- ------------------ ------------------ ------------------------------------- 
232    nl_232 (Nonlinearity, ROUND)                   [b:1,c:100]                             200                  conversion_231   |                    +200(+100.0%)      Nonlinearity_/Conversion_[212, 213]   
------ ---------------------------------------------- ------------------ --------------- -------- ------------------------------- --- ------------------ ------------------ ------------------------------------- 
233    reshape_233 (Reshape, EXPAND_DIMS)             [b:1,h:1,c:100]                                                      nl_232   |                                       
------ ---------------------------------------------- ------------------ --------------- -------- ------------------------------- --- ------------------ ------------------ ------------------------------------- 
234    conversion_234 (Conversion, QUANTIZE)          [b:1,h:1,c:100]                         200                     reshape_233   |                    -200(-100.0%)      
------ ---------------------------------------------- ------------------ --------------- -------- ------------------------------- --- ------------------ ------------------ ------------------------------------- 
235    eltwise_235 (Eltwise, SUB)                     [b:1,c:100]                               1                  arith_constant   | +4(+100.0%)                           Eltwise/sub_[214]                     
                                                                                                                           nl_232   | 
------ ---------------------------------------------- ------------------ --------------- -------- ------------------------------- --- ------------------ ------------------ ------------------------------------- 
236    conversion_236 (Conversion, QUANTIZE)          [b:1,c:100]                             200                     eltwise_235   |                                       Conversion_[215]                      
------ ---------------------------------------------- ------------------ --------------- -------- ------------------------------- --- ------------------ ------------------ ------------------------------------- 
237    eltwise_237 (Eltwise, MUL)                     [b:1,c:100]                             100                     eltwise_226   |                                       Eltwise/mul_[216]                     
                                                                                                                   conversion_236   | 
------ ---------------------------------------------- ------------------ --------------- -------- ------------------------------- --- ------------------ ------------------ ------------------------------------- 
238    eltwise_238 (Eltwise, MUL)                     [b:1,c:100]                             100                     eltwise_237   | +100(+100.0%)                         Eltwise/mul_[217]                     
                                                                                                               tfl_pseudo_qconst7   | 
------ ---------------------------------------------- ------------------ --------------- -------- ------------------------------- --- ------------------ ------------------ ------------------------------------- 
239    slice_239 (Slice, STRIDED_SLICE)               [b:1,h:1,c:100]                                                  concat_154   |                                       Slice_[144]                           
       reshape_239_reshape (Reshape, STRIDED_SLICE)   [b:1,c:100]                                                       slice_239   |                                       
------ ---------------------------------------------- ------------------ --------------- -------- ------------------------------- --- ------------------ ------------------ ------------------------------------- 
240    gemm_240 (Gemm, FULLY_CONNECTED)               [b:1,c:100]                          10,100             reshape_239_reshape   | +10,400(+100.0%)                      Dense_[145]                           
                                                                                                               tfl_pseudo_qconst4   | 
------ ---------------------------------------------- ------------------ --------------- -------- ------------------------------- --- ------------------ ------------------ ------------------------------------- 
241    eltwise_241 (Eltwise, ADD)                     [b:1,c:100]                             100                        gemm_240   |                                       Eltwise/add_[218]                     
                                                                                                                      eltwise_238   | 
------ ---------------------------------------------- ------------------ --------------- -------- ------------------------------- --- ------------------ ------------------ ------------------------------------- 
242    eltwise_242 (Eltwise, MUL)                     [b:1,c:100]                             100                     eltwise_241   | +1(+100.0%)                           Eltwise/mul_[219]                     
                                                                                                               tfl_pseudo_qconst5   | 
------ ---------------------------------------------- ------------------ --------------- -------- ------------------------------- --- ------------------ ------------------ ------------------------------------- 
243    eltwise_243 (Eltwise, ADD)                     [b:1,c:100]                             100                     eltwise_242   | +1(+100.0%)                           Eltwise/add_[220]                     
                                                                                                               tfl_pseudo_qconst5   | 
------ ---------------------------------------------- ------------------ --------------- -------- ------------------------------- --- ------------------ ------------------ ------------------------------------- 
244    tfl_pseudo_qconst23 (Placeholder, )            []                 1/1                                                        |                    +100(+100.0%)      Eltwise/min_[221]                     
       eltwise_244 (Eltwise, MINIMUM)                 [b:1,c:100]                             100                     eltwise_243   |                    -100(-100.0%)      
                                                                                                              tfl_pseudo_qconst23   | 
------ ---------------------------------------------- ------------------ --------------- -------- ------------------------------- --- ------------------ ------------------ ------------------------------------- 
245    nl_245 (Nonlinearity, RELU)                    [b:1,c:100]                             100                     eltwise_244   |                                       Nonlinearity_[222]                    
------ ---------------------------------------------- ------------------ --------------- -------- ------------------------------- --- ------------------ ------------------ ------------------------------------- 
246    conversion_246 (Conversion, DEQUANTIZE)        [b:1,c:100]                             200                          nl_245   |                                       Conversion_[223]                      
------ ---------------------------------------------- ------------------ --------------- -------- ------------------------------- --- ------------------ ------------------ ------------------------------------- 
247    nl_247 (Nonlinearity, ROUND)                   [b:1,c:100]                             200                  conversion_246   |                    +200(+100.0%)      Nonlinearity_/Conversion_[224, 225]   
------ ---------------------------------------------- ------------------ --------------- -------- ------------------------------- --- ------------------ ------------------ ------------------------------------- 
248    reshape_248 (Reshape, EXPAND_DIMS)             [b:1,h:1,c:100]                                                      nl_247   |                                       
------ ---------------------------------------------- ------------------ --------------- -------- ------------------------------- --- ------------------ ------------------ ------------------------------------- 
249    conversion_249 (Conversion, QUANTIZE)          [b:1,h:1,c:100]                         200                     reshape_248   |                    -200(-100.0%)      
------ ---------------------------------------------- ------------------ --------------- -------- ------------------------------- --- ------------------ ------------------ ------------------------------------- 
250    eltwise_250 (Eltwise, SUB)                     [b:1,c:100]                               1                  arith_constant   | +4(+100.0%)                           Eltwise/sub_[226]                     
                                                                                                                           nl_247   | 
------ ---------------------------------------------- ------------------ --------------- -------- ------------------------------- --- ------------------ ------------------ ------------------------------------- 
251    conversion_251 (Conversion, QUANTIZE)          [b:1,c:100]                             200                     eltwise_250   |                                       Conversion_[227]                      
------ ---------------------------------------------- ------------------ --------------- -------- ------------------------------- --- ------------------ ------------------ ------------------------------------- 
252    eltwise_252 (Eltwise, MUL)                     [b:1,c:100]                             100                     eltwise_241   |                                       Eltwise/mul_[228]                     
                                                                                                                   conversion_251   | 
------ ---------------------------------------------- ------------------ --------------- -------- ------------------------------- --- ------------------ ------------------ ------------------------------------- 
253    eltwise_253 (Eltwise, MUL)                     [b:1,c:100]                             100                     eltwise_252   | +100(+100.0%)                         Eltwise/mul_[229]                     
                                                                                                               tfl_pseudo_qconst7   | 
------ ---------------------------------------------- ------------------ --------------- -------- ------------------------------- --- ------------------ ------------------ ------------------------------------- 
254    slice_254 (Slice, STRIDED_SLICE)               [b:1,h:1,c:100]                                                  concat_154   |                                       Slice_[142]                           
       reshape_254_reshape (Reshape, STRIDED_SLICE)   [b:1,c:100]                                                       slice_254   |                                       
------ ---------------------------------------------- ------------------ --------------- -------- ------------------------------- --- ------------------ ------------------ ------------------------------------- 
255    gemm_255 (Gemm, FULLY_CONNECTED)               [b:1,c:100]                          10,100             reshape_254_reshape   | +10,400(+100.0%)                      Dense_[143]                           
                                                                                                               tfl_pseudo_qconst4   | 
------ ---------------------------------------------- ------------------ --------------- -------- ------------------------------- --- ------------------ ------------------ ------------------------------------- 
256    eltwise_256 (Eltwise, ADD)                     [b:1,c:100]                             100                        gemm_255   |                                       Eltwise/add_[230]                     
                                                                                                                      eltwise_253   | 
------ ---------------------------------------------- ------------------ --------------- -------- ------------------------------- --- ------------------ ------------------ ------------------------------------- 
257    eltwise_257 (Eltwise, MUL)                     [b:1,c:100]                             100                     eltwise_256   | +1(+100.0%)                           Eltwise/mul_[231]                     
                                                                                                               tfl_pseudo_qconst5   | 
------ ---------------------------------------------- ------------------ --------------- -------- ------------------------------- --- ------------------ ------------------ ------------------------------------- 
258    eltwise_258 (Eltwise, ADD)                     [b:1,c:100]                             100                     eltwise_257   | +1(+100.0%)                           Eltwise/add_[232]                     
                                                                                                               tfl_pseudo_qconst5   | 
------ ---------------------------------------------- ------------------ --------------- -------- ------------------------------- --- ------------------ ------------------ ------------------------------------- 
259    tfl_pseudo_qconst24 (Placeholder, )            []                 1/1                                                        |                    +100(+100.0%)      Eltwise/min_[233]                     
       eltwise_259 (Eltwise, MINIMUM)                 [b:1,c:100]                             100                     eltwise_258   |                    -100(-100.0%)      
                                                                                                              tfl_pseudo_qconst24   | 
------ ---------------------------------------------- ------------------ --------------- -------- ------------------------------- --- ------------------ ------------------ ------------------------------------- 
260    nl_260 (Nonlinearity, RELU)                    [b:1,c:100]                             100                     eltwise_259   |                                       Nonlinearity_[234]                    
------ ---------------------------------------------- ------------------ --------------- -------- ------------------------------- --- ------------------ ------------------ ------------------------------------- 
261    conversion_261 (Conversion, DEQUANTIZE)        [b:1,c:100]                             200                          nl_260   |                                       Conversion_[235]                      
------ ---------------------------------------------- ------------------ --------------- -------- ------------------------------- --- ------------------ ------------------ ------------------------------------- 
262    nl_262 (Nonlinearity, ROUND)                   [b:1,c:100]                             200                  conversion_261   |                    +200(+100.0%)      Nonlinearity_/Conversion_[236, 237]   
------ ---------------------------------------------- ------------------ --------------- -------- ------------------------------- --- ------------------ ------------------ ------------------------------------- 
263    reshape_263 (Reshape, EXPAND_DIMS)             [b:1,h:1,c:100]                                                      nl_262   |                                       
------ ---------------------------------------------- ------------------ --------------- -------- ------------------------------- --- ------------------ ------------------ ------------------------------------- 
264    conversion_264 (Conversion, QUANTIZE)          [b:1,h:1,c:100]                         200                     reshape_263   |                    -200(-100.0%)      
------ ---------------------------------------------- ------------------ --------------- -------- ------------------------------- --- ------------------ ------------------ ------------------------------------- 
265    eltwise_265 (Eltwise, SUB)                     [b:1,c:100]                               1                  arith_constant   | +4(+100.0%)                           Eltwise/sub_[238]                     
                                                                                                                           nl_262   | 
------ ---------------------------------------------- ------------------ --------------- -------- ------------------------------- --- ------------------ ------------------ ------------------------------------- 
266    conversion_266 (Conversion, QUANTIZE)          [b:1,c:100]                             200                     eltwise_265   |                                       Conversion_[239]                      
------ ---------------------------------------------- ------------------ --------------- -------- ------------------------------- --- ------------------ ------------------ ------------------------------------- 
267    eltwise_267 (Eltwise, MUL)                     [b:1,c:100]                             100                     eltwise_256   |                                       Eltwise/mul_[240]                     
                                                                                                                   conversion_266   | 
------ ---------------------------------------------- ------------------ --------------- -------- ------------------------------- --- ------------------ ------------------ ------------------------------------- 
268    eltwise_268 (Eltwise, MUL)                     [b:1,c:100]                             100                     eltwise_267   | +100(+100.0%)                         Eltwise/mul_[241]                     
                                                                                                               tfl_pseudo_qconst7   | 
------ ---------------------------------------------- ------------------ --------------- -------- ------------------------------- --- ------------------ ------------------ ------------------------------------- 
269    slice_269 (Slice, STRIDED_SLICE)               [b:1,h:1,c:100]                                                  concat_154   |                                       Slice_[140]                           
       reshape_269_reshape (Reshape, STRIDED_SLICE)   [b:1,c:100]                                                       slice_269   |                                       
------ ---------------------------------------------- ------------------ --------------- -------- ------------------------------- --- ------------------ ------------------ ------------------------------------- 
270    gemm_270 (Gemm, FULLY_CONNECTED)               [b:1,c:100]                          10,100             reshape_269_reshape   | +10,400(+100.0%)                      Dense_[141]                           
                                                                                                               tfl_pseudo_qconst4   | 
------ ---------------------------------------------- ------------------ --------------- -------- ------------------------------- --- ------------------ ------------------ ------------------------------------- 
271    eltwise_271 (Eltwise, ADD)                     [b:1,c:100]                             100                        gemm_270   |                                       Eltwise/add_[242]                     
                                                                                                                      eltwise_268   | 
------ ---------------------------------------------- ------------------ --------------- -------- ------------------------------- --- ------------------ ------------------ ------------------------------------- 
272    eltwise_272 (Eltwise, MUL)                     [b:1,c:100]                             100                     eltwise_271   | +1(+100.0%)                           Eltwise/mul_[243]                     
                                                                                                               tfl_pseudo_qconst5   | 
------ ---------------------------------------------- ------------------ --------------- -------- ------------------------------- --- ------------------ ------------------ ------------------------------------- 
273    eltwise_273 (Eltwise, ADD)                     [b:1,c:100]                             100                     eltwise_272   | +1(+100.0%)                           Eltwise/add_[244]                     
                                                                                                               tfl_pseudo_qconst5   | 
------ ---------------------------------------------- ------------------ --------------- -------- ------------------------------- --- ------------------ ------------------ ------------------------------------- 
274    tfl_pseudo_qconst25 (Placeholder, )            []                 1/1                                                        |                    +100(+100.0%)      Eltwise/min_[245]                     
       eltwise_274 (Eltwise, MINIMUM)                 [b:1,c:100]                             100                     eltwise_273   |                    -100(-100.0%)      
                                                                                                              tfl_pseudo_qconst25   | 
------ ---------------------------------------------- ------------------ --------------- -------- ------------------------------- --- ------------------ ------------------ ------------------------------------- 
275    nl_275 (Nonlinearity, RELU)                    [b:1,c:100]                             100                     eltwise_274   |                                       Nonlinearity_[246]                    
------ ---------------------------------------------- ------------------ --------------- -------- ------------------------------- --- ------------------ ------------------ ------------------------------------- 
276    conversion_276 (Conversion, DEQUANTIZE)        [b:1,c:100]                             200                          nl_275   |                                       Conversion_[247]                      
------ ---------------------------------------------- ------------------ --------------- -------- ------------------------------- --- ------------------ ------------------ ------------------------------------- 
277    nl_277 (Nonlinearity, ROUND)                   [b:1,c:100]                             200                  conversion_276   |                    +200(+100.0%)      Nonlinearity_/Conversion_[248, 249]   
------ ---------------------------------------------- ------------------ --------------- -------- ------------------------------- --- ------------------ ------------------ ------------------------------------- 
278    reshape_278 (Reshape, EXPAND_DIMS)             [b:1,h:1,c:100]                                                      nl_277   |                                       
------ ---------------------------------------------- ------------------ --------------- -------- ------------------------------- --- ------------------ ------------------ ------------------------------------- 
279    conversion_279 (Conversion, QUANTIZE)          [b:1,h:1,c:100]                         200                     reshape_278   |                    -200(-100.0%)      
------ ---------------------------------------------- ------------------ --------------- -------- ------------------------------- --- ------------------ ------------------ ------------------------------------- 
280    eltwise_280 (Eltwise, SUB)                     [b:1,c:100]                               1                  arith_constant   | +4(+100.0%)                           Eltwise/sub_[250]                     
                                                                                                                           nl_277   | 
------ ---------------------------------------------- ------------------ --------------- -------- ------------------------------- --- ------------------ ------------------ ------------------------------------- 
281    conversion_281 (Conversion, QUANTIZE)          [b:1,c:100]                             200                     eltwise_280   |                                       Conversion_[251]                      
------ ---------------------------------------------- ------------------ --------------- -------- ------------------------------- --- ------------------ ------------------ ------------------------------------- 
282    eltwise_282 (Eltwise, MUL)                     [b:1,c:100]                             100                     eltwise_271   |                                       Eltwise/mul_[252]                     
                                                                                                                   conversion_281   | 
------ ---------------------------------------------- ------------------ --------------- -------- ------------------------------- --- ------------------ ------------------ ------------------------------------- 
283    eltwise_283 (Eltwise, MUL)                     [b:1,c:100]                             100                     eltwise_282   | +100(+100.0%)                         Eltwise/mul_[253]                     
                                                                                                               tfl_pseudo_qconst7   | 
------ ---------------------------------------------- ------------------ --------------- -------- ------------------------------- --- ------------------ ------------------ ------------------------------------- 
284    slice_284 (Slice, STRIDED_SLICE)               [b:1,h:1,c:100]                                                  concat_154   |                                       Slice_[138]                           
       reshape_284_reshape (Reshape, STRIDED_SLICE)   [b:1,c:100]                                                       slice_284   |                                       
------ ---------------------------------------------- ------------------ --------------- -------- ------------------------------- --- ------------------ ------------------ ------------------------------------- 
285    gemm_285 (Gemm, FULLY_CONNECTED)               [b:1,c:100]                          10,100             reshape_284_reshape   | +10,400(+100.0%)                      Dense_[139]                           
                                                                                                               tfl_pseudo_qconst4   | 
------ ---------------------------------------------- ------------------ --------------- -------- ------------------------------- --- ------------------ ------------------ ------------------------------------- 
286    eltwise_286 (Eltwise, ADD)                     [b:1,c:100]                             100                        gemm_285   |                                       Eltwise/add_[254]                     
                                                                                                                      eltwise_283   | 
------ ---------------------------------------------- ------------------ --------------- -------- ------------------------------- --- ------------------ ------------------ ------------------------------------- 
287    eltwise_287 (Eltwise, MUL)                     [b:1,c:100]                             100                     eltwise_286   | +1(+100.0%)                           Eltwise/mul_[255]                     
                                                                                                               tfl_pseudo_qconst5   | 
------ ---------------------------------------------- ------------------ --------------- -------- ------------------------------- --- ------------------ ------------------ ------------------------------------- 
288    eltwise_288 (Eltwise, ADD)                     [b:1,c:100]                             100                     eltwise_287   | +1(+100.0%)                           Eltwise/add_[256]                     
                                                                                                               tfl_pseudo_qconst5   | 
------ ---------------------------------------------- ------------------ --------------- -------- ------------------------------- --- ------------------ ------------------ ------------------------------------- 
289    tfl_pseudo_qconst26 (Placeholder, )            []                 1/1                                                        |                    +100(+100.0%)      Eltwise/min_[257]                     
       eltwise_289 (Eltwise, MINIMUM)                 [b:1,c:100]                             100                     eltwise_288   |                    -100(-100.0%)      
                                                                                                              tfl_pseudo_qconst26   | 
------ ---------------------------------------------- ------------------ --------------- -------- ------------------------------- --- ------------------ ------------------ ------------------------------------- 
290    nl_290 (Nonlinearity, RELU)                    [b:1,c:100]                             100                     eltwise_289   |                                       Nonlinearity_[258]                    
------ ---------------------------------------------- ------------------ --------------- -------- ------------------------------- --- ------------------ ------------------ ------------------------------------- 
291    conversion_291 (Conversion, DEQUANTIZE)        [b:1,c:100]                             200                          nl_290   |                                       Conversion_[259]                      
…
180    gemm_180                        ||                 0.9%   ||                 9.4%   [153]          0.6%                    
181    eltwise_181                     |                  0.0%   |                  0.0%   [170]          0.0%                    
182    eltwise_182                     |                  0.0%   |                  0.0%   [171]          0.0%                    
183    eltwise_183                     |                  0.0%   |                  0.0%   [172]          0.0%                    
184    tfl_pseudo_qconst19             |                  0.0%   |                  0.0%   [173]          0.0%                    
185    nl_185                          |                  0.0%   |                  0.0%   [174]          0.0%                    
186    conversion_186                  |                  0.0%   |                  0.0%   [175]          0.0%                    
187    nl_187                          |                  0.0%   |                  0.0%   [176, 177]     0.0%                    
190    eltwise_190                     |                  0.0%   |                  0.0%   [178]          0.0%                    
191    conversion_191                  |                  0.0%   |                  0.0%   [179]          0.0%                    
192    eltwise_192                     |                  0.0%   |                  0.0%   [180]          0.0%                    
193    eltwise_193                     |                  0.0%   |                  0.1%   [181]          0.0%                    
194    slice_194                       |                  0.0%   |                  0.0%   [150]          0.0%                    
195    gemm_195                        ||                 0.9%   ||                 9.4%   [151]          0.6%                    
196    eltwise_196                     |                  0.0%   |                  0.0%   [182]          0.0%                    
197    eltwise_197                     |                  0.0%   |                  0.0%   [183]          0.0%                    
198    eltwise_198                     |                  0.0%   |                  0.0%   [184]          0.0%                    
199    tfl_pseudo_qconst20             |                  0.0%   |                  0.0%   [185]          0.0%                    
200    nl_200                          |                  0.0%   |                  0.0%   [186]          0.0%                    
201    conversion_201                  |                  0.0%   |                  0.0%   [187]          0.0%                    
202    nl_202                          |                  0.0%   |                  0.0%   [188, 189]     0.0%                    
205    eltwise_205                     |                  0.0%   |                  0.0%   [190]          0.0%                    
206    conversion_206                  |                  0.0%   |                  0.0%   [191]          0.0%                    
207    eltwise_207                     |                  0.0%   |                  0.0%   [192]          0.0%                    
208    eltwise_208                     |                  0.0%   |                  0.1%   [193]          0.0%                    
209    slice_209                       |                  0.0%   |                  0.0%   [148]          0.0%                    
210    gemm_210                        ||                 0.9%   ||                 9.4%   [149]          0.6%                    
211    eltwise_211                     |                  0.0%   |                  0.0%   [194]          0.0%                    
212    eltwise_212                     |                  0.0%   |                  0.0%   [195]          0.0%                    
213    eltwise_213                     |                  0.0%   |                  0.0%   [196]          0.0%                    
214    tfl_pseudo_qconst21             |                  0.0%   |                  0.0%   [197]          0.0%                    
215    nl_215                          |                  0.0%   |                  0.0%   [198]          0.0%                    
216    conversion_216                  |                  0.0%   |                  0.0%   [199]          0.0%                    
217    nl_217                          |                  0.0%   |                  0.0%   [200, 201]     0.0%                    
220    eltwise_220                     |                  0.0%   |                  0.0%   [202]          0.0%                    
221    conversion_221                  |                  0.0%   |                  0.0%   [203]          0.0%                    
222    eltwise_222                     |                  0.0%   |                  0.0%   [204]          0.0%                    
223    eltwise_223                     |                  0.0%   |                  0.1%   [205]          0.0%                    
224    slice_224                       |                  0.0%   |                  0.0%   [146]          0.0%                    
225    gemm_225                        ||                 0.9%   ||                 9.4%   [147]          0.6%                    
226    eltwise_226                     |                  0.0%   |                  0.0%   [206]          0.0%                    
227    eltwise_227                     |                  0.0%   |                  0.0%   [207]          0.0%                    
228    eltwise_228                     |                  0.0%   |                  0.0%   [208]          0.0%                    
229    tfl_pseudo_qconst22             |                  0.0%   |                  0.0%   [209]          0.0%                    
230    nl_230                          |                  0.0%   |                  0.0%   [210]          0.0%                    
231    conversion_231                  |                  0.0%   |                  0.0%   [211]          0.0%                    
232    nl_232                          |                  0.0%   |                  0.0%   [212, 213]     0.0%                    
235    eltwise_235                     |                  0.0%   |                  0.0%   [214]          0.0%                    
236    conversion_236                  |                  0.0%   |                  0.0%   [215]          0.0%                    
237    eltwise_237                     |                  0.0%   |                  0.0%   [216]          0.0%                    
238    eltwise_238                     |                  0.0%   |                  0.1%   [217]          0.0%                    
239    slice_239                       |                  0.0%   |                  0.0%   [144]          0.0%                    
240    gemm_240                        ||                 0.9%   ||                 9.4%   [145]          0.6%                    
241    eltwise_241                     |                  0.0%   |                  0.0%   [218]          0.0%                    
242    eltwise_242                     |                  0.0%   |                  0.0%   [219]          0.0%                    
243    eltwise_243                     |                  0.0%   |                  0.0%   [220]          0.0%                    
244    tfl_pseudo_qconst23             |                  0.0%   |                  0.0%   [221]          0.0%                    
245    nl_245                          |                  0.0%   |                  0.0%   [222]          0.0%                    
246    conversion_246                  |                  0.0%   |                  0.0%   [223]          0.0%                    
247    nl_247                          |                  0.0%   |                  0.0%   [224, 225]     0.0%                    
250    eltwise_250                     |                  0.0%   |                  0.0%   [226]          0.0%                    
251    conversion_251                  |                  0.0%   |                  0.0%   [227]          0.0%                    
252    eltwise_252                     |                  0.0%   |                  0.0%   [228]          0.0%                    
253    eltwise_253                     |                  0.0%   |                  0.1%   [229]          0.0%                    
254    slice_254                       |                  0.0%   |                  0.0%   [142]          0.0%                    
255    gemm_255                        ||                 0.9%   ||                 9.4%   [143]          0.6%                    
256    eltwise_256                     |                  0.0%   |                  0.0%   [230]          0.0%                    
257    eltwise_257                     |                  0.0%   |                  0.0%   [231]          0.0%                    
258    eltwise_258                     |                  0.0%   |                  0.0%   [232]          0.0%                    
259    tfl_pseudo_qconst24             |                  0.0%   |                  0.0%   [233]          0.0%                    
260    nl_260                          |                  0.0%   |                  0.0%   [234]          0.0%                    
261    conversion_261                  |                  0.0%   |                  0.0%   [235]          0.0%                    
262    nl_262                          |                  0.0%   |                  0.0%   [236, 237]     0.0%                    
265    eltwise_265                     |                  0.0%   |                  0.0%   [238]          0.0%                    
266    conversion_266                  |                  0.0%   |                  0.0%   [239]          0.0%                    
267    eltwise_267                     |                  0.0%   |                  0.0%   [240]          0.0%                    
268    eltwise_268                     |                  0.0%   |                  0.1%   [241]          0.0%                    
269    slice_269                       |                  0.0%   |                  0.0%   [140]          0.0%                    
270    gemm_270                        ||                 0.9%   ||                 9.4%   [141]          0.7%                    
271    eltwise_271                     |                  0.0%   |                  0.0%   [242]          0.0%                    
272    eltwise_272                     |                  0.0%   |                  0.0%   [243]          0.0%                    
273    eltwise_273                     |                  0.0%   |                  0.0%   [244]          0.0%                    
274    tfl_pseudo_qconst25             |                  0.0%   |                  0.0%   [245]          0.0%                    
275    nl_275                          |                  0.0%   |                  0.0%   [246]          0.0%                    
276    conversion_276                  |                  0.0%   |                  0.0%   [247]          0.0%                    
277    nl_277                          |                  0.0%   |                  0.0%   [248, 249]     0.0%                    
280    eltwise_280                     |                  0.0%   |                  0.0%   [250]          0.0%                    
281    conversion_281                  |                  0.0%   |                  0.0%   [251]          0.0%                    
282    eltwise_282                     |                  0.0%   |                  0.0%   [252]          0.0%                    
283    eltwise_283                     |                  0.0%   |                  0.1%   [253]          0.0%                    
284    slice_284                       |                  0.0%   |                  0.0%   [138]          0.0%                    
285    gemm_285                        ||                 0.9%   ||                 9.4%   [139]          0.9%                    
286    eltwise_286                     |                  0.0%   |                  0.0%   [254]          0.0%                    
287    eltwise_287                     |                  0.0%   |                  0.0%   [255]          0.0%                    
288    eltwise_288                     |                  0.0%   |                  0.0%   [256]          0.0%                    
289    tfl_pseudo_qconst26             |                  0.0%   |                  0.0%   [257]          0.0%                    
290    nl_290                          |                  0.0%   |                  0.0%   [258]          0.0%                    
291    conversion_291                  |                  0.0%   |                  0.0%   [259]          0.0%                    
292    nl_292                          |                  0.0%   |                  0.0%   [260, 261]     0.0%                    
295    eltwise_295                     |                  0.0%   |                  0.0%   [262]          0.0%                    
296    conversion_296                  |                  0.0%   |                  0.0%   [263]          0.0%                    
297    eltwise_297                     |                  0.0%   |                  0.0%   [264]          0.0%                    
298    eltwise_298                     |                  0.0%   |                  0.1%   [265]          0.0%                    
299    eltwise_299                     |                  0.0%   |                  0.0%   [266]          0.0%                    
300    eltwise_300                     |                  0.0%   |                  0.0%   [267]          0.0%                    
301    eltwise_301                     |                  0.0%   |                  0.0%   [268]          0.0%                    
302    tfl_pseudo_qconst27             |                  0.0%   |                  0.0%   [269]          0.0%                    
303    nl_303                          |                  0.0%   |                  0.0%   [270]          0.0%                    
304    conversion_304                  |                  0.0%   |                  0.0%   [271]          0.0%                    
305    nl_305                          |                  0.0%   |                  0.0%   [272, 273]     0.0%                    
308    concat_308                      |                  0.0%   |                  0.0%   [274]          0.0%                    
316    slice_316                       |                  0.0%   |                  0.0%   [293]          0.0%                    
317    tfl_pseudo_qconst3              ||                 0.9%   ||                 9.4%   [294]          0.7%                    
318    eltwise_318                     |                  0.0%   |                  0.1%   [295]          0.0%                    
319    eltwise_319                     |                  0.0%   |                  0.0%   [296]          0.0%                    
320    eltwise_320                     |                  0.0%   |                  0.0%   [297]          0.0%                    
321    tfl_pseudo_qconst28             |                  0.0%   |                  0.0%   [298]          0.0%                    
322    nl_322                          |                  0.0%   |                  0.0%   [299]          0.0%                    
323    conversion_323                  |                  0.0%   |                  0.0%   [300]          0.0%                    
324    nl_324                          |                  0.0%   |                  0.0%   [301, 302]     0.0%                    
327    eltwise_327                     |                  0.0%   |                  0.0%   [303]          0.0%                    
328    conversion_328                  |                  0.0%   |                  0.0%   [304]          0.0%                    
329    eltwise_329                     |                  0.0%   |                  0.0%   [305]          0.0%                    
330    eltwise_330                     |                  0.0%   |                  0.1%   [306]          0.0%                    
331    slice_331                       |                  0.0%   |                  0.0%   [291]          0.0%                    
332    gemm_332                        ||                 0.9%   ||                 9.4%   [292]          0.7%                    
333    slice_333                       |                  0.0%   |                  0.0%   [289]          0.0%                    
334    gemm_334                        ||                 0.9%   ||                 9.4%   [290]          0.7%                    
335    eltwise_335                     |                  0.0%   |                  0.0%   [307]          0.0%                    
336    eltwise_336                     |                  0.0%   |                  0.0%   [308]          0.0%                    
337    eltwise_337                     |                  0.0%   |                  0.0%   [309]          0.0%                    
338    tfl_pseudo_qconst29             |                  0.0%   |                  0.0%   [310]          0.0%                    
339    nl_339                          |                  0.0%   |                  0.0%   [311]          0.0%                    
340    conversion_340                  |                  0.0%   |                  0.0%   [312]          0.0%                    
341    nl_341                          |                  0.0%   |                  0.0%   [313, 314]     0.0%                    
344    eltwise_344                     |                  0.0%   |                  0.0%   [315]          0.0%                    
345    conversion_345                  |                  0.0%   |                  0.0%   [316]          0.0%                    
346    eltwise_346                     |                  0.0%   |                  0.0%   [317]          0.0%                    
347    eltwise_347                     |                  0.0%   |                  0.1%   [318]          0.0%                    
348    slice_348                       |                  0.0%   |                  0.0%   [287]          0.0%                    
349    gemm_349                        ||                 0.9%   ||                 9.4%   [288]          0.7%                    
350    eltwise_350                     |                  0.0%   |                  0.0%   [319]          0.0%                    
351    eltwise_351                     |                  0.0%   |                  0.0%   [320]          0.0%                    
352    eltwise_352                     |                  0.0%   |                  0.0%   [321]          0.0%                    
353    tfl_pseudo_qconst30             |                  0.0%   |                  0.0%   [322]          0.0%                    
354    nl_354                          |                  0.0%   |                  0.0%   [323]          0.0%                    
355    conversion_355                  |                  0.0%   |                  0.0%   [324]          0.0%                    
356    nl_356                          |                  0.0%   |                  0.0%   [325, 326]     0.0%                    
359    eltwise_359                     |                  0.0%   |                  0.0%   [327]          0.0%                    
360    conversion_360                  |                  0.0%   |                  0.0%   [328]          0.0%                    
361    eltwise_361                     |                  0.0%   |                  0.0%   [329]          0.0%                    
362    eltwise_362                     |                  0.0%   |                  0.1%   [330]          0.0%                    
363    slice_363                       |                  0.0%   |                  0.0%   [285]          0.0%                    
364    gemm_364                        ||                 0.9%   ||                 9.4%   [286]          0.7%                    
365    eltwise_365                     |                  0.0%   |                  0.0%   [331]          0.0%                    
366    eltwise_366                     |                  0.0%   |                  0.0%   [332]          0.0%                    
367    eltwise_367                     |                  0.0%   |                  0.0%   [333]          0.0%                    
368    tfl_pseudo_qconst31             |                  0.0%   |                  0.0%   [334]          0.0%                    
369    nl_369                          |                  0.0%   |                  0.0%   [335]          0.0%                    
370    conversion_370                  |                  0.0%   |                  0.0%   [336]          0.0%                    
371    nl_371                          |                  0.0%   |                  0.0%   [337, 338]     0.0%                    
374    eltwise_374                     |                  0.0%   |                  0.0%   [339]          0.0%                    
375    conversion_375                  |                  0.0%   |                  0.0%   [340]          0.0%                    
376    eltwise_376                     |                  0.0%   |                  0.0%   [341]          0.0%                    
377    eltwise_377                     |                  0.0%   |                  0.1%   [342]          0.0%                    
378    slice_378                       |                  0.0%   |                  0.0%   [283]          0.0%                    
379    gemm_379                        ||                 0.9%   ||                 9.4%   [284]          0.7%                    
380    eltwise_380                     |                  0.0%   |                  0.0%   [343]          0.0%                    
381    eltwise_381                     |                  0.0%   |                  0.0%   [344]          0.0%                    
382    eltwise_382                     |                  0.0%   |                  0.0%   [345]          0.0%                    
383    tfl_pseudo_qconst32             |                  0.0%   |                  0.0%   [346]          0.0%                    
384    nl_384                          |                  0.0%   |                  0.0%   [347]          0.0%                    
385    conversion_385                  |                  0.0%   |                  0.0%   [348]          0.0%                    
386    nl_386                          |                  0.0%   |                  0.0%   [349, 350]     0.0%                    
389    eltwise_389                     |                  0.0%   |                  0.0%   [351]          0.0%                    
390    conversion_390                  |                  0.0%   |                  0.0%   [352]          0.0%                    
391    eltwise_391                     |                  0.0%   |                  0.0%   [353]          0.0%                    
392    eltwise_392                     |                  0.0%   |                  0.1%   [354]          0.0%                    
393    slice_393                       |                  0.0%   |                  0.0%   [281]          0.0%                    
394    gemm_394                        ||                 0.9%   ||                 9.4%   [282]          0.7%                    
395    eltwise_395                     |                  0.0%   |                  0.0%   [355]          0.0%                    
396    eltwise_396                     |                  0.0%   |                  0.0%   [356]          0.0%                    
397    eltwise_397                     |                  0.0%   |                  0.0%   [357]          0.0%                    
398    tfl_pseudo_qconst33             |                  0.0%   |                  0.0%   [358]          0.0%                    
399    nl_399                          |                  0.0%   |                  0.0%   [359]          0.0%                    
400    conversion_400                  |                  0.0%   |                  0.0%   [360]          0.0%                    
401    nl_401                          |                  0.0%   |                  0.0%   [361, 362]     0.0%                    
404    eltwise_404                     |                  0.0%   |                  0.0%   [363]          0.0%                    
405    conversion_405                  |                  0.0%   |                  0.0%   [364]          0.0%                    
406    eltwise_406                     |                  0.0%   |                  0.0%   [365]          0.0%                    
407    eltwise_407                     |                  0.0%   |                  0.1%   [366]          0.0%                    
408    slice_408                       |                  0.0%   |                  0.0%   [279]          0.0%                    
409    gemm_409                        ||                 0.9%   ||                 9.4%   [280]          0.7%                    
410    eltwise_410                     |                  0.0%   |                  0.0%   [367]          0.0%                    
411    eltwise_411                     |                  0.0%   |                  0.0%   [368]          0.0%                    
412    eltwise_412                     |                  0.0%   |                  0.0%   [369]          0.0%                    
413    tfl_pseudo_qconst34             |                  0.0%   |                  0.0%   [370]          0.0%                    
414    nl_414                          |                  0.0%   |                  0.0%   [371]          0.0%                    
415    conversion_415                  |                  0.0%   |                  0.0%   [372]          0.0%                    
416    nl_416                          |                  0.0%   |                  0.0%   [373, 374]     0.0%                    
419    eltwise_419                     |                  0.0%   |                  0.0%   [375]          0.0%                    
420    conversion_420                  |                  0.0%   |                  0.0%   [376]          0.0%                    
421    eltwise_421                     |                  0.0%   |                  0.0%   [377]          0.0%                    
422    eltwise_422                     |                  0.0%   |                  0.1%   [378]          0.0%                    
423    slice_423                       |                  0.0%   |                  0.0%   [277]          0.0%                    
424    gemm_424                        ||                 0.9%   ||                 9.4%   [278]          0.7%                    
425    eltwise_425                     |                  0.0%   |                  0.0%   [379]          0.0%                    
426    eltwise_426                     |                  0.0%   |                  0.0%   [380]          0.0%                    
427    eltwise_427                     |                  0.0%   |                  0.0%   [381]          0.0%                    
428    tfl_pseudo_qconst35             |                  0.0%   |                  0.0%   [382]          0.0%                    
429    nl_429                          |                  0.0%   |                  0.0%   [383]          0.0%                    
430    conversion_430                  |                  0.0%   |                  0.0%   [384]          0.0%                    
431    nl_431                          |                  0.0%   |                  0.0%   [385, 386]     0.0%                    
434    eltwise_434                     |                  0.0%   |                  0.0%   [387]          0.0%                    
435    conversion_435                  |                  0.0%   |                  0.0%   [388]          0.0%                    
436    eltwise_436                     |                  0.0%   |                  0.0%   [389]          0.0%                    
437    eltwise_437                     |                  0.0%   |                  0.1%   [390]          0.0%                    
438    slice_438                       |                  0.0%   |                  0.0%   [275]          0.0%                    
439    gemm_439                        ||                 0.9%   ||                 9.4%   [276]          0.9%                    
440    eltwise_440                     |                  0.0%   |                  0.0%   [391]          0.0%                    
441    eltwise_441                     |                  0.0%   |                  0.0%   [392]          0.0%                    
442    eltwise_442                     |                  0.0%   |                  0.0%   [393]          0.0%                    
443    tfl_pseudo_qconst36             |                  0.0%   |                  0.0%   [394]          0.0%                    
444    nl_444                          |                  0.0%   |                  0.0%   [395]          0.0%                    
445    conversion_445                  |                  0.0%   |                  0.0%   [396]          0.0%                    
446    nl_446                          |                  0.0%   |                  0.0%   [397, 398]     0.0%                    
449    eltwise_449                     |                  0.0%   |                  0.0%   [399]          0.0%                    
450    conversion_450                  |                  0.0%   |                  0.0%   [400]          0.0%                    
451    eltwise_451                     |                  0.0%   |                  0.0%   [401]          0.0%                    
452    eltwise_452                     |                  0.0%   |                  0.1%   [402]          0.0%                    
453    eltwise_453                     |                  0.0%   |                  0.0%   [403]          0.0%                    
454    eltwise_454                     |                  0.0%   |                  0.0%   [404]          0.0%                    
455    eltwise_455                     |                  0.0%   |                  0.0%   [405]          0.0%                    
456    tfl_pseudo_qconst37             |                  0.0%   |                  0.0%   [406]          0.0%                    
457    nl_457                          |                  0.0%   |                  0.0%   [407]          0.0%                    
458    conversion_458                  |                  0.0%   |                  0.0%   [408]          0.0%                    
459    nl_459                          |                  0.0%   |                  0.0%   [409, 410]     0.0%                    
462    concat_462                      |                  0.0%   |                  0.0%   [411]          0.0%                    
470    slice_470                       |                  0.0%   |                  0.0%   [430]          0.0%                    
471    tfl_pseudo_qconst2              ||                 0.9%   ||                 9.4%   [431]          0.7%                    
472    eltwise_472                     |                  0.0%   |                  0.1%   [432]          0.0%                    
473    eltwise_473                     |                  0.0%   |                  0.0%   [433]          0.0%                    
474    eltwise_474                     |                  0.0%   |                  0.0%   [434]          0.0%                    
475    tfl_pseudo_qconst38             |                  0.0%   |                  0.0%   [435]          0.0%                    
476    nl_476                          |                  0.0%   |                  0.0%   [436]          0.0%                    
477    conversion_477                  |                  0.0%   |                  0.0%   [437]          0.0%                    
478    nl_478                          |                  0.0%   |                  0.0%   [438, 439]     0.0%                    
481    eltwise_481                     |                  0.0%   |                  0.0%   [440]          0.0%                    
482    conversion_482                  |                  0.0%   |                  0.0%   [441]          0.0%                    
483    eltwise_483                     |                  0.0%   |                  0.0%   [442]          0.0%                    
484    eltwise_484                     |                  0.0%   |                  0.1%   [443]          0.0%                    
485    slice_485                       |                  0.0%   |                  0.0%   [428]          0.0%                    
486    gemm_486                        ||                 0.9%   ||                 9.4%   [429]          0.7%                    
487    slice_487                       |                  0.0%   |                  0.0%   [426]          0.0%                    
488    gemm_488                        ||                 0.9%   ||                 9.4%   [427]          0.7%                    
489    eltwise_489                     |                  0.0%   |                  0.0%   [444]          0.0%                    
490    eltwise_490                     |                  0.0%   |                  0.0%   [445]          0.0%                    
491    eltwise_491                     |                  0.0%   |                  0.0%   [446]          0.0%                    
492    tfl_pseudo_qconst39             |                  0.0%   |                  0.0%   [447]          0.0%                    
493    nl_493                          |                  0.0%   |                  0.0%   [448]          0.0%                    
494    conversion_494                  |                  0.0%   |                  0.0%   [449]          0.0%                    
495    nl_495                          |                  0.0%   |                  0.0%   [450, 451]     0.0%                    
498    eltwise_498                     |                  0.0%   |                  0.0%   [452]          0.0%                    
499    conversion_499                  |                  0.0%   |                  0.0%   [453]          0.0%                    
500    eltwise_500                     |                  0.0%   |                  0.0%   [454]          0.0%                    
501    eltwise_501                     |                  0.0%   |                  0.1%   [455]          0.0%                    
502    slice_502                       |                  0.0%   |                  0.0%   [424]          0.0%                    
503    gemm_503                        ||                 0.9%   ||                 9.4%   [425]          0.7%                    
504    eltwise_504                     |                  0.0%   |                  0.0%   [456]          0.0%                    
505    eltwise_505                     |                  0.0%   |                  0.0%   [457]          0.0%                    
506    eltwise_506                     |                  0.0%   |                  0.0%   [458]          0.0%                    
507    tfl_pseudo_qconst40             |                  0.0%   |                  0.0%   [459]          0.0%                    
508    nl_508                          |                  0.0%   |                  0.0%   [460]          0.0%                    
509    conversion_509                  |                  0.0%   |                  0.0%   [461]          0.0%                    
510    nl_510                          |                  0.0%   |                  0.0%   [462, 463]     0.0%                    
513    eltwise_513                     |                  0.0%   |                  0.0%   [464]          0.0%                    
514    conversion_514                  |                  0.0%   |                  0.0%   [465]          0.0%                    
515    eltwise_515                     |                  0.0%   |                  0.0%   [466]          0.0%                    
516    eltwise_516                     |                  0.0%   |                  0.1%   [467]          0.0%                    
517    slice_517                       |                  0.0%   |                  0.0%   [422]          0.0%                    
518    gemm_518                        ||                 0.9%   ||                 9.4%   [423]          0.7%                    
519    eltwise_519                     |                  0.0%   |                  0.0%   [468]          0.0%                    
520    eltwise_520                     |                  0.0%   |                  0.0%   [469]          0.0%                    
521    eltwise_521                     |                  0.0%   |                  0.0%   [470]          0.0%                    
522    tfl_pseudo_qconst41             |                  0.0%   |                  0.0%   [471]          0.0%                    
523    nl_523                          |                  0.0%   |                  0.0%   [472]          0.0%                    
524    conversion_524                  |                  0.0%   |                  0.0%   [473]          0.0%                    
525    nl_525                          |                  0.0%   |                  0.0%   [474, 475]     0.0%                    
528    eltwise_528                     |                  0.0%   |                  0.0%   [476]          0.0%                    
529    conversion_529                  |                  0.0%   |                  0.0%   [477]          0.0%                    
530    eltwise_530                     |                  0.0%   |                  0.0%   [478]          0.0%                    
531    eltwise_531                     |                  0.0%   |                  0.1%   [479]          0.0%                    
532    slice_532                       |                  0.0%   |                  0.0%   [420]          0.0%                    
533    gemm_533                        ||                 0.9%   ||                 9.4%   [421]          0.7%                    
534    eltwise_534                     |                  0.0%   |                  0.0%   [480]          0.0%                    
535    eltwise_535                     |                  0.0%   |                  0.0%   [481]          0.0%                    
536    eltwise_536                     |                  0.0%   |                  0.0%   [482]          0.0%                    
537    tfl_pseudo_qconst42             |                  0.0%   |                  0.0%   [483]          0.0%                    
538    nl_538                          |                  0.0%   |                  0.0%   [484]          0.0%                    
539    conversion_539                  |                  0.0%   |                  0.0%   [485]          0.0%                    
540    nl_540                          |                  0.0%   |                  0.0%   [486, 487]     0.0%                    
543    eltwise_543                     |                  0.0%   |                  0.0%   [488]          0.0%                    
544    conversion_544                  |                  0.0%   |                  0.0%   [489]          0.0%                    
545    eltwise_545                     |                  0.0%   |                  0.0%   [490]          0.0%                    
546    eltwise_546                     |                  0.0%   |                  0.1%   [491]          0.0%                    
547    slice_547                       |                  0.0%   |                  0.0%   [418]          0.0%                    
548    gemm_548                        ||                 0.9%   ||                 9.4%   [419]          0.7%                    
549    eltwise_549                     |                  0.0%   |                  0.0%   [492]          0.0%                    
550    eltwise_550                     |                  0.0%   |                  0.0%   [493]          0.0%                    
551    eltwise_551                     |                  0.0%   |                  0.0%   [494]          0.0%                    
552    tfl_pseudo_qconst43             |                  0.0%   |                  0.0%   [495]          0.0%                    
553    nl_553                          |                  0.0%   |                  0.0%   [496]          0.0%                    
554    conversion_554                  |                  0.0%   |                  0.0%   [497]          0.0%                    
555    nl_555                          |                  0.0%   |                  0.0%   [498, 499]     0.0%                    
558    eltwise_558                     |                  0.0%   |                  0.0%   [500]          0.0%                    
559    conversion_559                  |                  0.0%   |                  0.0%   [501]          0.0%                    
560    eltwise_560                     |                  0.0%   |                  0.0%   [502]          0.0%                    
561    eltwise_561                     |                  0.0%   |                  0.1%   [503]          0.0%                    
562    slice_562                       |                  0.0%   |                  0.0%   [416]          0.0%                    
563    gemm_563                        ||                 0.9%   ||                 9.4%   [417]          0.7%                    
564    eltwise_564                     |                  0.0%   |                  0.0%   [504]          0.0%                    
565    eltwise_565                     |                  0.0%   |                  0.0%   [505]          0.0%                    
566    eltwise_566                     |                  0.0%   |                  0.0%   [506]          0.0%                    
567    tfl_pseudo_qconst44             |                  0.0%   |                  0.0%   [507]          0.0%                    
568    nl_568                          |                  0.0%   |                  0.0%   [508]          0.0%                    
569    conversion_569                  |                  0.0%   |                  0.0%   [509]          0.0%                    
570    nl_570                          |                  0.0%   |                  0.0%   [510, 511]     0.0%                    
573    eltwise_573                     |                  0.0%   |                  0.0%   [512]          0.0%                    
574    conversion_574                  |                  0.0%   |                  0.0%   [513]          0.0%                    
575    eltwise_575                     |                  0.0%   |                  0.0%   [514]          0.0%                    
576    eltwise_576                     |                  0.0%   |                  0.1%   [515]          0.0%                    
577    slice_577                       |                  0.0%   |                  0.0%   [414]          0.0%                    
578    gemm_578                        ||                 0.9%   ||                 9.4%   [415]          0.7%                    
579    eltwise_579                     |                  0.0%   |                  0.0%   [516]          0.0%                    
580    eltwise_580                     |                  0.0%   |                  0.0%   [517]          0.0%                    
581    eltwise_581                     |                  0.0%   |                  0.0%   [518]          0.0%                    
582    tfl_pseudo_qconst45             |                  0.0%   |                  0.0%   [519]          0.0%                    
583    nl_583                          |                  0.0%   |                  0.0%   [520]          0.0%                    
584    conversion_584                  |                  0.0%   |                  0.0%   [521]          0.0%                    
585    nl_585                          |                  0.0%   |                  0.0%   [522, 523]     0.0%                    
588    eltwise_588                     |                  0.0%   |                  0.0%   [524]          0.0%                    
589    conversion_589                  |                  0.0%   |                  0.0%   [525]          0.0%                    
590    eltwise_590                     |                  0.0%   |                  0.0%   [526]          0.0%                    
591    eltwise_591                     |                  0.0%   |                  0.1%   [527]          0.0%                    
592    slice_592                       |                  0.0%   |                  0.0%   [412]          0.0%                    
593    gemm_593                        ||                 0.9%   ||                 9.4%   [413]          0.9%                    
594    eltwise_594                     |                  0.0%   |                  0.0%   [528]          0.0%                    
595    eltwise_595                     |                  0.0%   |                  0.0%   [529]          0.0%                    
596    eltwise_596                     |                  0.0%   |                  0.0%   [530]          0.0%                    
597    tfl_pseudo_qconst46             |                  0.0%   |                  0.0%   [531]          0.0%                    
598    nl_598                          |                  0.0%   |                  0.0%   [532]          0.0%                    
599    conversion_599                  |                  0.0%   |                  0.0%   [533]          0.0%                    
600    nl_600                          |                  0.0%   |                  0.0%   [534, 535]     0.0%                    
603    eltwise_603                     |                  0.0%   |                  0.0%   [536]          0.0%                    
604    conversion_604                  |                  0.0%   |                  0.0%   [537]          0.0%                    
605    eltwise_605                     |                  0.0%   |                  0.0%   [538]          0.0%                    
606    eltwise_606                     |                  0.0%   |                  0.1%   [539]          0.0%                    
607    eltwise_607                     |                  0.0%   |                  0.0%   [540]          0.0%                    
608    eltwise_608                     |                  0.0%   |                  0.0%   [541]          0.0%                    
609    eltwise_609                     |                  0.0%   |                  0.0%   [542]          0.0%                    
610    tfl_pseudo_qconst47             |                  0.0%   |                  0.0%   [543]          0.0%                    
611    nl_611                          |                  0.0%   |                  0.0%   [544]          0.0%                    
612    conversion_612                  |                  0.0%   |                  0.0%   [545]          0.0%                    
613    nl_613                          |                  0.0%   |                  0.0%   [546, 547]     0.0%                    
616    concat_616                      |                  0.2%   |                  0.0%   [548, 549]     0.1%                    
617    reduce_617                      |                  0.1%   |                  0.0%   [550, 551]     0.1%                    
618    tfl_pseudo_qconst1              |                  0.1%   |                  0.9%   [552]          0.1%                    
619    nl_619                          |                  0.0%   |                  0.0%   [553]          0.0%                    
620    conversion_620                  |                  0.0%   |                  0.0%   [554]          0.0%   2.37607909e-03   
------ ------------------------------- ------------------------- ------------------------- ------------ -------- ---------------- 
macc=1,166,496 weights=110,508 act=32,560 ram_io=0

Evaluation report (summary)
---------------------------------------------------------------------------------------------------------------------------------------------------------------------------
Output              acc       rmse          mae           l2r           mean        std        nse             cos        tensor                                           
---------------------------------------------------------------------------------------------------------------------------------------------------------------------------
TARGET c-model #1   30.00%    0.190272465   0.099453121   0.997464001   -0.099453   0.163029   -24032.646858   0.394365   'conversion_620', 10 x uint8(1x10), m_id=[620]   
original model #1   30.00%    0.190025717   0.099414065   0.997448981   -0.099414   0.162762   -23970.351446   0.396168   'conversion_620', 10 x uint8(1x10), m_id=[620]   
X-cross #1          100.00%   0.002376079   0.000820312   0.012456102   -0.000039   0.002388   0.999788        0.999923   'conversion_620', 10 x uint8(1x10), m_id=[620]   
---------------------------------------------------------------------------------------------------------------------------------------------------------------------------

 acc  : Accuracy (class, axis=-1)
 rmse : Root Mean Squared Error
 mae  : Mean Absolute Error
 l2r  : L2 relative error
 mean : Mean error
 std  : Standard deviation error
 nse  : Nash-Sutcliffe efficiency criteria, bigger is better, best=1, range=(-inf, 1]
 cos  : COsine Similarity, bigger is better, best=1, range=(0, 1]
