ST Edge AI Core v2.2.0-20266 2adc00962
Created date          : 2025-08-06 15:30:43
Parameters            : validate -m .\snn_1000_5_V2.tflite --target stm32n6 --mode target --desc serial:921600 --memory-pool ./mypool_N6.json -vi .\val_data_10.npz --classifier -v 3

Exec/report summary (validate)
---------------------------------------------------------------------------------------------------------------------
model file         :   C:\ST\STEdgeAI\2.2\Projects\STM32N6570-DK\Applications\CM55_Validation\snn_1000_5_V2.tflite   
type               :   tflite                                                                                        
c_name             :   network                                                                                       
compression        :   lossless                                                                                      
options            :   allocate-inputs, allocate-outputs, multi-heaps                                                
optimization       :   balanced                                                                                      
target/series      :   stm32n6                                                                                       
memory pool        :   C:\ST\STEdgeAI\2.2\Projects\STM32N6570-DK\Applications\CM55_Validation\mypool_N6.json         
workspace dir      :   C:\ST\STEdgeAI\2.2\Projects\STM32N6570-DK\Applications\CM55_Validation\st_ai_ws               
output dir         :   C:\ST\STEdgeAI\2.2\Projects\STM32N6570-DK\Applications\CM55_Validation\st_ai_output           
vinput files       :   C:\ST\STEdgeAI\2.2\Projects\STM32N6570-DK\Applications\CM55_Validation\val_data_10.npz        
model_fmt          :   sa/sa per tensor                                                                              
model_name         :   snn_1000_5_V2                                                                                 
model_hash         :   0x4a06776e446f80a2a31fc5c6504c8bc3                                                            
params #           :   4,800,062 items (4.58 MiB)                                                                    
---------------------------------------------------------------------------------------------------------------------
input 1/1          :   'serving_default_keras_tensor0', f32(1x10x784), 30.62 KBytes, activations                     
output 1/1         :   'conversion_774', uint8(1x10), 10 Bytes, QLinear(0.003906250,0,uint8), activations            
macc               :   48,677,905                                                                                    
weights (ro)       :   4,804,248 B (4.58 MiB) (1 segment) / -14,396,000(-75.0%) vs float model                       
activations (rw)   :   52,000 B (50.78 KiB) (1 segment) *                                                            
ram (total)        :   52,000 B (50.78 KiB) = 52,000 + 0 + 0                                                         
---------------------------------------------------------------------------------------------------------------------
(*) 'input'/'output' buffers are allocated in the activations buffer
 
 Memory-pools summary (activations/ domain)
 --------------- -------- ------------------------- --------- 
 name            id       used                      buffer#   
 --------------- -------- ------------------------- --------- 
 POOL_INTERNAL   0        50.78 KiB (5.0%)          745       
 POOL_NPU        unused   -                         0         
 POOL_EXT        unused   -                         0         
 weights_array   3        4.58 MiB (480424800.0%)   66        
 --------------- -------- ------------------------- --------- 
 Warning: ['POOL_NPU', 'POOL_EXT'] memory pool s not used

Model name - snn_1000_5_V2
------ ---------------------------------------------- ------------------- --------------------- ----------- ------------------------------- --- --------------------- --------------------- ------------------------------------- 
m_id   layer (type,original)                          oshape              param/size                   macc                    connected to   | c_size                c_macc                c_type                                
------ ---------------------------------------------- ------------------- --------------------- ----------- ------------------------------- --- --------------------- --------------------- ------------------------------------- 
0      serving_default_keras_tensor0 (Input, )        [b:1,h:10,c:784]                                                                        |                       +15,680(+100.0%)      Conversion_[0]                        
       conversion_0 (Conversion, QUANTIZE)            [b:1,h:10,c:784]                               15,680   serving_default_keras_tensor0   |                       -15,680(-100.0%)      
------ ---------------------------------------------- ------------------- --------------------- ----------- ------------------------------- --- --------------------- --------------------- ------------------------------------- 
7      tfl_pseudo_qconst8 (Placeholder, )             [b:1000]            1,000/1,000                                                         | -1,000(-100.0%)                             
       eltwise_7_const (Placeholder, MUL)             [b:1,c:1000]        1,000/1,000                                                         | -1,000(-100.0%)                             
------ ---------------------------------------------- ------------------- --------------------- ----------- ------------------------------- --- --------------------- --------------------- ------------------------------------- 
8      slice_8 (Slice, STRIDED_SLICE)                 [b:1,h:1,c:784]                                                          conversion_0   |                                             Slice_[19]                            
       reshape_8_reshape (Reshape, STRIDED_SLICE)     [b:1,c:784]                                                                   slice_8   |                                             
------ ---------------------------------------------- ------------------- --------------------- ----------- ------------------------------- --- --------------------- --------------------- ------------------------------------- 
9      tfl_pseudo_qconst7 (Placeholder, )             [b:1000,c:784]      784,000/784,000                                                     | +4,000(+0.5%)         +785,000(+100.0%)     Dense_[20]                            
       gemm_9 (Gemm, FULLY_CONNECTED)                 [b:1,c:1000]                                  785,000               reshape_8_reshape   |                       -785,000(-100.0%)     
                                                                                                                         tfl_pseudo_qconst7   | 
------ ---------------------------------------------- ------------------- --------------------- ----------- ------------------------------- --- --------------------- --------------------- ------------------------------------- 
10     eltwise_10 (Eltwise, ADD)                      [b:1,c:1000]                                    1,000                          gemm_9   | +1,000(+100.0%)                             Eltwise/add_[21]                      
                                                                                                                            eltwise_7_const   | 
------ ---------------------------------------------- ------------------- --------------------- ----------- ------------------------------- --- --------------------- --------------------- ------------------------------------- 
11     tfl_pseudo_qconst6 (Placeholder, )             []                  1/1                                                                 |                       +1,000(+100.0%)       Eltwise/mul_[22]                      
       eltwise_11 (Eltwise, MUL)                      [b:1,c:1000]                                    1,000                      eltwise_10   |                       -1,000(-100.0%)       
                                                                                                                         tfl_pseudo_qconst6   | 
------ ---------------------------------------------- ------------------- --------------------- ----------- ------------------------------- --- --------------------- --------------------- ------------------------------------- 
12     eltwise_12 (Eltwise, ADD)                      [b:1,c:1000]                                    1,000                      eltwise_11   | +1(+100.0%)                                 Eltwise/add_[23]                      
                                                                                                                         tfl_pseudo_qconst6   | 
------ ---------------------------------------------- ------------------- --------------------- ----------- ------------------------------- --- --------------------- --------------------- ------------------------------------- 
13     tfl_pseudo_qconst9 (Placeholder, )             []                  1/1                                                                 |                       +1,000(+100.0%)       Eltwise/min_[24]                      
       eltwise_13 (Eltwise, MINIMUM)                  [b:1,c:1000]                                    1,000                      eltwise_12   |                       -1,000(-100.0%)       
                                                                                                                         tfl_pseudo_qconst9   | 
------ ---------------------------------------------- ------------------- --------------------- ----------- ------------------------------- --- --------------------- --------------------- ------------------------------------- 
14     nl_14 (Nonlinearity, RELU)                     [b:1,c:1000]                                    1,000                      eltwise_13   |                                             Nonlinearity_[25]                     
------ ---------------------------------------------- ------------------- --------------------- ----------- ------------------------------- --- --------------------- --------------------- ------------------------------------- 
15     conversion_15 (Conversion, DEQUANTIZE)         [b:1,c:1000]                                    2,000                           nl_14   |                                             Conversion_[26]                       
------ ---------------------------------------------- ------------------- --------------------- ----------- ------------------------------- --- --------------------- --------------------- ------------------------------------- 
16     nl_16 (Nonlinearity, ROUND)                    [b:1,c:1000]                                    2,000                   conversion_15   |                       +2,000(+100.0%)       Nonlinearity_/Conversion_[27, 28]     
------ ---------------------------------------------- ------------------- --------------------- ----------- ------------------------------- --- --------------------- --------------------- ------------------------------------- 
17     reshape_17 (Reshape, EXPAND_DIMS)              [b:1,h:1,c:1000]                                                                nl_16   |                                             
------ ---------------------------------------------- ------------------- --------------------- ----------- ------------------------------- --- --------------------- --------------------- ------------------------------------- 
18     conversion_18 (Conversion, QUANTIZE)           [b:1,h:1,c:1000]                                2,000                      reshape_17   |                       -2,000(-100.0%)       
------ ---------------------------------------------- ------------------- --------------------- ----------- ------------------------------- --- --------------------- --------------------- ------------------------------------- 
19     arith_constant (Placeholder, )                 []                  1/4                                                                 |                       +1(+100.0%)           Eltwise/sub_[29]                      
       eltwise_19 (Eltwise, SUB)                      [b:1,c:1000]                                        1                  arith_constant   |                       -1(-100.0%)           
                                                                                                                                      nl_16   | 
------ ---------------------------------------------- ------------------- --------------------- ----------- ------------------------------- --- --------------------- --------------------- ------------------------------------- 
20     conversion_20 (Conversion, QUANTIZE)           [b:1,c:1000]                                    2,000                      eltwise_19   |                                             Conversion_[30]                       
------ ---------------------------------------------- ------------------- --------------------- ----------- ------------------------------- --- --------------------- --------------------- ------------------------------------- 
21     eltwise_21 (Eltwise, MUL)                      [b:1,c:1000]                                    1,000                      eltwise_10   |                                             Eltwise/mul_[31]                      
                                                                                                                              conversion_20   | 
------ ---------------------------------------------- ------------------- --------------------- ----------- ------------------------------- --- --------------------- --------------------- ------------------------------------- 
22     eltwise_22 (Eltwise, MUL)                      [b:1,c:1000]                                    1,000                      eltwise_21   | +1,000(+100.0%)                             Eltwise/mul_[32]                      
                                                                                                                         tfl_pseudo_qconst8   | 
------ ---------------------------------------------- ------------------- --------------------- ----------- ------------------------------- --- --------------------- --------------------- ------------------------------------- 
23     slice_23 (Slice, STRIDED_SLICE)                [b:1,h:1,c:784]                                                          conversion_0   |                                             Slice_[17]                            
       reshape_23_reshape (Reshape, STRIDED_SLICE)    [b:1,c:784]                                                                  slice_23   |                                             
------ ---------------------------------------------- ------------------- --------------------- ----------- ------------------------------- --- --------------------- --------------------- ------------------------------------- 
24     gemm_24 (Gemm, FULLY_CONNECTED)                [b:1,c:1000]                                  785,000              reshape_23_reshape   | +788,000(+100.0%)                           Dense_[18]                            
                                                                                                                         tfl_pseudo_qconst7   | 
------ ---------------------------------------------- ------------------- --------------------- ----------- ------------------------------- --- --------------------- --------------------- ------------------------------------- 
25     slice_25 (Slice, STRIDED_SLICE)                [b:1,h:1,c:784]                                                          conversion_0   |                                             Slice_[15]                            
       reshape_25_reshape (Reshape, STRIDED_SLICE)    [b:1,c:784]                                                                  slice_25   |                                             
------ ---------------------------------------------- ------------------- --------------------- ----------- ------------------------------- --- --------------------- --------------------- ------------------------------------- 
26     gemm_26 (Gemm, FULLY_CONNECTED)                [b:1,c:1000]                                  785,000              reshape_25_reshape   | +788,000(+100.0%)                           Dense_[16]                            
                                                                                                                         tfl_pseudo_qconst7   | 
------ ---------------------------------------------- ------------------- --------------------- ----------- ------------------------------- --- --------------------- --------------------- ------------------------------------- 
27     eltwise_27 (Eltwise, ADD)                      [b:1,c:1000]                                    1,000                         gemm_26   |                                             Eltwise/add_[33]                      
                                                                                                                                 eltwise_22   | 
------ ---------------------------------------------- ------------------- --------------------- ----------- ------------------------------- --- --------------------- --------------------- ------------------------------------- 
28     eltwise_28 (Eltwise, MUL)                      [b:1,c:1000]                                    1,000                      eltwise_27   | +1(+100.0%)                                 Eltwise/mul_[34]                      
                                                                                                                         tfl_pseudo_qconst6   | 
------ ---------------------------------------------- ------------------- --------------------- ----------- ------------------------------- --- --------------------- --------------------- ------------------------------------- 
29     eltwise_29 (Eltwise, ADD)                      [b:1,c:1000]                                    1,000                      eltwise_28   | +1(+100.0%)                                 Eltwise/add_[35]                      
                                                                                                                         tfl_pseudo_qconst6   | 
------ ---------------------------------------------- ------------------- --------------------- ----------- ------------------------------- --- --------------------- --------------------- ------------------------------------- 
30     tfl_pseudo_qconst10 (Placeholder, )            []                  1/1                                                                 |                       +1,000(+100.0%)       Eltwise/min_[36]                      
       eltwise_30 (Eltwise, MINIMUM)                  [b:1,c:1000]                                    1,000                      eltwise_29   |                       -1,000(-100.0%)       
                                                                                                                        tfl_pseudo_qconst10   | 
------ ---------------------------------------------- ------------------- --------------------- ----------- ------------------------------- --- --------------------- --------------------- ------------------------------------- 
31     nl_31 (Nonlinearity, RELU)                     [b:1,c:1000]                                    1,000                      eltwise_30   |                                             Nonlinearity_[37]                     
------ ---------------------------------------------- ------------------- --------------------- ----------- ------------------------------- --- --------------------- --------------------- ------------------------------------- 
32     conversion_32 (Conversion, DEQUANTIZE)         [b:1,c:1000]                                    2,000                           nl_31   |                                             Conversion_[38]                       
------ ---------------------------------------------- ------------------- --------------------- ----------- ------------------------------- --- --------------------- --------------------- ------------------------------------- 
33     nl_33 (Nonlinearity, ROUND)                    [b:1,c:1000]                                    2,000                   conversion_32   |                       +2,000(+100.0%)       Nonlinearity_/Conversion_[39, 40]     
------ ---------------------------------------------- ------------------- --------------------- ----------- ------------------------------- --- --------------------- --------------------- ------------------------------------- 
34     reshape_34 (Reshape, EXPAND_DIMS)              [b:1,h:1,c:1000]                                                                nl_33   |                                             
------ ---------------------------------------------- ------------------- --------------------- ----------- ------------------------------- --- --------------------- --------------------- ------------------------------------- 
35     conversion_35 (Conversion, QUANTIZE)           [b:1,h:1,c:1000]                                2,000                      reshape_34   |                       -2,000(-100.0%)       
------ ---------------------------------------------- ------------------- --------------------- ----------- ------------------------------- --- --------------------- --------------------- ------------------------------------- 
36     eltwise_36 (Eltwise, SUB)                      [b:1,c:1000]                                        1                  arith_constant   | +4(+100.0%)                                 Eltwise/sub_[41]                      
                                                                                                                                      nl_33   | 
------ ---------------------------------------------- ------------------- --------------------- ----------- ------------------------------- --- --------------------- --------------------- ------------------------------------- 
37     conversion_37 (Conversion, QUANTIZE)           [b:1,c:1000]                                    2,000                      eltwise_36   |                                             Conversion_[42]                       
------ ---------------------------------------------- ------------------- --------------------- ----------- ------------------------------- --- --------------------- --------------------- ------------------------------------- 
38     eltwise_38 (Eltwise, MUL)                      [b:1,c:1000]                                    1,000                      eltwise_27   |                                             Eltwise/mul_[43]                      
                                                                                                                              conversion_37   | 
------ ---------------------------------------------- ------------------- --------------------- ----------- ------------------------------- --- --------------------- --------------------- ------------------------------------- 
39     eltwise_39 (Eltwise, MUL)                      [b:1,c:1000]                                    1,000                      eltwise_38   | +1,000(+100.0%)                             Eltwise/mul_[44]                      
                                                                                                                         tfl_pseudo_qconst8   | 
------ ---------------------------------------------- ------------------- --------------------- ----------- ------------------------------- --- --------------------- --------------------- ------------------------------------- 
40     slice_40 (Slice, STRIDED_SLICE)                [b:1,h:1,c:784]                                                          conversion_0   |                                             Slice_[13]                            
       reshape_40_reshape (Reshape, STRIDED_SLICE)    [b:1,c:784]                                                                  slice_40   |                                             
------ ---------------------------------------------- ------------------- --------------------- ----------- ------------------------------- --- --------------------- --------------------- ------------------------------------- 
41     gemm_41 (Gemm, FULLY_CONNECTED)                [b:1,c:1000]                                  785,000              reshape_40_reshape   | +788,000(+100.0%)                           Dense_[14]                            
                                                                                                                         tfl_pseudo_qconst7   | 
------ ---------------------------------------------- ------------------- --------------------- ----------- ------------------------------- --- --------------------- --------------------- ------------------------------------- 
42     eltwise_42 (Eltwise, ADD)                      [b:1,c:1000]                                    1,000                         gemm_41   |                                             Eltwise/add_[45]                      
                                                                                                                                 eltwise_39   | 
------ ---------------------------------------------- ------------------- --------------------- ----------- ------------------------------- --- --------------------- --------------------- ------------------------------------- 
43     eltwise_43 (Eltwise, MUL)                      [b:1,c:1000]                                    1,000                      eltwise_42   | +1(+100.0%)                                 Eltwise/mul_[46]                      
                                                                                                                         tfl_pseudo_qconst6   | 
------ ---------------------------------------------- ------------------- --------------------- ----------- ------------------------------- --- --------------------- --------------------- ------------------------------------- 
44     eltwise_44 (Eltwise, ADD)                      [b:1,c:1000]                                    1,000                      eltwise_43   | +1(+100.0%)                                 Eltwise/add_[47]                      
                                                                                                                         tfl_pseudo_qconst6   | 
------ ---------------------------------------------- ------------------- --------------------- ----------- ------------------------------- --- --------------------- --------------------- ------------------------------------- 
45     tfl_pseudo_qconst11 (Placeholder, )            []                  1/1                                                                 |                       +1,000(+100.0%)       Eltwise/min_[48]                      
       eltwise_45 (Eltwise, MINIMUM)                  [b:1,c:1000]                                    1,000                      eltwise_44   |                       -1,000(-100.0%)       
                                                                                                                        tfl_pseudo_qconst11   | 
------ ---------------------------------------------- ------------------- --------------------- ----------- ------------------------------- --- --------------------- --------------------- ------------------------------------- 
46     nl_46 (Nonlinearity, RELU)                     [b:1,c:1000]                                    1,000                      eltwise_45   |                                             Nonlinearity_[49]                     
------ ---------------------------------------------- ------------------- --------------------- ----------- ------------------------------- --- --------------------- --------------------- ------------------------------------- 
47     conversion_47 (Conversion, DEQUANTIZE)         [b:1,c:1000]                                    2,000                           nl_46   |                                             Conversion_[50]                       
------ ---------------------------------------------- ------------------- --------------------- ----------- ------------------------------- --- --------------------- --------------------- ------------------------------------- 
48     nl_48 (Nonlinearity, ROUND)                    [b:1,c:1000]                                    2,000                   conversion_47   |                       +2,000(+100.0%)       Nonlinearity_/Conversion_[51, 52]     
------ ---------------------------------------------- ------------------- --------------------- ----------- ------------------------------- --- --------------------- --------------------- ------------------------------------- 
49     reshape_49 (Reshape, EXPAND_DIMS)              [b:1,h:1,c:1000]                                                                nl_48   |                                             
------ ---------------------------------------------- ------------------- --------------------- ----------- ------------------------------- --- --------------------- --------------------- ------------------------------------- 
50     conversion_50 (Conversion, QUANTIZE)           [b:1,h:1,c:1000]                                2,000                      reshape_49   |                       -2,000(-100.0%)       
------ ---------------------------------------------- ------------------- --------------------- ----------- ------------------------------- --- --------------------- --------------------- ------------------------------------- 
51     eltwise_51 (Eltwise, SUB)                      [b:1,c:1000]                                        1                  arith_constant   | +4(+100.0%)                                 Eltwise/sub_[53]                      
                                                                                                                                      nl_48   | 
------ ---------------------------------------------- ------------------- --------------------- ----------- ------------------------------- --- --------------------- --------------------- ------------------------------------- 
52     conversion_52 (Conversion, QUANTIZE)           [b:1,c:1000]                                    2,000                      eltwise_51   |                                             Conversion_[54]                       
------ ---------------------------------------------- ------------------- --------------------- ----------- ------------------------------- --- --------------------- --------------------- ------------------------------------- 
53     eltwise_53 (Eltwise, MUL)                      [b:1,c:1000]                                    1,000                      eltwise_42   |                                             Eltwise/mul_[55]                      
                                                                                                                              conversion_52   | 
------ ---------------------------------------------- ------------------- --------------------- ----------- ------------------------------- --- --------------------- --------------------- ------------------------------------- 
54     eltwise_54 (Eltwise, MUL)                      [b:1,c:1000]                                    1,000                      eltwise_53   | +1,000(+100.0%)                             Eltwise/mul_[56]                      
                                                                                                                         tfl_pseudo_qconst8   | 
------ ---------------------------------------------- ------------------- --------------------- ----------- ------------------------------- --- --------------------- --------------------- ------------------------------------- 
55     slice_55 (Slice, STRIDED_SLICE)                [b:1,h:1,c:784]                                                          conversion_0   |                                             Slice_[11]                            
       reshape_55_reshape (Reshape, STRIDED_SLICE)    [b:1,c:784]                                                                  slice_55   |                                             
------ ---------------------------------------------- ------------------- --------------------- ----------- ------------------------------- --- --------------------- --------------------- ------------------------------------- 
56     gemm_56 (Gemm, FULLY_CONNECTED)                [b:1,c:1000]                                  785,000              reshape_55_reshape   | +788,000(+100.0%)                           Dense_[12]                            
                                                                                                                         tfl_pseudo_qconst7   | 
------ ---------------------------------------------- ------------------- --------------------- ----------- ------------------------------- --- --------------------- --------------------- ------------------------------------- 
57     eltwise_57 (Eltwise, ADD)                      [b:1,c:1000]                                    1,000                         gemm_56   |                                             Eltwise/add_[57]                      
                                                                                                                                 eltwise_54   | 
------ ---------------------------------------------- ------------------- --------------------- ----------- ------------------------------- --- --------------------- --------------------- ------------------------------------- 
58     eltwise_58 (Eltwise, MUL)                      [b:1,c:1000]                                    1,000                      eltwise_57   | +1(+100.0%)                                 Eltwise/mul_[58]                      
                                                                                                                         tfl_pseudo_qconst6   | 
------ ---------------------------------------------- ------------------- --------------------- ----------- ------------------------------- --- --------------------- --------------------- ------------------------------------- 
59     eltwise_59 (Eltwise, ADD)                      [b:1,c:1000]                                    1,000                      eltwise_58   | +1(+100.0%)                                 Eltwise/add_[59]                      
                                                                                                                         tfl_pseudo_qconst6   | 
------ ---------------------------------------------- ------------------- --------------------- ----------- ------------------------------- --- --------------------- --------------------- ------------------------------------- 
60     tfl_pseudo_qconst12 (Placeholder, )            []                  1/1                                                                 |                       +1,000(+100.0%)       Eltwise/min_[60]                      
       eltwise_60 (Eltwise, MINIMUM)                  [b:1,c:1000]                                    1,000                      eltwise_59   |                       -1,000(-100.0%)       
                                                                                                                        tfl_pseudo_qconst12   | 
------ ---------------------------------------------- ------------------- --------------------- ----------- ------------------------------- --- --------------------- --------------------- ------------------------------------- 
61     nl_61 (Nonlinearity, RELU)                     [b:1,c:1000]                                    1,000                      eltwise_60   |                                             Nonlinearity_[61]                     
------ ---------------------------------------------- ------------------- --------------------- ----------- ------------------------------- --- --------------------- --------------------- ------------------------------------- 
62     conversion_62 (Conversion, DEQUANTIZE)         [b:1,c:1000]                                    2,000                           nl_61   |                                             Conversion_[62]                       
------ ---------------------------------------------- ------------------- --------------------- ----------- ------------------------------- --- --------------------- --------------------- ------------------------------------- 
63     nl_63 (Nonlinearity, ROUND)                    [b:1,c:1000]                                    2,000                   conversion_62   |                       +2,000(+100.0%)       Nonlinearity_/Conversion_[63, 64]     
------ ---------------------------------------------- ------------------- --------------------- ----------- ------------------------------- --- --------------------- --------------------- ------------------------------------- 
64     reshape_64 (Reshape, EXPAND_DIMS)              [b:1,h:1,c:1000]                                                                nl_63   |                                             
------ ---------------------------------------------- ------------------- --------------------- ----------- ------------------------------- --- --------------------- --------------------- ------------------------------------- 
65     conversion_65 (Conversion, QUANTIZE)           [b:1,h:1,c:1000]                                2,000                      reshape_64   |                       -2,000(-100.0%)       
------ ---------------------------------------------- ------------------- --------------------- ----------- ------------------------------- --- --------------------- --------------------- ------------------------------------- 
66     eltwise_66 (Eltwise, SUB)                      [b:1,c:1000]                                        1                  arith_constant   | +4(+100.0%)                                 Eltwise/sub_[65]                      
                                                                                                                                      nl_63   | 
------ ---------------------------------------------- ------------------- --------------------- ----------- ------------------------------- --- --------------------- --------------------- ------------------------------------- 
67     conversion_67 (Conversion, QUANTIZE)           [b:1,c:1000]                                    2,000                      eltwise_66   |                                             Conversion_[66]                       
------ ---------------------------------------------- ------------------- --------------------- ----------- ------------------------------- --- --------------------- --------------------- ------------------------------------- 
68     eltwise_68 (Eltwise, MUL)                      [b:1,c:1000]                                    1,000                      eltwise_57   |                                             Eltwise/mul_[67]                      
                                                                                                                              conversion_67   | 
------ ---------------------------------------------- ------------------- --------------------- ----------- ------------------------------- --- --------------------- --------------------- ------------------------------------- 
69     eltwise_69 (Eltwise, MUL)                      [b:1,c:1000]                                    1,000                      eltwise_68   | +1,000(+100.0%)                             Eltwise/mul_[68]                      
                                                                                                                         tfl_pseudo_qconst8   | 
------ ---------------------------------------------- ------------------- --------------------- ----------- ------------------------------- --- --------------------- --------------------- ------------------------------------- 
70     slice_70 (Slice, STRIDED_SLICE)                [b:1,h:1,c:784]                                                          conversion_0   |                                             Slice_[9]                             
       reshape_70_reshape (Reshape, STRIDED_SLICE)    [b:1,c:784]                                                                  slice_70   |                                             
------ ---------------------------------------------- ------------------- --------------------- ----------- ------------------------------- --- --------------------- --------------------- ------------------------------------- 
71     gemm_71 (Gemm, FULLY_CONNECTED)                [b:1,c:1000]                                  785,000              reshape_70_reshape   | +788,000(+100.0%)                           Dense_[10]                            
                                                                                                                         tfl_pseudo_qconst7   | 
------ ---------------------------------------------- ------------------- --------------------- ----------- ------------------------------- --- --------------------- --------------------- ------------------------------------- 
72     eltwise_72 (Eltwise, ADD)                      [b:1,c:1000]                                    1,000                         gemm_71   |                                             Eltwise/add_[69]                      
                                                                                                                                 eltwise_69   | 
------ ---------------------------------------------- ------------------- --------------------- ----------- ------------------------------- --- --------------------- --------------------- ------------------------------------- 
73     eltwise_73 (Eltwise, MUL)                      [b:1,c:1000]                                    1,000                      eltwise_72   | +1(+100.0%)                                 Eltwise/mul_[70]                      
                                                                                                                         tfl_pseudo_qconst6   | 
------ ---------------------------------------------- ------------------- --------------------- ----------- ------------------------------- --- --------------------- --------------------- ------------------------------------- 
74     eltwise_74 (Eltwise, ADD)                      [b:1,c:1000]                                    1,000                      eltwise_73   | +1(+100.0%)                                 Eltwise/add_[71]                      
                                                                                                                         tfl_pseudo_qconst6   | 
------ ---------------------------------------------- ------------------- --------------------- ----------- ------------------------------- --- --------------------- --------------------- ------------------------------------- 
75     tfl_pseudo_qconst13 (Placeholder, )            []                  1/1                                                                 |                       +1,000(+100.0%)       Eltwise/min_[72]                      
       eltwise_75 (Eltwise, MINIMUM)                  [b:1,c:1000]                                    1,000                      eltwise_74   |                       -1,000(-100.0%)       
                                                                                                                        tfl_pseudo_qconst13   | 
------ ---------------------------------------------- ------------------- --------------------- ----------- ------------------------------- --- --------------------- --------------------- ------------------------------------- 
76     nl_76 (Nonlinearity, RELU)                     [b:1,c:1000]                                    1,000                      eltwise_75   |                                             Nonlinearity_[73]                     
------ ---------------------------------------------- ------------------- --------------------- ----------- ------------------------------- --- --------------------- --------------------- ------------------------------------- 
77     conversion_77 (Conversion, DEQUANTIZE)         [b:1,c:1000]                                    2,000                           nl_76   |                                             Conversion_[74]                       
------ ---------------------------------------------- ------------------- --------------------- ----------- ------------------------------- --- --------------------- --------------------- ------------------------------------- 
78     nl_78 (Nonlinearity, ROUND)                    [b:1,c:1000]                                    2,000                   conversion_77   |                       +2,000(+100.0%)       Nonlinearity_/Conversion_[75, 76]     
------ ---------------------------------------------- ------------------- --------------------- ----------- ------------------------------- --- --------------------- --------------------- ------------------------------------- 
79     reshape_79 (Reshape, EXPAND_DIMS)              [b:1,h:1,c:1000]                                                                nl_78   |                                             
------ ---------------------------------------------- ------------------- --------------------- ----------- ------------------------------- --- --------------------- --------------------- ------------------------------------- 
80     conversion_80 (Conversion, QUANTIZE)           [b:1,h:1,c:1000]                                2,000                      reshape_79   |                       -2,000(-100.0%)       
------ ---------------------------------------------- ------------------- --------------------- ----------- ------------------------------- --- --------------------- --------------------- ------------------------------------- 
81     eltwise_81 (Eltwise, SUB)                      [b:1,c:1000]                                        1                  arith_constant   | +4(+100.0%)                                 Eltwise/sub_[77]                      
                                                                                                                                      nl_78   | 
------ ---------------------------------------------- ------------------- --------------------- ----------- ------------------------------- --- --------------------- --------------------- ------------------------------------- 
82     conversion_82 (Conversion, QUANTIZE)           [b:1,c:1000]                                    2,000                      eltwise_81   |                                             Conversion_[78]                       
------ ---------------------------------------------- ------------------- --------------------- ----------- ------------------------------- --- --------------------- --------------------- ------------------------------------- 
83     eltwise_83 (Eltwise, MUL)                      [b:1,c:1000]                                    1,000                      eltwise_72   |                                             Eltwise/mul_[79]                      
                                                                                                                              conversion_82   | 
------ ---------------------------------------------- ------------------- --------------------- ----------- ------------------------------- --- --------------------- --------------------- ------------------------------------- 
84     eltwise_84 (Eltwise, MUL)                      [b:1,c:1000]                                    1,000                      eltwise_83   | +1,000(+100.0%)                             Eltwise/mul_[80]                      
                                                                                                                         tfl_pseudo_qconst8   | 
------ ---------------------------------------------- ------------------- --------------------- ----------- ------------------------------- --- --------------------- --------------------- ------------------------------------- 
85     slice_85 (Slice, STRIDED_SLICE)                [b:1,h:1,c:784]                                                          conversion_0   |                                             Slice_[7]                             
       reshape_85_reshape (Reshape, STRIDED_SLICE)    [b:1,c:784]                                                                  slice_85   |                                             
------ ---------------------------------------------- ------------------- --------------------- ----------- ------------------------------- --- --------------------- --------------------- ------------------------------------- 
86     gemm_86 (Gemm, FULLY_CONNECTED)                [b:1,c:1000]                                  785,000              reshape_85_reshape   | +788,000(+100.0%)                           Dense_[8]                             
                                                                                                                         tfl_pseudo_qconst7   | 
------ ---------------------------------------------- ------------------- --------------------- ----------- ------------------------------- --- --------------------- --------------------- ------------------------------------- 
87     eltwise_87 (Eltwise, ADD)                      [b:1,c:1000]                                    1,000                         gemm_86   |                                             Eltwise/add_[81]                      
                                                                                                                                 eltwise_84   | 
------ ---------------------------------------------- ------------------- --------------------- ----------- ------------------------------- --- --------------------- --------------------- ------------------------------------- 
88     eltwise_88 (Eltwise, MUL)                      [b:1,c:1000]                                    1,000                      eltwise_87   | +1(+100.0%)                                 Eltwise/mul_[82]                      
                                                                                                                         tfl_pseudo_qconst6   | 
------ ---------------------------------------------- ------------------- --------------------- ----------- ------------------------------- --- --------------------- --------------------- ------------------------------------- 
89     eltwise_89 (Eltwise, ADD)                      [b:1,c:1000]                                    1,000                      eltwise_88   | +1(+100.0%)                                 Eltwise/add_[83]                      
                                                                                                                         tfl_pseudo_qconst6   | 
------ ---------------------------------------------- ------------------- --------------------- ----------- ------------------------------- --- --------------------- --------------------- ------------------------------------- 
90     tfl_pseudo_qconst14 (Placeholder, )            []                  1/1                                                                 |                       +1,000(+100.0%)       Eltwise/min_[84]                      
       eltwise_90 (Eltwise, MINIMUM)                  [b:1,c:1000]                                    1,000                      eltwise_89   |                       -1,000(-100.0%)       
                                                                                                                        tfl_pseudo_qconst14   | 
------ ---------------------------------------------- ------------------- --------------------- ----------- ------------------------------- --- --------------------- --------------------- ------------------------------------- 
91     nl_91 (Nonlinearity, RELU)                     [b:1,c:1000]                                    1,000                      eltwise_90   |                                             Nonlinearity_[85]                     
------ ---------------------------------------------- ------------------- --------------------- ----------- ------------------------------- --- --------------------- --------------------- ------------------------------------- 
92     conversion_92 (Conversion, DEQUANTIZE)         [b:1,c:1000]                                    2,000                           nl_91   |                                             Conversion_[86]                       
------ ---------------------------------------------- ------------------- --------------------- ----------- ------------------------------- --- --------------------- --------------------- ------------------------------------- 
93     nl_93 (Nonlinearity, ROUND)                    [b:1,c:1000]                                    2,000                   conversion_92   |                       +2,000(+100.0%)       Nonlinearity_/Conversion_[87, 88]     
------ ---------------------------------------------- ------------------- --------------------- ----------- ------------------------------- --- --------------------- --------------------- ------------------------------------- 
94     reshape_94 (Reshape, EXPAND_DIMS)              [b:1,h:1,c:1000]                                                                nl_93   |                                             
------ ---------------------------------------------- ------------------- --------------------- ----------- ------------------------------- --- --------------------- --------------------- ------------------------------------- 
95     conversion_95 (Conversion, QUANTIZE)           [b:1,h:1,c:1000]                                2,000                      reshape_94   |                       -2,000(-100.0%)       
------ ---------------------------------------------- ------------------- --------------------- ----------- ------------------------------- --- --------------------- --------------------- ------------------------------------- 
96     eltwise_96 (Eltwise, SUB)                      [b:1,c:1000]                                        1                  arith_constant   | +4(+100.0%)                                 Eltwise/sub_[89]                      
                                                                                                                                      nl_93   | 
------ ---------------------------------------------- ------------------- --------------------- ----------- ------------------------------- --- --------------------- --------------------- ------------------------------------- 
97     conversion_97 (Conversion, QUANTIZE)           [b:1,c:1000]                                    2,000                      eltwise_96   |                                             Conversion_[90]                       
------ ---------------------------------------------- ------------------- --------------------- ----------- ------------------------------- --- --------------------- --------------------- ------------------------------------- 
98     eltwise_98 (Eltwise, MUL)                      [b:1,c:1000]                                    1,000                      eltwise_87   |                                             Eltwise/mul_[91]                      
                                                                                                                              conversion_97   | 
------ ---------------------------------------------- ------------------- --------------------- ----------- ------------------------------- --- --------------------- --------------------- ------------------------------------- 
99     eltwise_99 (Eltwise, MUL)                      [b:1,c:1000]                                    1,000                      eltwise_98   | +1,000(+100.0%)                             Eltwise/mul_[92]                      
                                                                                                                         tfl_pseudo_qconst8   | 
------ ---------------------------------------------- ------------------- --------------------- ----------- ------------------------------- --- --------------------- --------------------- ------------------------------------- 
100    slice_100 (Slice, STRIDED_SLICE)               [b:1,h:1,c:784]                                                          conversion_0   |                                             Slice_[5]                             
       reshape_100_reshape (Reshape, STRIDED_SLICE)   [b:1,c:784]                                                                 slice_100   |                                             
------ ---------------------------------------------- ------------------- --------------------- ----------- ------------------------------- --- --------------------- --------------------- ------------------------------------- 
101    gemm_101 (Gemm, FULLY_CONNECTED)               [b:1,c:1000]                                  785,000             reshape_100_reshape   | +788,000(+100.0%)                           Dense_[6]                             
                                                                                                                         tfl_pseudo_qconst7   | 
------ ---------------------------------------------- ------------------- --------------------- ----------- ------------------------------- --- --------------------- --------------------- ------------------------------------- 
102    eltwise_102 (Eltwise, ADD)                     [b:1,c:1000]                                    1,000                        gemm_101   |                                             Eltwise/add_[93]                      
                                                                                                                                 eltwise_99   | 
------ ---------------------------------------------- ------------------- --------------------- ----------- ------------------------------- --- --------------------- --------------------- ------------------------------------- 
103    eltwise_103 (Eltwise, MUL)                     [b:1,c:1000]                                    1,000                     eltwise_102   | +1(+100.0%)                                 Eltwise/mul_[94]                      
                                                                                                                         tfl_pseudo_qconst6   | 
------ ---------------------------------------------- ------------------- --------------------- ----------- ------------------------------- --- --------------------- --------------------- ------------------------------------- 
104    eltwise_104 (Eltwise, ADD)                     [b:1,c:1000]                                    1,000                     eltwise_103   | +1(+100.0%)                                 Eltwise/add_[95]                      
                                                                                                                         tfl_pseudo_qconst6   | 
------ ---------------------------------------------- ------------------- --------------------- ----------- ------------------------------- --- --------------------- --------------------- ------------------------------------- 
105    tfl_pseudo_qconst15 (Placeholder, )            []                  1/1                                                                 |                       +1,000(+100.0%)       Eltwise/min_[96]                      
       eltwise_105 (Eltwise, MINIMUM)                 [b:1,c:1000]                                    1,000                     eltwise_104   |                       -1,000(-100.0%)       
                                                                                                                        tfl_pseudo_qconst15   | 
------ ---------------------------------------------- ------------------- --------------------- ----------- ------------------------------- --- --------------------- --------------------- ------------------------------------- 
106    nl_106 (Nonlinearity, RELU)                    [b:1,c:1000]                                    1,000                     eltwise_105   |                                             Nonlinearity_[97]                     
------ ---------------------------------------------- ------------------- --------------------- ----------- ------------------------------- --- --------------------- --------------------- ------------------------------------- 
107    conversion_107 (Conversion, DEQUANTIZE)        [b:1,c:1000]                                    2,000                          nl_106   |                                             Conversion_[98]                       
------ ---------------------------------------------- ------------------- --------------------- ----------- ------------------------------- --- --------------------- --------------------- ------------------------------------- 
108    nl_108 (Nonlinearity, ROUND)                   [b:1,c:1000]                                    2,000                  conversion_107   |                       +2,000(+100.0%)       Nonlinearity_/Conversion_[99, 100]    
------ ---------------------------------------------- ------------------- --------------------- ----------- ------------------------------- --- --------------------- --------------------- ------------------------------------- 
109    reshape_109 (Reshape, EXPAND_DIMS)             [b:1,h:1,c:1000]                                                               nl_108   |                                             
------ ---------------------------------------------- ------------------- --------------------- ----------- ------------------------------- --- --------------------- --------------------- ------------------------------------- 
110    conversion_110 (Conversion, QUANTIZE)          [b:1,h:1,c:1000]                                2,000                     reshape_109   |                       -2,000(-100.0%)       
------ ---------------------------------------------- ------------------- --------------------- ----------- ------------------------------- --- --------------------- --------------------- ------------------------------------- 
111    eltwise_111 (Eltwise, SUB)                     [b:1,c:1000]                                        1                  arith_constant   | +4(+100.0%)                                 Eltwise/sub_[101]                     
                                                                                                                                     nl_108   | 
------ ---------------------------------------------- ------------------- --------------------- ----------- ------------------------------- --- --------------------- --------------------- ------------------------------------- 
112    conversion_112 (Conversion, QUANTIZE)          [b:1,c:1000]                                    2,000                     eltwise_111   |                                             Conversion_[102]                      
------ ---------------------------------------------- ------------------- --------------------- ----------- ------------------------------- --- --------------------- --------------------- ------------------------------------- 
113    eltwise_113 (Eltwise, MUL)                     [b:1,c:1000]                                    1,000                     eltwise_102   |                                             Eltwise/mul_[103]                     
                                                                                                                             conversion_112   | 
------ ---------------------------------------------- ------------------- --------------------- ----------- ------------------------------- --- --------------------- --------------------- ------------------------------------- 
114    eltwise_114 (Eltwise, MUL)                     [b:1,c:1000]                                    1,000                     eltwise_113   | +1,000(+100.0%)                             Eltwise/mul_[104]                     
                                                                                                                         tfl_pseudo_qconst8   | 
------ ---------------------------------------------- ------------------- --------------------- ----------- ------------------------------- --- --------------------- --------------------- ------------------------------------- 
115    slice_115 (Slice, STRIDED_SLICE)               [b:1,h:1,c:784]                                                          conversion_0   |                                             Slice_[3]                             
       reshape_115_reshape (Reshape, STRIDED_SLICE)   [b:1,c:784]                                                                 slice_115   |                                             
------ ---------------------------------------------- ------------------- --------------------- ----------- ------------------------------- --- --------------------- --------------------- ------------------------------------- 
116    gemm_116 (Gemm, FULLY_CONNECTED)               [b:1,c:1000]                                  785,000             reshape_115_reshape   | +788,000(+100.0%)                           Dense_[4]                             
                                                                                                                         tfl_pseudo_qconst7   | 
------ ---------------------------------------------- ------------------- --------------------- ----------- ------------------------------- --- --------------------- --------------------- ------------------------------------- 
117    eltwise_117 (Eltwise, ADD)                     [b:1,c:1000]                                    1,000                        gemm_116   |                                             Eltwise/add_[105]                     
                                                                                                                                eltwise_114   | 
------ ---------------------------------------------- ------------------- --------------------- ----------- ------------------------------- --- --------------------- --------------------- ------------------------------------- 
118    eltwise_118 (Eltwise, MUL)                     [b:1,c:1000]                                    1,000                     eltwise_117   | +1(+100.0%)                                 Eltwise/mul_[106]                     
                                                                                                                         tfl_pseudo_qconst6   | 
------ ---------------------------------------------- ------------------- --------------------- ----------- ------------------------------- --- --------------------- --------------------- ------------------------------------- 
119    eltwise_119 (Eltwise, ADD)                     [b:1,c:1000]                                    1,000                     eltwise_118   | +1(+100.0%)                                 Eltwise/add_[107]                     
                                                                                                                         tfl_pseudo_qconst6   | 
------ ---------------------------------------------- ------------------- --------------------- ----------- ------------------------------- --- --------------------- --------------------- ------------------------------------- 
120    tfl_pseudo_qconst16 (Placeholder, )            []                  1/1                                                                 |                       +1,000(+100.0%)       Eltwise/min_[108]                     
       eltwise_120 (Eltwise, MINIMUM)                 [b:1,c:1000]                                    1,000                     eltwise_119   |                       -1,000(-100.0%)       
                                                                                                                        tfl_pseudo_qconst16   | 
------ ---------------------------------------------- ------------------- --------------------- ----------- ------------------------------- --- --------------------- --------------------- ------------------------------------- 
121    nl_121 (Nonlinearity, RELU)                    [b:1,c:1000]                                    1,000                     eltwise_120   |                                             Nonlinearity_[109]                    
------ ---------------------------------------------- ------------------- --------------------- ----------- ------------------------------- --- --------------------- --------------------- ------------------------------------- 
122    conversion_122 (Conversion, DEQUANTIZE)        [b:1,c:1000]                                    2,000                          nl_121   |                                             Conversion_[110]                      
------ ---------------------------------------------- ------------------- --------------------- ----------- ------------------------------- --- --------------------- --------------------- ------------------------------------- 
123    nl_123 (Nonlinearity, ROUND)                   [b:1,c:1000]                                    2,000                  conversion_122   |                       +2,000(+100.0%)       Nonlinearity_/Conversion_[111, 112]   
------ ---------------------------------------------- ------------------- --------------------- ----------- ------------------------------- --- --------------------- --------------------- ------------------------------------- 
124    reshape_124 (Reshape, EXPAND_DIMS)             [b:1,h:1,c:1000]                                                               nl_123   |                                             
------ ---------------------------------------------- ------------------- --------------------- ----------- ------------------------------- --- --------------------- --------------------- ------------------------------------- 
125    conversion_125 (Conversion, QUANTIZE)          [b:1,h:1,c:1000]                                2,000                     reshape_124   |                       -2,000(-100.0%)       
------ ---------------------------------------------- ------------------- --------------------- ----------- ------------------------------- --- --------------------- --------------------- ------------------------------------- 
126    eltwise_126 (Eltwise, SUB)                     [b:1,c:1000]                                        1                  arith_constant   | +4(+100.0%)                                 Eltwise/sub_[113]                     
                                                                                                                                     nl_123   | 
------ ---------------------------------------------- ------------------- --------------------- ----------- ------------------------------- --- --------------------- --------------------- ------------------------------------- 
127    conversion_127 (Conversion, QUANTIZE)          [b:1,c:1000]                                    2,000                     eltwise_126   |                                             Conversion_[114]                      
------ ---------------------------------------------- ------------------- --------------------- ----------- ------------------------------- --- --------------------- --------------------- ------------------------------------- 
128    eltwise_128 (Eltwise, MUL)                     [b:1,c:1000]                                    1,000                     eltwise_117   |                                             Eltwise/mul_[115]                     
                                                                                                                             conversion_127   | 
------ ---------------------------------------------- ------------------- --------------------- ----------- ------------------------------- --- --------------------- --------------------- ------------------------------------- 
129    eltwise_129 (Eltwise, MUL)                     [b:1,c:1000]                                    1,000                     eltwise_128   | +1,000(+100.0%)                             Eltwise/mul_[116]                     
                                                                                                                         tfl_pseudo_qconst8   | 
------ ---------------------------------------------- ------------------- --------------------- ----------- ------------------------------- --- --------------------- --------------------- ------------------------------------- 
130    slice_130 (Slice, STRIDED_SLICE)               [b:1,h:1,c:784]                                                          conversion_0   |                                             Slice_[1]                             
       reshape_130_reshape (Reshape, STRIDED_SLICE)   [b:1,c:784]                                                                 slice_130   |                                             
------ ---------------------------------------------- ------------------- --------------------- ----------- ------------------------------- --- --------------------- --------------------- ------------------------------------- 
131    gemm_131 (Gemm, FULLY_CONNECTED)               [b:1,c:1000]                                  785,000             reshape_130_reshape   | +788,000(+100.0%)                           Dense_[2]                             
                                                                                                                         tfl_pseudo_qconst7   | 
------ ---------------------------------------------- ------------------- --------------------- ----------- ------------------------------- --- --------------------- --------------------- ------------------------------------- 
132    eltwise_132 (Eltwise, ADD)                     [b:1,c:1000]                                    1,000                        gemm_131   |                                             Eltwise/add_[117]                     
                                                                                                                                eltwise_129   | 
------ ---------------------------------------------- ------------------- --------------------- ----------- ------------------------------- --- --------------------- --------------------- ------------------------------------- 
133    eltwise_133 (Eltwise, MUL)                     [b:1,c:1000]                                    1,000                     eltwise_132   | +1(+100.0%)                                 Eltwise/mul_[118]                     
                                                                                                                         tfl_pseudo_qconst6   | 
------ ---------------------------------------------- ------------------- --------------------- ----------- ------------------------------- --- --------------------- --------------------- ------------------------------------- 
134    eltwise_134 (Eltwise, ADD)                     [b:1,c:1000]                                    1,000                     eltwise_133   | +1(+100.0%)                                 Eltwise/add_[119]                     
                                                                                                                         tfl_pseudo_qconst6   | 
------ ---------------------------------------------- ------------------- --------------------- ----------- ------------------------------- --- --------------------- --------------------- ------------------------------------- 
135    tfl_pseudo_qconst17 (Placeholder, )            []                  1/1                                                                 |                       +1,000(+100.0%)       Eltwise/min_[120]                     
       eltwise_135 (Eltwise, MINIMUM)                 [b:1,c:1000]                                    1,000                     eltwise_134   |                       -1,000(-100.0%)       
                                                                                                                        tfl_pseudo_qconst17   | 
------ ---------------------------------------------- ------------------- --------------------- ----------- ------------------------------- --- --------------------- --------------------- ------------------------------------- 
136    nl_136 (Nonlinearity, RELU)                    [b:1,c:1000]                                    1,000                     eltwise_135   |                                             Nonlinearity_[121]                    
------ ---------------------------------------------- ------------------- --------------------- ----------- ------------------------------- --- --------------------- --------------------- ------------------------------------- 
137    conversion_137 (Conversion, DEQUANTIZE)        [b:1,c:1000]                                    2,000                          nl_136   |                                             Conversion_[122]                      
------ ---------------------------------------------- ------------------- --------------------- ----------- ------------------------------- --- --------------------- --------------------- ------------------------------------- 
138    nl_138 (Nonlinearity, ROUND)                   [b:1,c:1000]                                    2,000                  conversion_137   |                       +2,000(+100.0%)       Nonlinearity_/Conversion_[123, 124]   
------ ---------------------------------------------- ------------------- --------------------- ----------- ------------------------------- --- --------------------- --------------------- ------------------------------------- 
139    reshape_139 (Reshape, EXPAND_DIMS)             [b:1,h:1,c:1000]                                                               nl_138   |                                             
------ ---------------------------------------------- ------------------- --------------------- ----------- ------------------------------- --- --------------------- --------------------- ------------------------------------- 
140    conversion_140 (Conversion, QUANTIZE)          [b:1,h:1,c:1000]                                2,000                     reshape_139   |                       -2,000(-100.0%)       
------ ---------------------------------------------- ------------------- --------------------- ----------- ------------------------------- --- --------------------- --------------------- ------------------------------------- 
141    eltwise_141 (Eltwise, SUB)                     [b:1,c:1000]                                        1                  arith_constant   | +4(+100.0%)                                 Eltwise/sub_[125]                     
                                                                                                                                     nl_138   | 
------ ---------------------------------------------- ------------------- --------------------- ----------- ------------------------------- --- --------------------- --------------------- ------------------------------------- 
142    conversion_142 (Conversion, QUANTIZE)          [b:1,c:1000]                                    2,000                     eltwise_141   |                                             Conversion_[126]                      
------ ---------------------------------------------- ------------------- --------------------- ----------- ------------------------------- --- --------------------- --------------------- ------------------------------------- 
143    eltwise_143 (Eltwise, MUL)                     [b:1,c:1000]                                    1,000                     eltwise_132   |                                             Eltwise/mul_[127]                     
                                                                                                                             conversion_142   | 
------ ---------------------------------------------- ------------------- --------------------- ----------- ------------------------------- --- --------------------- --------------------- ------------------------------------- 
144    eltwise_144 (Eltwise, MUL)                     [b:1,c:1000]                                    1,000                     eltwise_143   | +1,000(+100.0%)                             Eltwise/mul_[128]                     
                                                                                                                         tfl_pseudo_qconst8   | 
------ ---------------------------------------------- ------------------- --------------------- ----------- ------------------------------- --- --------------------- --------------------- ------------------------------------- 
145    eltwise_145 (Eltwise, ADD)                     [b:1,c:1000]                                    1,000                         gemm_24   |                                             Eltwise/add_[129]                     
                                                                                                                                eltwise_144   | 
------ ---------------------------------------------- ------------------- --------------------- ----------- ------------------------------- --- --------------------- --------------------- ------------------------------------- 
146    eltwise_146 (Eltwise, MUL)                     [b:1,c:1000]                                    1,000                     eltwise_145   | +1(+100.0%)                                 Eltwise/mul_[130]                     
                                                                                                                         tfl_pseudo_qconst6   | 
------ ---------------------------------------------- ------------------- --------------------- ----------- ------------------------------- --- --------------------- --------------------- ------------------------------------- 
147    eltwise_147 (Eltwise, ADD)                     [b:1,c:1000]                                    1,000                     eltwise_146   | +1(+100.0%)                                 Eltwise/add_[131]                     
                                                                                                                         tfl_pseudo_qconst6   | 
------ ---------------------------------------------- ------------------- --------------------- ----------- ------------------------------- --- --------------------- --------------------- ------------------------------------- 
148    tfl_pseudo_qconst18 (Placeholder, )            []                  1/1                                                                 |                       +1,000(+100.0%)       Eltwise/min_[132]                     
       eltwise_148 (Eltwise, MINIMUM)                 [b:1,c:1000]                                    1,000                     eltwise_147   |                       -1,000(-100.0%)       
                                                                                                                        tfl_pseudo_qconst18   | 
------ ---------------------------------------------- ------------------- --------------------- ----------- ------------------------------- --- --------------------- --------------------- ------------------------------------- 
149    nl_149 (Nonlinearity, RELU)                    [b:1,c:1000]                                    1,000                     eltwise_148   |                                             Nonlinearity_[133]                    
------ ---------------------------------------------- ------------------- --------------------- ----------- ------------------------------- --- --------------------- --------------------- ------------------------------------- 
150    conversion_150 (Conversion, DEQUANTIZE)        [b:1,c:1000]                                    2,000                          nl_149   |                                             Conversion_[134]                      
------ ---------------------------------------------- ------------------- --------------------- ----------- ------------------------------- --- --------------------- --------------------- ------------------------------------- 
151    nl_151 (Nonlinearity, ROUND)                   [b:1,c:1000]                                    2,000                  conversion_150   |                       +2,000(+100.0%)       Nonlinearity_/Conversion_[135, 136]   
------ ---------------------------------------------- ------------------- --------------------- ----------- ------------------------------- --- --------------------- --------------------- ------------------------------------- 
152    reshape_152 (Reshape, EXPAND_DIMS)             [b:1,h:1,c:1000]                                                               nl_151   |                                             
------ ---------------------------------------------- ------------------- --------------------- ----------- ------------------------------- --- --------------------- --------------------- ------------------------------------- 
153    conversion_153 (Conversion, QUANTIZE)          [b:1,h:1,c:1000]                                2,000                     reshape_152   |                       -2,000(-100.0%)       
------ ---------------------------------------------- ------------------- --------------------- ----------- ------------------------------- --- --------------------- --------------------- ------------------------------------- 
154    concat_154 (Concat, CONCATENATION)             [b:1,h:10,c:1000]                                                       conversion_18   |                                             Concat_[137]                          
                                                                                                                              conversion_35   | 
                                                                                                                              conversion_50   | 
                                                                                                                              conversion_65   | 
                                                                                                                              conversion_80   | 
                                                                                                                              conversion_95   | 
                                                                                                                             conversion_110   | 
                                                                                                                             conversion_125   | 
                                                                                                                             conversion_140   | 
                                                                                                                             conversion_153   | 
------ ---------------------------------------------- ------------------- --------------------- ----------- ------------------------------- --- --------------------- --------------------- ------------------------------------- 
161    eltwise_161_const (Placeholder, MUL)           [b:1,c:1000]        1,000/1,000                                                         | -1,000(-100.0%)                             
------ ---------------------------------------------- ------------------- --------------------- ----------- ------------------------------- --- --------------------- --------------------- ------------------------------------- 
162    slice_162 (Slice, STRIDED_SLICE)               [b:1,h:1,c:1000]                                                           concat_154   |                                             Slice_[156]                           
       reshape_162_reshape (Reshape, STRIDED_SLICE)   [b:1,c:1000]                                                                slice_162   |                                             
------ ---------------------------------------------- ------------------- --------------------- ----------- ------------------------------- --- --------------------- --------------------- ------------------------------------- 
163    tfl_pseudo_qconst5 (Placeholder, )             [b:1000,c:1000]     1,000,000/1,000,000                                                 | +4,000(+0.4%)         +1,001,000(+100.0%)   Dense_[157]                           
       gemm_163 (Gemm, FULLY_CONNECTED)               [b:1,c:1000]                                1,001,000             reshape_162_reshape   |                       -1,001,000(-100.0%)   
                                                                                                                         tfl_pseudo_qconst5   | 
------ ---------------------------------------------- ------------------- --------------------- ----------- ------------------------------- --- --------------------- --------------------- ------------------------------------- 
164    eltwise_164 (Eltwise, ADD)                     [b:1,c:1000]                                    1,000                        gemm_163   | +1,000(+100.0%)                             Eltwise/add_[158]                     
                                                                                                                          eltwise_161_const   | 
------ ---------------------------------------------- ------------------- --------------------- ----------- ------------------------------- --- --------------------- --------------------- ------------------------------------- 
165    eltwise_165 (Eltwise, MUL)                     [b:1,c:1000]                                    1,000                     eltwise_164   | +1(+100.0%)                                 Eltwise/mul_[159]                     
                                                                                                                         tfl_pseudo_qconst6   | 
------ ---------------------------------------------- ------------------- --------------------- ----------- ------------------------------- --- --------------------- --------------------- ------------------------------------- 
166    eltwise_166 (Eltwise, ADD)                     [b:1,c:1000]                                    1,000                     eltwise_165   | +1(+100.0%)                                 Eltwise/add_[160]                     
                                                                                                                         tfl_pseudo_qconst6   | 
------ ---------------------------------------------- ------------------- --------------------- ----------- ------------------------------- --- --------------------- --------------------- ------------------------------------- 
167    tfl_pseudo_qconst19 (Placeholder, )            []                  1/1                                                                 |                       +1,000(+100.0%)       Eltwise/min_[161]                     
       eltwise_167 (Eltwise, MINIMUM)                 [b:1,c:1000]                                    1,000                     eltwise_166   |                       -1,000(-100.0%)       
                                                                                                                        tfl_pseudo_qconst19   | 
------ ---------------------------------------------- ------------------- --------------------- ----------- ------------------------------- --- --------------------- --------------------- ------------------------------------- 
168    nl_168 (Nonlinearity, RELU)                    [b:1,c:1000]                                    1,000                     eltwise_167   |                                             Nonlinearity_[162]                    
------ ---------------------------------------------- ------------------- --------------------- ----------- ------------------------------- --- --------------------- --------------------- ------------------------------------- 
169    conversion_169 (Conversion, DEQUANTIZE)        [b:1,c:1000]                                    2,000                          nl_168   |                                             Conversion_[163]                      
------ ---------------------------------------------- ------------------- --------------------- ----------- ------------------------------- --- --------------------- --------------------- ------------------------------------- 
170    nl_170 (Nonlinearity, ROUND)                   [b:1,c:1000]                                    2,000                  conversion_169   |                       +2,000(+100.0%)       Nonlinearity_/Conversion_[164, 165]   
------ ---------------------------------------------- ------------------- --------------------- ----------- ------------------------------- --- --------------------- --------------------- ------------------------------------- 
171    reshape_171 (Reshape, EXPAND_DIMS)             [b:1,h:1,c:1000]                                                               nl_170   |                                             
------ ---------------------------------------------- ------------------- --------------------- ----------- ------------------------------- --- --------------------- --------------------- ------------------------------------- 
172    conversion_172 (Conversion, QUANTIZE)          [b:1,h:1,c:1000]                                2,000                     reshape_171   |                       -2,000(-100.0%)       
------ ---------------------------------------------- ------------------- --------------------- ----------- ------------------------------- --- --------------------- --------------------- ------------------------------------- 
173    eltwise_173 (Eltwise, SUB)                     [b:1,c:1000]                                        1                  arith_constant   | +4(+100.0%)                                 Eltwise/sub_[166]                     
                                                                                                                                     nl_170   | 
------ ---------------------------------------------- ------------------- --------------------- ----------- ------------------------------- --- --------------------- --------------------- ------------------------------------- 
174    conversion_174 (Conversion, QUANTIZE)          [b:1,c:1000]                                    2,000                     eltwise_173   |                                             Conversion_[167]                      
------ ---------------------------------------------- ------------------- --------------------- ----------- ------------------------------- --- --------------------- --------------------- ------------------------------------- 
175    eltwise_175 (Eltwise, MUL)                     [b:1,c:1000]                                    1,000                     eltwise_164   |                                             Eltwise/mul_[168]                     
                                                                                                                             conversion_174   | 
------ ---------------------------------------------- ------------------- --------------------- ----------- ------------------------------- --- --------------------- --------------------- ------------------------------------- 
176    eltwise_176 (Eltwise, MUL)                     [b:1,c:1000]                                    1,000                     eltwise_175   | +1,000(+100.0%)                             Eltwise/mul_[169]                     
                                                                                                                         tfl_pseudo_qconst8   | 
------ ---------------------------------------------- ------------------- --------------------- ----------- ------------------------------- --- --------------------- --------------------- ------------------------------------- 
177    slice_177 (Slice, STRIDED_SLICE)               [b:1,h:1,c:1000]                                                           concat_154   |                                             Slice_[154]                           
       reshape_177_reshape (Reshape, STRIDED_SLICE)   [b:1,c:1000]                                                                slice_177   |                                             
------ ---------------------------------------------- ------------------- --------------------- ----------- ------------------------------- --- --------------------- --------------------- ------------------------------------- 
178    gemm_178 (Gemm, FULLY_CONNECTED)               [b:1,c:1000]                                1,001,000             reshape_177_reshape   | +1,004,000(+100.0%)                         Dense_[155]                           
                                                                                                                         tfl_pseudo_qconst5   | 
------ ---------------------------------------------- ------------------- --------------------- ----------- ------------------------------- --- --------------------- --------------------- ------------------------------------- 
179    slice_179 (Slice, STRIDED_SLICE)               [b:1,h:1,c:1000]                                                           concat_154   |                                             Slice_[152]                           
       reshape_179_reshape (Reshape, STRIDED_SLICE)   [b:1,c:1000]                                                                slice_179   |                                             
------ ---------------------------------------------- ------------------- --------------------- ----------- ------------------------------- --- --------------------- --------------------- ------------------------------------- 
180    gemm_180 (Gemm, FULLY_CONNECTED)               [b:1,c:1000]                                1,001,000             reshape_179_reshape   | +1,004,000(+100.0%)                         Dense_[153]                           
                                                                                                                         tfl_pseudo_qconst5   | 
------ ---------------------------------------------- ------------------- --------------------- ----------- ------------------------------- --- --------------------- --------------------- ------------------------------------- 
181    eltwise_181 (Eltwise, ADD)                     [b:1,c:1000]                                    1,000                        gemm_180   |                                             Eltwise/add_[170]                     
                                                                                                                                eltwise_176   | 
------ ---------------------------------------------- ------------------- --------------------- ----------- ------------------------------- --- --------------------- --------------------- ------------------------------------- 
182    eltwise_182 (Eltwise, MUL)                     [b:1,c:1000]                                    1,000                     eltwise_181   | +1(+100.0%)                                 Eltwise/mul_[171]                     
                                                                                                                         tfl_pseudo_qconst6   | 
------ ---------------------------------------------- ------------------- --------------------- ----------- ------------------------------- --- --------------------- --------------------- ------------------------------------- 
183    eltwise_183 (Eltwise, ADD)                     [b:1,c:1000]                                    1,000                     eltwise_182   | +1(+100.0%)                                 Eltwise/add_[172]                     
                                                                                                                         tfl_pseudo_qconst6   | 
------ ---------------------------------------------- ------------------- --------------------- ----------- ------------------------------- --- --------------------- --------------------- ------------------------------------- 
184    tfl_pseudo_qconst20 (Placeholder, )            []                  1/1                                                                 |                       +1,000(+100.0%)       Eltwise/min_[173]                     
       eltwise_184 (Eltwise, MINIMUM)                 [b:1,c:1000]                                    1,000                     eltwise_183   |                       -1,000(-100.0%)       
                                                                                                                        tfl_pseudo_qconst20   | 
------ ---------------------------------------------- ------------------- --------------------- ----------- ------------------------------- --- --------------------- --------------------- ------------------------------------- 
185    nl_185 (Nonlinearity, RELU)                    [b:1,c:1000]                                    1,000                     eltwise_184   |                                             Nonlinearity_[174]                    
------ ---------------------------------------------- ------------------- --------------------- ----------- ------------------------------- --- --------------------- --------------------- ------------------------------------- 
186    conversion_186 (Conversion, DEQUANTIZE)        [b:1,c:1000]                                    2,000                          nl_185   |                                             Conversion_[175]                      
------ ---------------------------------------------- ------------------- --------------------- ----------- ------------------------------- --- --------------------- --------------------- ------------------------------------- 
187    nl_187 (Nonlinearity, ROUND)                   [b:1,c:1000]                                    2,000                  conversion_186   |                       +2,000(+100.0%)       Nonlinearity_/Conversion_[176, 177]   
------ ---------------------------------------------- ------------------- --------------------- ----------- ------------------------------- --- --------------------- --------------------- ------------------------------------- 
188    reshape_188 (Reshape, EXPAND_DIMS)             [b:1,h:1,c:1000]                                                               nl_187   |                                             
------ ---------------------------------------------- ------------------- --------------------- ----------- ------------------------------- --- --------------------- --------------------- ------------------------------------- 
189    conversion_189 (Conversion, QUANTIZE)          [b:1,h:1,c:1000]                                2,000                     reshape_188   |                       -2,000(-100.0%)       
------ ---------------------------------------------- ------------------- --------------------- ----------- ------------------------------- --- --------------------- --------------------- ------------------------------------- 
190    eltwise_190 (Eltwise, SUB)                     [b:1,c:1000]                                        1                  arith_constant   | +4(+100.0%)                                 Eltwise/sub_[178]                     
                                                                                                                                     nl_187   | 
------ ---------------------------------------------- ------------------- --------------------- ----------- ------------------------------- --- --------------------- --------------------- ------------------------------------- 
191    conversion_191 (Conversion, QUANTIZE)          [b:1,c:1000]                                    2,000                     eltwise_190   |                                             Conversion_[179]                      
------ ---------------------------------------------- ------------------- --------------------- ----------- ------------------------------- --- --------------------- --------------------- ------------------------------------- 
192    eltwise_192 (Eltwise, MUL)                     [b:1,c:1000]                                    1,000                     eltwise_181   |                                             Eltwise/mul_[180]                     
                                                                                                                             conversion_191   | 
------ ---------------------------------------------- ------------------- --------------------- ----------- ------------------------------- --- --------------------- --------------------- ------------------------------------- 
193    eltwise_193 (Eltwise, MUL)                     [b:1,c:1000]                                    1,000                     eltwise_192   | +1,000(+100.0%)                             Eltwise/mul_[181]                     
                                                                                                                         tfl_pseudo_qconst8   | 
------ ---------------------------------------------- ------------------- --------------------- ----------- ------------------------------- --- --------------------- --------------------- ------------------------------------- 
194    slice_194 (Slice, STRIDED_SLICE)               [b:1,h:1,c:1000]                                                           concat_154   |                                             Slice_[150]                           
       reshape_194_reshape (Reshape, STRIDED_SLICE)   [b:1,c:1000]                                                                slice_194   |                                             
------ ---------------------------------------------- ------------------- --------------------- ----------- ------------------------------- --- --------------------- --------------------- ------------------------------------- 
195    gemm_195 (Gemm, FULLY_CONNECTED)               [b:1,c:1000]                                1,001,000             reshape_194_reshape   | +1,004,000(+100.0%)                         Dense_[151]                           
                                                                                                                         tfl_pseudo_qconst5   | 
------ ---------------------------------------------- ------------------- --------------------- ----------- ------------------------------- --- --------------------- --------------------- ------------------------------------- 
196    eltwise_196 (Eltwise, ADD)                     [b:1,c:1000]                                    1,000                        gemm_195   |                                             Eltwise/add_[182]                     
                                                                                                                                eltwise_193   | 
------ ---------------------------------------------- ------------------- --------------------- ----------- ------------------------------- --- --------------------- --------------------- ------------------------------------- 
197    eltwise_197 (Eltwise, MUL)                     [b:1,c:1000]                                    1,000                     eltwise_196   | +1(+100.0%)                                 Eltwise/mul_[183]                     
                                                                                                                         tfl_pseudo_qconst6   | 
------ ---------------------------------------------- ------------------- --------------------- ----------- ------------------------------- --- --------------------- --------------------- ------------------------------------- 
198    eltwise_198 (Eltwise, ADD)                     [b:1,c:1000]                                    1,000                     eltwise_197   | +1(+100.0%)                                 Eltwise/add_[184]                     
                                                                                                                         tfl_pseudo_qconst6   | 
------ ---------------------------------------------- ------------------- --------------------- ----------- ------------------------------- --- --------------------- --------------------- ------------------------------------- 
199    tfl_pseudo_qconst21 (Placeholder, )            []                  1/1                                                                 |                       +1,000(+100.0%)       Eltwise/min_[185]                     
       eltwise_199 (Eltwise, MINIMUM)                 [b:1,c:1000]                                    1,000                     eltwise_198   |                       -1,000(-100.0%)       
                                                                                                                        tfl_pseudo_qconst21   | 
------ ---------------------------------------------- ------------------- --------------------- ----------- ------------------------------- --- --------------------- --------------------- ------------------------------------- 
200    nl_200 (Nonlinearity, RELU)                    [b:1,c:1000]                                    1,000                     eltwise_199   |                                             Nonlinearity_[186]                    
------ ---------------------------------------------- ------------------- --------------------- ----------- ------------------------------- --- --------------------- --------------------- ------------------------------------- 
201    conversion_201 (Conversion, DEQUANTIZE)        [b:1,c:1000]                                    2,000                          nl_200   |                                             Conversion_[187]                      
------ ---------------------------------------------- ------------------- --------------------- ----------- ------------------------------- --- --------------------- --------------------- ------------------------------------- 
202    nl_202 (Nonlinearity, ROUND)                   [b:1,c:1000]                                    2,000                  conversion_201   |                       +2,000(+100.0%)       Nonlinearity_/Conversion_[188, 189]   
------ ---------------------------------------------- ------------------- --------------------- ----------- ------------------------------- --- --------------------- --------------------- ------------------------------------- 
203    reshape_203 (Reshape, EXPAND_DIMS)             [b:1,h:1,c:1000]                                                               nl_202   |                                             
------ ---------------------------------------------- ------------------- --------------------- ----------- ------------------------------- --- --------------------- --------------------- ------------------------------------- 
204    conversion_204 (Conversion, QUANTIZE)          [b:1,h:1,c:1000]                                2,000                     reshape_203   |                       -2,000(-100.0%)       
------ ---------------------------------------------- ------------------- --------------------- ----------- ------------------------------- --- --------------------- --------------------- ------------------------------------- 
205    eltwise_205 (Eltwise, SUB)                     [b:1,c:1000]                                        1                  arith_constant   | +4(+100.0%)                                 Eltwise/sub_[190]                     
                                                                                                                                     nl_202   | 
------ ---------------------------------------------- ------------------- --------------------- ----------- ------------------------------- --- --------------------- --------------------- ------------------------------------- 
206    conversion_206 (Conversion, QUANTIZE)          [b:1,c:1000]                                    2,000                     eltwise_205   |                                             Conversion_[191]                      
------ ---------------------------------------------- ------------------- --------------------- ----------- ------------------------------- --- --------------------- --------------------- ------------------------------------- 
207    eltwise_207 (Eltwise, MUL)                     [b:1,c:1000]                                    1,000                     eltwise_196   |                                             Eltwise/mul_[192]                     
                                                                                                                             conversion_206   | 
------ ---------------------------------------------- ------------------- --------------------- ----------- ------------------------------- --- --------------------- --------------------- ------------------------------------- 
208    eltwise_208 (Eltwise, MUL)                     [b:1,c:1000]                                    1,000                     eltwise_207   | +1,000(+100.0%)                             Eltwise/mul_[193]                     
                                                                                                                         tfl_pseudo_qconst8   | 
------ ---------------------------------------------- ------------------- --------------------- ----------- ------------------------------- --- --------------------- --------------------- ------------------------------------- 
209    slice_209 (Slice, STRIDED_SLICE)               [b:1,h:1,c:1000]                                                           concat_154   |                                             Slice_[148]                           
       reshape_209_reshape (Reshape, STRIDED_SLICE)   [b:1,c:1000]                                                                slice_209   |                                             
------ ---------------------------------------------- ------------------- --------------------- ----------- ------------------------------- --- --------------------- --------------------- ------------------------------------- 
210    gemm_210 (Gemm, FULLY_CONNECTED)               [b:1,c:1000]                                1,001,000             reshape_209_reshape   | +1,004,000(+100.0%)                         Dense_[149]                           
                                                                                                                         tfl_pseudo_qconst5   | 
------ ---------------------------------------------- ------------------- --------------------- ----------- ------------------------------- --- --------------------- --------------------- ------------------------------------- 
211    eltwise_211 (Eltwise, ADD)                     [b:1,c:1000]                                    1,000                        gemm_210   |                                             Eltwise/add_[194]                     
                                                                                                                                eltwise_208   | 
------ ---------------------------------------------- ------------------- --------------------- ----------- ------------------------------- --- --------------------- --------------------- ------------------------------------- 
212    eltwise_212 (Eltwise, MUL)                     [b:1,c:1000]                                    1,000                     eltwise_211   | +1(+100.0%)                                 Eltwise/mul_[195]                     
                                                                                                                         tfl_pseudo_qconst6   | 
------ ---------------------------------------------- ------------------- --------------------- ----------- ------------------------------- --- --------------------- --------------------- ------------------------------------- 
213    eltwise_213 (Eltwise, ADD)                     [b:1,c:1000]                                    1,000                     eltwise_212   | +1(+100.0%)                                 Eltwise/add_[196]                     
                                                                                                                         tfl_pseudo_qconst6   | 
------ ---------------------------------------------- ------------------- --------------------- ----------- ------------------------------- --- --------------------- --------------------- ------------------------------------- 
214    tfl_pseudo_qconst22 (Placeholder, )            []                  1/1                                                                 |                       +1,000(+100.0%)       Eltwise/min_[197]                     
       eltwise_214 (Eltwise, MINIMUM)                 [b:1,c:1000]                                    1,000                     eltwise_213   |                       -1,000(-100.0%)       
                                                                                                                        tfl_pseudo_qconst22   | 
------ ---------------------------------------------- ------------------- --------------------- ----------- ------------------------------- --- --------------------- --------------------- ------------------------------------- 
215    nl_215 (Nonlinearity, RELU)                    [b:1,c:1000]                                    1,000                     eltwise_214   |                                             Nonlinearity_[198]                    
------ ---------------------------------------------- ------------------- --------------------- ----------- ------------------------------- --- --------------------- --------------------- ------------------------------------- 
216    conversion_216 (Conversion, DEQUANTIZE)        [b:1,c:1000]                                    2,000                          nl_215   |                                             Conversion_[199]                      
------ ---------------------------------------------- ------------------- --------------------- ----------- ------------------------------- --- --------------------- --------------------- ------------------------------------- 
217    nl_217 (Nonlinearity, ROUND)                   [b:1,c:1000]                                    2,000                  conversion_216   |                       +2,000(+100.0%)       Nonlinearity_/Conversion_[200, 201]   
------ ---------------------------------------------- ------------------- --------------------- ----------- ------------------------------- --- --------------------- --------------------- ------------------------------------- 
218    reshape_218 (Reshape, EXPAND_DIMS)             [b:1,h:1,c:1000]                                                               nl_217   |                                             
------ ---------------------------------------------- ------------------- --------------------- ----------- ------------------------------- --- --------------------- --------------------- ------------------------------------- 
219    conversion_219 (Conversion, QUANTIZE)          [b:1,h:1,c:1000]                                2,000                     reshape_218   |                       -2,000(-100.0%)       
------ ---------------------------------------------- ------------------- --------------------- ----------- ------------------------------- --- --------------------- --------------------- ------------------------------------- 
220    eltwise_220 (Eltwise, SUB)                     [b:1,c:1000]                                        1                  arith_constant   | +4(+100.0%)                                 Eltwise/sub_[202]                     
                                                                                                                                     nl_217   | 
------ ---------------------------------------------- ------------------- --------------------- ----------- ------------------------------- --- --------------------- --------------------- ------------------------------------- 
221    conversion_221 (Conversion, QUANTIZE)          [b:1,c:1000]                                    2,000                     eltwise_220   |                                             Conversion_[203]                      
------ ---------------------------------------------- ------------------- --------------------- ----------- ------------------------------- --- --------------------- --------------------- ------------------------------------- 
222    eltwise_222 (Eltwise, MUL)                     [b:1,c:1000]                                    1,000                     eltwise_211   |                                             Eltwise/mul_[204]                     
                                                                                                                             conversion_221   | 
------ ---------------------------------------------- ------------------- --------------------- ----------- ------------------------------- --- --------------------- --------------------- ------------------------------------- 
223    eltwise_223 (Eltwise, MUL)                     [b:1,c:1000]                                    1,000                     eltwise_222   | +1,000(+100.0%)                             Eltwise/mul_[205]                     
                                                                                                                         tfl_pseudo_qconst8   | 
------ ---------------------------------------------- ------------------- --------------------- ----------- ------------------------------- --- --------------------- --------------------- ------------------------------------- 
224    slice_224 (Slice, STRIDED_SLICE)               [b:1,h:1,c:1000]                                                           concat_154   |                                             Slice_[146]                           
       reshape_224_reshape (Reshape, STRIDED_SLICE)   [b:1,c:1000]                                                                slice_224   |                                             
------ ---------------------------------------------- ------------------- --------------------- ----------- ------------------------------- --- --------------------- --------------------- ------------------------------------- 
225    gemm_225 (Gemm, FULLY_CONNECTED)               [b:1,c:1000]                                1,001,000             reshape_224_reshape   | +1,004,000(+100.0%)                         Dense_[147]                           
                                                                                                                         tfl_pseudo_qconst5   | 
------ ---------------------------------------------- ------------------- --------------------- ----------- ------------------------------- --- --------------------- --------------------- ------------------------------------- 
226    eltwise_226 (Eltwise, ADD)                     [b:1,c:1000]                                    1,000                        gemm_225   |                                             Eltwise/add_[206]                     
                                                                                                                                eltwise_223   | 
------ ---------------------------------------------- ------------------- --------------------- ----------- ------------------------------- --- --------------------- --------------------- ------------------------------------- 
227    eltwise_227 (Eltwise, MUL)                     [b:1,c:1000]                                    1,000                     eltwise_226   | +1(+100.0%)                                 Eltwise/mul_[207]                     
                                                                                                                         tfl_pseudo_qconst6   | 
------ ---------------------------------------------- ------------------- --------------------- ----------- ------------------------------- --- --------------------- --------------------- ------------------------------------- 
228    eltwise_228 (Eltwise, ADD)                     [b:1,c:1000]                                    1,000                     eltwise_227   | +1(+100.0%)                                 Eltwise/add_[208]                     
                                                                                                                         tfl_pseudo_qconst6   | 
------ ---------------------------------------------- ------------------- --------------------- ----------- ------------------------------- --- --------------------- --------------------- ------------------------------------- 
229    tfl_pseudo_qconst23 (Placeholder, )            []                  1/1                                                                 |                       +1,000(+100.0%)       Eltwise/min_[209]                     
       eltwise_229 (Eltwise, MINIMUM)                 [b:1,c:1000]                                    1,000                     eltwise_228   |                       -1,000(-100.0%)       
                                                                                                                        tfl_pseudo_qconst23   | 
------ ---------------------------------------------- ------------------- --------------------- ----------- ------------------------------- --- --------------------- --------------------- ------------------------------------- 
230    nl_230 (Nonlinearity, RELU)                    [b:1,c:1000]                                    1,000                     eltwise_229   |                                             Nonlinearity_[210]                    
------ ---------------------------------------------- ------------------- --------------------- ----------- ------------------------------- --- --------------------- --------------------- ------------------------------------- 
231    conversion_231 (Conversion, DEQUANTIZE)        [b:1,c:1000]                                    2,000                          nl_230   |                                             Conversion_[211]                      
------ ---------------------------------------------- ------------------- --------------------- ----------- ------------------------------- --- --------------------- --------------------- ------------------------------------- 
232    nl_232 (Nonlinearity, ROUND)                   [b:1,c:1000]                                    2,000                  conversion_231   |                       +2,000(+100.0%)       Nonlinearity_/Conversion_[212, 213]   
------ ---------------------------------------------- ------------------- --------------------- ----------- ------------------------------- --- --------------------- --------------------- ------------------------------------- 
233    reshape_233 (Reshape, EXPAND_DIMS)             [b:1,h:1,c:1000]                                                               nl_232   |                                             
------ ---------------------------------------------- ------------------- --------------------- ----------- ------------------------------- --- --------------------- --------------------- ------------------------------------- 
234    conversion_234 (Conversion, QUANTIZE)          [b:1,h:1,c:1000]                                2,000                     reshape_233   |                       -2,000(-100.0%)       
------ ---------------------------------------------- ------------------- --------------------- ----------- ------------------------------- --- --------------------- --------------------- ------------------------------------- 
235    eltwise_235 (Eltwise, SUB)                     [b:1,c:1000]                                        1                  arith_constant   | +4(+100.0%)                                 Eltwise/sub_[214]                     
                                                                                                                                     nl_232   | 
------ ---------------------------------------------- ------------------- --------------------- ----------- ------------------------------- --- --------------------- --------------------- ------------------------------------- 
236    conversion_236 (Conversion, QUANTIZE)          [b:1,c:1000]                                    2,000                     eltwise_235   |                                             Conversion_[215]                      
------ ---------------------------------------------- ------------------- --------------------- ----------- ------------------------------- --- --------------------- --------------------- ------------------------------------- 
237    eltwise_237 (Eltwise, MUL)                     [b:1,c:1000]                                    1,000                     eltwise_226   |                                             Eltwise/mul_[216]                     
                                                                                                                             conversion_236   | 
------ ---------------------------------------------- ------------------- --------------------- ----------- ------------------------------- --- --------------------- --------------------- ------------------------------------- 
238    eltwise_238 (Eltwise, MUL)                     [b:1,c:1000]                                    1,000                     eltwise_237   | +1,000(+100.0%)                             Eltwise/mul_[217]                     
                                                                                                                         tfl_pseudo_qconst8   | 
------ ---------------------------------------------- ------------------- --------------------- ----------- ------------------------------- --- --------------------- --------------------- ------------------------------------- 
239    slice_239 (Slice, STRIDED_SLICE)               [b:1,h:1,c:1000]                                                           concat_154   |                                             Slice_[144]                           
       reshape_239_reshape (Reshape, STRIDED_SLICE)   [b:1,c:1000]                                                                slice_239   |                                             
------ ---------------------------------------------- ------------------- --------------------- ----------- ------------------------------- --- --------------------- --------------------- ------------------------------------- 
240    gemm_240 (Gemm, FULLY_CONNECTED)               [b:1,c:1000]                                1,001,000             reshape_239_reshape   | +1,004,000(+100.0%)                         Dense_[145]                           
                                                                                                                         tfl_pseudo_qconst5   | 
------ ---------------------------------------------- ------------------- --------------------- ----------- ------------------------------- --- --------------------- --------------------- ------------------------------------- 
241    eltwise_241 (Eltwise, ADD)                     [b:1,c:1000]                                    1,000                        gemm_240   |                                             Eltwise/add_[218]                     
                                                                                                                                eltwise_238   | 
------ ---------------------------------------------- ------------------- --------------------- ----------- ------------------------------- --- --------------------- --------------------- ------------------------------------- 
242    eltwise_242 (Eltwise, MUL)                     [b:1,c:1000]                                    1,000                     eltwise_241   | +1(+100.0%)                                 Eltwise/mul_[219]                     
                                                                                                                         tfl_pseudo_qconst6   | 
------ ---------------------------------------------- ------------------- --------------------- ----------- ------------------------------- --- --------------------- --------------------- ------------------------------------- 
243    eltwise_243 (Eltwise, ADD)                     [b:1,c:1000]                                    1,000                     eltwise_242   | +1(+100.0%)                                 Eltwise/add_[220]                     
                                                                                                                         tfl_pseudo_qconst6   | 
------ ---------------------------------------------- ------------------- --------------------- ----------- ------------------------------- --- --------------------- --------------------- ------------------------------------- 
244    tfl_pseudo_qconst24 (Placeholder, )            []                  1/1                                                                 |                       +1,000(+100.0%)       Eltwise/min_[221]                     
       eltwise_244 (Eltwise, MINIMUM)                 [b:1,c:1000]                                    1,000                     eltwise_243   |                       -1,000(-100.0%)       
                                                                                                                        tfl_pseudo_qconst24   | 
------ ---------------------------------------------- ------------------- --------------------- ----------- ------------------------------- --- --------------------- --------------------- ------------------------------------- 
245    nl_245 (Nonlinearity, RELU)                    [b:1,c:1000]                                    1,000                     eltwise_244   |                                             Nonlinearity_[222]                    
------ ---------------------------------------------- ------------------- --------------------- ----------- ------------------------------- --- --------------------- --------------------- ------------------------------------- 
246    conversion_246 (Conversion, DEQUANTIZE)        [b:1,c:1000]                                    2,000                          nl_245   |                                             Conversion_[223]                      
------ ---------------------------------------------- ------------------- --------------------- ----------- ------------------------------- --- --------------------- --------------------- ------------------------------------- 
247    nl_247 (Nonlinearity, ROUND)                   [b:1,c:1000]                                    2,000                  conversion_246   |                       +2,000(+100.0%)       Nonlinearity_/Conversion_[224, 225]   
------ ---------------------------------------------- ------------------- --------------------- ----------- ------------------------------- --- --------------------- --------------------- ------------------------------------- 
248    reshape_248 (Reshape, EXPAND_DIMS)             [b:1,h:1,c:1000]                                                               nl_247   |                                             
------ ---------------------------------------------- ------------------- --------------------- ----------- ------------------------------- --- --------------------- --------------------- ------------------------------------- 
249    conversion_249 (Conversion, QUANTIZE)          [b:1,h:1,c:1000]                                2,000                     reshape_248   |                       -2,000(-100.0%)       
------ ---------------------------------------------- ------------------- --------------------- ----------- ------------------------------- --- --------------------- --------------------- ------------------------------------- 
250    eltwise_250 (Eltwise, SUB)                     [b:1,c:1000]                                        1                  arith_constant   | +4(+100.0%)                                 Eltwise/sub_[226]                     
                                                                                                                                     nl_247   | 
------ ---------------------------------------------- ------------------- --------------------- ----------- ------------------------------- --- --------------------- --------------------- ------------------------------------- 
251    conversion_251 (Conversion, QUANTIZE)          [b:1,c:1000]                                    2,000                     eltwise_250   |                                             Conversion_[227]                      
------ ---------------------------------------------- ------------------- --------------------- ----------- ------------------------------- --- --------------------- --------------------- ------------------------------------- 
252    eltwise_252 (Eltwise, MUL)                     [b:1,c:1000]                                    1,000                     eltwise_241   |                                             Eltwise/mul_[228]                     
                                                                                                                             conversion_251   | 
------ ---------------------------------------------- ------------------- --------------------- ----------- ------------------------------- --- --------------------- --------------------- ------------------------------------- 
253    eltwise_253 (Eltwise, MUL)                     [b:1,c:1000]                                    1,000                     eltwise_252   | +1,000(+100.0%)                             Eltwise/mul_[229]                     
                                                                                                                         tfl_pseudo_qconst8   | 
------ ---------------------------------------------- ------------------- --------------------- ----------- ------------------------------- --- --------------------- --------------------- ------------------------------------- 
254    slice_254 (Slice, STRIDED_SLICE)               [b:1,h:1,c:1000]                                                           concat_154   |                                             Slice_[142]                           
       reshape_254_reshape (Reshape, STRIDED_SLICE)   [b:1,c:1000]                                                                slice_254   |                                             
------ ---------------------------------------------- ------------------- --------------------- ----------- ------------------------------- --- --------------------- --------------------- ------------------------------------- 
255    gemm_255 (Gemm, FULLY_CONNECTED)               [b:1,c:1000]                                1,001,000             reshape_254_reshape   | +1,004,000(+100.0%)                         Dense_[143]                           
                                                                                                                         tfl_pseudo_qconst5   | 
------ ---------------------------------------------- ------------------- --------------------- ----------- ------------------------------- --- --------------------- --------------------- ------------------------------------- 
256    eltwise_256 (Eltwise, ADD)                     [b:1,c:1000]                                    1,000                        gemm_255   |                                             Eltwise/add_[230]                     
                                                                                                                                eltwise_253   | 
------ ---------------------------------------------- ------------------- --------------------- ----------- ------------------------------- --- --------------------- --------------------- ------------------------------------- 
257    eltwise_257 (Eltwise, MUL)                     [b:1,c:1000]                                    1,000                     eltwise_256   | +1(+100.0%)                                 Eltwise/mul_[231]                     
                                                                                                                         tfl_pseudo_qconst6   | 
------ ---------------------------------------------- ------------------- --------------------- ----------- ------------------------------- --- --------------------- --------------------- ------------------------------------- 
258    eltwise_258 (Eltwise, ADD)                     [b:1,c:1000]                                    1,000                     eltwise_257   | +1(+100.0%)                                 Eltwise/add_[232]                     
                                                                                                                         tfl_pseudo_qconst6   | 
------ ---------------------------------------------- ------------------- --------------------- ----------- ------------------------------- --- --------------------- --------------------- ------------------------------------- 
259    tfl_pseudo_qconst25 (Placeholder, )            []                  1/1                                                                 |                       +1,000(+100.0%)       Eltwise/min_[233]                     
       eltwise_259 (Eltwise, MINIMUM)                 [b:1,c:1000]                                    1,000                     eltwise_258   |                       -1,000(-100.0%)       
                                                                                                                        tfl_pseudo_qconst25   | 
------ ---------------------------------------------- ------------------- --------------------- ----------- ------------------------------- --- --------------------- --------------------- ------------------------------------- 
260    nl_260 (Nonlinearity, RELU)                    [b:1,c:1000]                                    1,000                     eltwise_259   |                                             Nonlinearity_[234]                    
------ ---------------------------------------------- ------------------- --------------------- ----------- ------------------------------- --- --------------------- --------------------- ------------------------------------- 
261    conversion_261 (Conversion, DEQUANTIZE)        [b:1,c:1000]                                    2,000                          nl_260   |                                             Conversion_[235]                      
------ ---------------------------------------------- ------------------- --------------------- ----------- ------------------------------- --- --------------------- --------------------- ------------------------------------- 
262    nl_262 (Nonlinearity, ROUND)                   [b:1,c:1000]                                    2,000                  conversion_261   |                       +2,000(+100.0%)       Nonlinearity_/Conversion_[236, 237]   
------ ---------------------------------------------- ------------------- --------------------- ----------- ------------------------------- --- --------------------- --------------------- ------------------------------------- 
263    reshape_263 (Reshape, EXPAND_DIMS)             [b:1,h:1,c:1000]                                                               nl_262   |                                             
------ ---------------------------------------------- ------------------- --------------------- ----------- ------------------------------- --- --------------------- --------------------- ------------------------------------- 
264    conversion_264 (Conversion, QUANTIZE)          [b:1,h:1,c:1000]                                2,000                     reshape_263   |                       -2,000(-100.0%)       
------ ---------------------------------------------- ------------------- --------------------- ----------- ------------------------------- --- --------------------- --------------------- ------------------------------------- 
265    eltwise_265 (Eltwise, SUB)                     [b:1,c:1000]                                        1                  arith_constant   | +4(+100.0%)                                 Eltwise/sub_[238]                     
                                                                                                                                     nl_262   | 
------ ---------------------------------------------- ------------------- --------------------- ----------- ------------------------------- --- --------------------- --------------------- ------------------------------------- 
266    conversion_266 (Conversion, QUANTIZE)          [b:1,c:1000]                                    2,000                     eltwise_265   |                                             Conversion_[239]                      
------ ---------------------------------------------- ------------------- --------------------- ----------- ------------------------------- --- --------------------- --------------------- ------------------------------------- 
267    eltwise_267 (Eltwise, MUL)                     [b:1,c:1000]                                    1,000                     eltwise_256   |                                             Eltwise/mul_[240]                     
                                                                                                                             conversion_266   | 
------ ---------------------------------------------- ------------------- --------------------- ----------- ------------------------------- --- --------------------- --------------------- ------------------------------------- 
268    eltwise_268 (Eltwise, MUL)                     [b:1,c:1000]                                    1,000                     eltwise_267   | +1,000(+100.0%)                             Eltwise/mul_[241]                     
                                                                                                                         tfl_pseudo_qconst8   | 
------ ---------------------------------------------- ------------------- --------------------- ----------- ------------------------------- --- --------------------- --------------------- ------------------------------------- 
269    slice_269 (Slice, STRIDED_SLICE)               [b:1,h:1,c:1000]                                                           concat_154   |                                             Slice_[140]                           
       reshape_269_reshape (Reshape, STRIDED_SLICE)   [b:1,c:1000]                                                                slice_269   |                                             
------ ---------------------------------------------- ------------------- --------------------- ----------- ------------------------------- --- --------------------- --------------------- ------------------------------------- 
270    gemm_270 (Gemm, FULLY_CONNECTED)               [b:1,c:1000]                                1,001,000             reshape_269_reshape   | +1,004,000(+100.0%)                         Dense_[141]                           
                                                                                                                         tfl_pseudo_qconst5   | 
------ ---------------------------------------------- ------------------- --------------------- ----------- ------------------------------- --- --------------------- --------------------- ------------------------------------- 
271    eltwise_271 (Eltwise, ADD)                     [b:1,c:1000]                                    1,000                        gemm_270   |                                             Eltwise/add_[242]                     
                                                                                                                                eltwise_268   | 
…
334    gemm_334                        ||||||||||||||||   2.1%   ||||||||||||||||  20.9%   [290]          2.1%                    
335    eltwise_335                     |                  0.0%   |                  0.0%   [307]          0.0%                    
336    eltwise_336                     |                  0.0%   |                  0.0%   [308]          0.0%                    
337    eltwise_337                     |                  0.0%   |                  0.0%   [309]          0.0%                    
338    tfl_pseudo_qconst30             |                  0.0%   |                  0.0%   [310]          0.0%                    
339    nl_339                          |                  0.0%   |                  0.0%   [311]          0.0%                    
340    conversion_340                  |                  0.0%   |                  0.0%   [312]          0.0%                    
341    nl_341                          |                  0.0%   |                  0.0%   [313, 314]     0.0%                    
344    eltwise_344                     |                  0.0%   |                  0.0%   [315]          0.0%                    
345    conversion_345                  |                  0.0%   |                  0.0%   [316]          0.0%                    
346    eltwise_346                     |                  0.0%   |                  0.0%   [317]          0.0%                    
347    eltwise_347                     |                  0.0%   |                  0.0%   [318]          0.0%                    
348    slice_348                       |                  0.0%   |                  0.0%   [287]          0.0%                    
349    gemm_349                        ||||||||||||||||   2.1%   ||||||||||||||||  20.9%   [288]          2.1%                    
350    eltwise_350                     |                  0.0%   |                  0.0%   [319]          0.0%                    
351    eltwise_351                     |                  0.0%   |                  0.0%   [320]          0.0%                    
352    eltwise_352                     |                  0.0%   |                  0.0%   [321]          0.0%                    
353    tfl_pseudo_qconst31             |                  0.0%   |                  0.0%   [322]          0.0%                    
354    nl_354                          |                  0.0%   |                  0.0%   [323]          0.0%                    
355    conversion_355                  |                  0.0%   |                  0.0%   [324]          0.0%                    
356    nl_356                          |                  0.0%   |                  0.0%   [325, 326]     0.0%                    
359    eltwise_359                     |                  0.0%   |                  0.0%   [327]          0.0%                    
360    conversion_360                  |                  0.0%   |                  0.0%   [328]          0.0%                    
361    eltwise_361                     |                  0.0%   |                  0.0%   [329]          0.0%                    
362    eltwise_362                     |                  0.0%   |                  0.0%   [330]          0.0%                    
363    slice_363                       |                  0.0%   |                  0.0%   [285]          0.0%                    
364    gemm_364                        ||||||||||||||||   2.1%   ||||||||||||||||  20.9%   [286]          2.1%                    
365    eltwise_365                     |                  0.0%   |                  0.0%   [331]          0.0%                    
366    eltwise_366                     |                  0.0%   |                  0.0%   [332]          0.0%                    
367    eltwise_367                     |                  0.0%   |                  0.0%   [333]          0.0%                    
368    tfl_pseudo_qconst32             |                  0.0%   |                  0.0%   [334]          0.0%                    
369    nl_369                          |                  0.0%   |                  0.0%   [335]          0.0%                    
370    conversion_370                  |                  0.0%   |                  0.0%   [336]          0.0%                    
371    nl_371                          |                  0.0%   |                  0.0%   [337, 338]     0.0%                    
374    eltwise_374                     |                  0.0%   |                  0.0%   [339]          0.0%                    
375    conversion_375                  |                  0.0%   |                  0.0%   [340]          0.0%                    
376    eltwise_376                     |                  0.0%   |                  0.0%   [341]          0.0%                    
377    eltwise_377                     |                  0.0%   |                  0.0%   [342]          0.0%                    
378    slice_378                       |                  0.0%   |                  0.0%   [283]          0.0%                    
379    gemm_379                        ||||||||||||||||   2.1%   ||||||||||||||||  20.9%   [284]          2.1%                    
380    eltwise_380                     |                  0.0%   |                  0.0%   [343]          0.0%                    
381    eltwise_381                     |                  0.0%   |                  0.0%   [344]          0.0%                    
382    eltwise_382                     |                  0.0%   |                  0.0%   [345]          0.0%                    
383    tfl_pseudo_qconst33             |                  0.0%   |                  0.0%   [346]          0.0%                    
384    nl_384                          |                  0.0%   |                  0.0%   [347]          0.0%                    
385    conversion_385                  |                  0.0%   |                  0.0%   [348]          0.0%                    
386    nl_386                          |                  0.0%   |                  0.0%   [349, 350]     0.0%                    
389    eltwise_389                     |                  0.0%   |                  0.0%   [351]          0.0%                    
390    conversion_390                  |                  0.0%   |                  0.0%   [352]          0.0%                    
391    eltwise_391                     |                  0.0%   |                  0.0%   [353]          0.0%                    
392    eltwise_392                     |                  0.0%   |                  0.0%   [354]          0.0%                    
393    slice_393                       |                  0.0%   |                  0.0%   [281]          0.0%                    
394    gemm_394                        ||||||||||||||||   2.1%   ||||||||||||||||  20.9%   [282]          2.1%                    
395    eltwise_395                     |                  0.0%   |                  0.0%   [355]          0.0%                    
396    eltwise_396                     |                  0.0%   |                  0.0%   [356]          0.0%                    
397    eltwise_397                     |                  0.0%   |                  0.0%   [357]          0.0%                    
398    tfl_pseudo_qconst34             |                  0.0%   |                  0.0%   [358]          0.0%                    
399    nl_399                          |                  0.0%   |                  0.0%   [359]          0.0%                    
400    conversion_400                  |                  0.0%   |                  0.0%   [360]          0.0%                    
401    nl_401                          |                  0.0%   |                  0.0%   [361, 362]     0.0%                    
404    eltwise_404                     |                  0.0%   |                  0.0%   [363]          0.0%                    
405    conversion_405                  |                  0.0%   |                  0.0%   [364]          0.0%                    
406    eltwise_406                     |                  0.0%   |                  0.0%   [365]          0.0%                    
407    eltwise_407                     |                  0.0%   |                  0.0%   [366]          0.0%                    
408    slice_408                       |                  0.0%   |                  0.0%   [279]          0.0%                    
409    gemm_409                        ||||||||||||||||   2.1%   ||||||||||||||||  20.9%   [280]          2.1%                    
410    eltwise_410                     |                  0.0%   |                  0.0%   [367]          0.0%                    
411    eltwise_411                     |                  0.0%   |                  0.0%   [368]          0.0%                    
412    eltwise_412                     |                  0.0%   |                  0.0%   [369]          0.0%                    
413    tfl_pseudo_qconst35             |                  0.0%   |                  0.0%   [370]          0.0%                    
414    nl_414                          |                  0.0%   |                  0.0%   [371]          0.0%                    
415    conversion_415                  |                  0.0%   |                  0.0%   [372]          0.0%                    
416    nl_416                          |                  0.0%   |                  0.0%   [373, 374]     0.0%                    
419    eltwise_419                     |                  0.0%   |                  0.0%   [375]          0.0%                    
420    conversion_420                  |                  0.0%   |                  0.0%   [376]          0.0%                    
421    eltwise_421                     |                  0.0%   |                  0.0%   [377]          0.0%                    
422    eltwise_422                     |                  0.0%   |                  0.0%   [378]          0.0%                    
423    slice_423                       |                  0.0%   |                  0.0%   [277]          0.0%                    
424    gemm_424                        ||||||||||||||||   2.1%   ||||||||||||||||  20.9%   [278]          2.1%                    
425    eltwise_425                     |                  0.0%   |                  0.0%   [379]          0.0%                    
426    eltwise_426                     |                  0.0%   |                  0.0%   [380]          0.0%                    
427    eltwise_427                     |                  0.0%   |                  0.0%   [381]          0.0%                    
428    tfl_pseudo_qconst36             |                  0.0%   |                  0.0%   [382]          0.0%                    
429    nl_429                          |                  0.0%   |                  0.0%   [383]          0.0%                    
430    conversion_430                  |                  0.0%   |                  0.0%   [384]          0.0%                    
431    nl_431                          |                  0.0%   |                  0.0%   [385, 386]     0.0%                    
434    eltwise_434                     |                  0.0%   |                  0.0%   [387]          0.0%                    
435    conversion_435                  |                  0.0%   |                  0.0%   [388]          0.0%                    
436    eltwise_436                     |                  0.0%   |                  0.0%   [389]          0.0%                    
437    eltwise_437                     |                  0.0%   |                  0.0%   [390]          0.0%                    
438    slice_438                       |                  0.0%   |                  0.0%   [275]          0.0%                    
439    gemm_439                        ||||||||||||||||   2.1%   ||||||||||||||||  20.9%   [276]          2.1%                    
440    eltwise_440                     |                  0.0%   |                  0.0%   [391]          0.0%                    
441    eltwise_441                     |                  0.0%   |                  0.0%   [392]          0.0%                    
442    eltwise_442                     |                  0.0%   |                  0.0%   [393]          0.0%                    
443    tfl_pseudo_qconst37             |                  0.0%   |                  0.0%   [394]          0.0%                    
444    nl_444                          |                  0.0%   |                  0.0%   [395]          0.0%                    
445    conversion_445                  |                  0.0%   |                  0.0%   [396]          0.0%                    
446    nl_446                          |                  0.0%   |                  0.0%   [397, 398]     0.0%                    
449    eltwise_449                     |                  0.0%   |                  0.0%   [399]          0.0%                    
450    conversion_450                  |                  0.0%   |                  0.0%   [400]          0.0%                    
451    eltwise_451                     |                  0.0%   |                  0.0%   [401]          0.0%                    
452    eltwise_452                     |                  0.0%   |                  0.0%   [402]          0.0%                    
453    eltwise_453                     |                  0.0%   |                  0.0%   [403]          0.0%                    
454    eltwise_454                     |                  0.0%   |                  0.0%   [404]          0.0%                    
455    eltwise_455                     |                  0.0%   |                  0.0%   [405]          0.0%                    
456    tfl_pseudo_qconst38             |                  0.0%   |                  0.0%   [406]          0.0%                    
457    nl_457                          |                  0.0%   |                  0.0%   [407]          0.0%                    
458    conversion_458                  |                  0.0%   |                  0.0%   [408]          0.0%                    
459    nl_459                          |                  0.0%   |                  0.0%   [409, 410]     0.0%                    
462    concat_462                      |                  0.0%   |                  0.0%   [411]          0.0%                    
470    slice_470                       |                  0.0%   |                  0.0%   [430]          0.0%                    
471    tfl_pseudo_qconst3              ||||||||||||||||   2.1%   ||||||||||||||||  20.9%   [431]          2.1%                    
472    eltwise_472                     |                  0.0%   |                  0.0%   [432]          0.0%                    
473    eltwise_473                     |                  0.0%   |                  0.0%   [433]          0.0%                    
474    eltwise_474                     |                  0.0%   |                  0.0%   [434]          0.0%                    
475    tfl_pseudo_qconst39             |                  0.0%   |                  0.0%   [435]          0.0%                    
476    nl_476                          |                  0.0%   |                  0.0%   [436]          0.0%                    
477    conversion_477                  |                  0.0%   |                  0.0%   [437]          0.0%                    
478    nl_478                          |                  0.0%   |                  0.0%   [438, 439]     0.0%                    
481    eltwise_481                     |                  0.0%   |                  0.0%   [440]          0.0%                    
482    conversion_482                  |                  0.0%   |                  0.0%   [441]          0.0%                    
483    eltwise_483                     |                  0.0%   |                  0.0%   [442]          0.0%                    
484    eltwise_484                     |                  0.0%   |                  0.0%   [443]          0.0%                    
485    slice_485                       |                  0.0%   |                  0.0%   [428]          0.0%                    
486    gemm_486                        ||||||||||||||||   2.1%   ||||||||||||||||  20.9%   [429]          2.1%                    
487    slice_487                       |                  0.0%   |                  0.0%   [426]          0.0%                    
488    gemm_488                        ||||||||||||||||   2.1%   ||||||||||||||||  20.9%   [427]          2.1%                    
489    eltwise_489                     |                  0.0%   |                  0.0%   [444]          0.0%                    
490    eltwise_490                     |                  0.0%   |                  0.0%   [445]          0.0%                    
491    eltwise_491                     |                  0.0%   |                  0.0%   [446]          0.0%                    
492    tfl_pseudo_qconst40             |                  0.0%   |                  0.0%   [447]          0.0%                    
493    nl_493                          |                  0.0%   |                  0.0%   [448]          0.0%                    
494    conversion_494                  |                  0.0%   |                  0.0%   [449]          0.0%                    
495    nl_495                          |                  0.0%   |                  0.0%   [450, 451]     0.0%                    
498    eltwise_498                     |                  0.0%   |                  0.0%   [452]          0.0%                    
499    conversion_499                  |                  0.0%   |                  0.0%   [453]          0.0%                    
500    eltwise_500                     |                  0.0%   |                  0.0%   [454]          0.0%                    
501    eltwise_501                     |                  0.0%   |                  0.0%   [455]          0.0%                    
502    slice_502                       |                  0.0%   |                  0.0%   [424]          0.0%                    
503    gemm_503                        ||||||||||||||||   2.1%   ||||||||||||||||  20.9%   [425]          2.1%                    
504    eltwise_504                     |                  0.0%   |                  0.0%   [456]          0.0%                    
505    eltwise_505                     |                  0.0%   |                  0.0%   [457]          0.0%                    
506    eltwise_506                     |                  0.0%   |                  0.0%   [458]          0.0%                    
507    tfl_pseudo_qconst41             |                  0.0%   |                  0.0%   [459]          0.0%                    
508    nl_508                          |                  0.0%   |                  0.0%   [460]          0.0%                    
509    conversion_509                  |                  0.0%   |                  0.0%   [461]          0.0%                    
510    nl_510                          |                  0.0%   |                  0.0%   [462, 463]     0.0%                    
513    eltwise_513                     |                  0.0%   |                  0.0%   [464]          0.0%                    
514    conversion_514                  |                  0.0%   |                  0.0%   [465]          0.0%                    
515    eltwise_515                     |                  0.0%   |                  0.0%   [466]          0.0%                    
516    eltwise_516                     |                  0.0%   |                  0.0%   [467]          0.0%                    
517    slice_517                       |                  0.0%   |                  0.0%   [422]          0.0%                    
518    gemm_518                        ||||||||||||||||   2.1%   ||||||||||||||||  20.9%   [423]          2.1%                    
519    eltwise_519                     |                  0.0%   |                  0.0%   [468]          0.0%                    
520    eltwise_520                     |                  0.0%   |                  0.0%   [469]          0.0%                    
521    eltwise_521                     |                  0.0%   |                  0.0%   [470]          0.0%                    
522    tfl_pseudo_qconst42             |                  0.0%   |                  0.0%   [471]          0.0%                    
523    nl_523                          |                  0.0%   |                  0.0%   [472]          0.0%                    
524    conversion_524                  |                  0.0%   |                  0.0%   [473]          0.0%                    
525    nl_525                          |                  0.0%   |                  0.0%   [474, 475]     0.0%                    
528    eltwise_528                     |                  0.0%   |                  0.0%   [476]          0.0%                    
529    conversion_529                  |                  0.0%   |                  0.0%   [477]          0.0%                    
530    eltwise_530                     |                  0.0%   |                  0.0%   [478]          0.0%                    
531    eltwise_531                     |                  0.0%   |                  0.0%   [479]          0.0%                    
532    slice_532                       |                  0.0%   |                  0.0%   [420]          0.0%                    
533    gemm_533                        ||||||||||||||||   2.1%   ||||||||||||||||  20.9%   [421]          2.1%                    
534    eltwise_534                     |                  0.0%   |                  0.0%   [480]          0.0%                    
535    eltwise_535                     |                  0.0%   |                  0.0%   [481]          0.0%                    
536    eltwise_536                     |                  0.0%   |                  0.0%   [482]          0.0%                    
537    tfl_pseudo_qconst43             |                  0.0%   |                  0.0%   [483]          0.0%                    
538    nl_538                          |                  0.0%   |                  0.0%   [484]          0.0%                    
539    conversion_539                  |                  0.0%   |                  0.0%   [485]          0.0%                    
540    nl_540                          |                  0.0%   |                  0.0%   [486, 487]     0.0%                    
543    eltwise_543                     |                  0.0%   |                  0.0%   [488]          0.0%                    
544    conversion_544                  |                  0.0%   |                  0.0%   [489]          0.0%                    
545    eltwise_545                     |                  0.0%   |                  0.0%   [490]          0.0%                    
546    eltwise_546                     |                  0.0%   |                  0.0%   [491]          0.0%                    
547    slice_547                       |                  0.0%   |                  0.0%   [418]          0.0%                    
548    gemm_548                        ||||||||||||||||   2.1%   ||||||||||||||||  20.9%   [419]          2.1%                    
549    eltwise_549                     |                  0.0%   |                  0.0%   [492]          0.0%                    
550    eltwise_550                     |                  0.0%   |                  0.0%   [493]          0.0%                    
551    eltwise_551                     |                  0.0%   |                  0.0%   [494]          0.0%                    
552    tfl_pseudo_qconst44             |                  0.0%   |                  0.0%   [495]          0.0%                    
553    nl_553                          |                  0.0%   |                  0.0%   [496]          0.0%                    
554    conversion_554                  |                  0.0%   |                  0.0%   [497]          0.0%                    
555    nl_555                          |                  0.0%   |                  0.0%   [498, 499]     0.0%                    
558    eltwise_558                     |                  0.0%   |                  0.0%   [500]          0.0%                    
559    conversion_559                  |                  0.0%   |                  0.0%   [501]          0.0%                    
560    eltwise_560                     |                  0.0%   |                  0.0%   [502]          0.0%                    
561    eltwise_561                     |                  0.0%   |                  0.0%   [503]          0.0%                    
562    slice_562                       |                  0.0%   |                  0.0%   [416]          0.0%                    
563    gemm_563                        ||||||||||||||||   2.1%   ||||||||||||||||  20.9%   [417]          2.1%                    
564    eltwise_564                     |                  0.0%   |                  0.0%   [504]          0.0%                    
565    eltwise_565                     |                  0.0%   |                  0.0%   [505]          0.0%                    
566    eltwise_566                     |                  0.0%   |                  0.0%   [506]          0.0%                    
567    tfl_pseudo_qconst45             |                  0.0%   |                  0.0%   [507]          0.0%                    
568    nl_568                          |                  0.0%   |                  0.0%   [508]          0.0%                    
569    conversion_569                  |                  0.0%   |                  0.0%   [509]          0.0%                    
570    nl_570                          |                  0.0%   |                  0.0%   [510, 511]     0.0%                    
573    eltwise_573                     |                  0.0%   |                  0.0%   [512]          0.0%                    
574    conversion_574                  |                  0.0%   |                  0.0%   [513]          0.0%                    
575    eltwise_575                     |                  0.0%   |                  0.0%   [514]          0.0%                    
576    eltwise_576                     |                  0.0%   |                  0.0%   [515]          0.0%                    
577    slice_577                       |                  0.0%   |                  0.0%   [414]          0.0%                    
578    gemm_578                        ||||||||||||||||   2.1%   ||||||||||||||||  20.9%   [415]          2.1%                    
579    eltwise_579                     |                  0.0%   |                  0.0%   [516]          0.0%                    
580    eltwise_580                     |                  0.0%   |                  0.0%   [517]          0.0%                    
581    eltwise_581                     |                  0.0%   |                  0.0%   [518]          0.0%                    
582    tfl_pseudo_qconst46             |                  0.0%   |                  0.0%   [519]          0.0%                    
583    nl_583                          |                  0.0%   |                  0.0%   [520]          0.0%                    
584    conversion_584                  |                  0.0%   |                  0.0%   [521]          0.0%                    
585    nl_585                          |                  0.0%   |                  0.0%   [522, 523]     0.0%                    
588    eltwise_588                     |                  0.0%   |                  0.0%   [524]          0.0%                    
589    conversion_589                  |                  0.0%   |                  0.0%   [525]          0.0%                    
590    eltwise_590                     |                  0.0%   |                  0.0%   [526]          0.0%                    
591    eltwise_591                     |                  0.0%   |                  0.0%   [527]          0.0%                    
592    slice_592                       |                  0.0%   |                  0.0%   [412]          0.0%                    
593    gemm_593                        ||||||||||||||||   2.1%   ||||||||||||||||  20.9%   [413]          2.1%                    
594    eltwise_594                     |                  0.0%   |                  0.0%   [528]          0.0%                    
595    eltwise_595                     |                  0.0%   |                  0.0%   [529]          0.0%                    
596    eltwise_596                     |                  0.0%   |                  0.0%   [530]          0.0%                    
597    tfl_pseudo_qconst47             |                  0.0%   |                  0.0%   [531]          0.0%                    
598    nl_598                          |                  0.0%   |                  0.0%   [532]          0.0%                    
599    conversion_599                  |                  0.0%   |                  0.0%   [533]          0.0%                    
600    nl_600                          |                  0.0%   |                  0.0%   [534, 535]     0.0%                    
603    eltwise_603                     |                  0.0%   |                  0.0%   [536]          0.0%                    
604    conversion_604                  |                  0.0%   |                  0.0%   [537]          0.0%                    
605    eltwise_605                     |                  0.0%   |                  0.0%   [538]          0.0%                    
606    eltwise_606                     |                  0.0%   |                  0.0%   [539]          0.0%                    
607    eltwise_607                     |                  0.0%   |                  0.0%   [540]          0.0%                    
608    eltwise_608                     |                  0.0%   |                  0.0%   [541]          0.0%                    
609    eltwise_609                     |                  0.0%   |                  0.0%   [542]          0.0%                    
610    tfl_pseudo_qconst48             |                  0.0%   |                  0.0%   [543]          0.0%                    
611    nl_611                          |                  0.0%   |                  0.0%   [544]          0.0%                    
612    conversion_612                  |                  0.0%   |                  0.0%   [545]          0.0%                    
613    nl_613                          |                  0.0%   |                  0.0%   [546, 547]     0.0%                    
616    concat_616                      |                  0.0%   |                  0.0%   [548]          0.0%                    
624    slice_624                       |                  0.0%   |                  0.0%   [567]          0.0%                    
625    tfl_pseudo_qconst2              ||||||||||||||||   2.1%   ||||||||||||||||  20.9%   [568]          2.1%                    
626    eltwise_626                     |                  0.0%   |                  0.0%   [569]          0.0%                    
627    eltwise_627                     |                  0.0%   |                  0.0%   [570]          0.0%                    
628    eltwise_628                     |                  0.0%   |                  0.0%   [571]          0.0%                    
629    tfl_pseudo_qconst49             |                  0.0%   |                  0.0%   [572]          0.0%                    
630    nl_630                          |                  0.0%   |                  0.0%   [573]          0.0%                    
631    conversion_631                  |                  0.0%   |                  0.0%   [574]          0.0%                    
632    nl_632                          |                  0.0%   |                  0.0%   [575, 576]     0.0%                    
635    eltwise_635                     |                  0.0%   |                  0.0%   [577]          0.0%                    
636    conversion_636                  |                  0.0%   |                  0.0%   [578]          0.0%                    
637    eltwise_637                     |                  0.0%   |                  0.0%   [579]          0.0%                    
638    eltwise_638                     |                  0.0%   |                  0.0%   [580]          0.0%                    
639    slice_639                       |                  0.0%   |                  0.0%   [565]          0.0%                    
640    gemm_640                        ||||||||||||||||   2.1%   ||||||||||||||||  20.9%   [566]          2.1%                    
641    slice_641                       |                  0.0%   |                  0.0%   [563]          0.0%                    
642    gemm_642                        ||||||||||||||||   2.1%   ||||||||||||||||  20.9%   [564]          2.1%                    
643    eltwise_643                     |                  0.0%   |                  0.0%   [581]          0.0%                    
644    eltwise_644                     |                  0.0%   |                  0.0%   [582]          0.0%                    
645    eltwise_645                     |                  0.0%   |                  0.0%   [583]          0.0%                    
646    tfl_pseudo_qconst50             |                  0.0%   |                  0.0%   [584]          0.0%                    
647    nl_647                          |                  0.0%   |                  0.0%   [585]          0.0%                    
648    conversion_648                  |                  0.0%   |                  0.0%   [586]          0.0%                    
649    nl_649                          |                  0.0%   |                  0.0%   [587, 588]     0.0%                    
652    eltwise_652                     |                  0.0%   |                  0.0%   [589]          0.0%                    
653    conversion_653                  |                  0.0%   |                  0.0%   [590]          0.0%                    
654    eltwise_654                     |                  0.0%   |                  0.0%   [591]          0.0%                    
655    eltwise_655                     |                  0.0%   |                  0.0%   [592]          0.0%                    
656    slice_656                       |                  0.0%   |                  0.0%   [561]          0.0%                    
657    gemm_657                        ||||||||||||||||   2.1%   ||||||||||||||||  20.9%   [562]          2.1%                    
658    eltwise_658                     |                  0.0%   |                  0.0%   [593]          0.0%                    
659    eltwise_659                     |                  0.0%   |                  0.0%   [594]          0.0%                    
660    eltwise_660                     |                  0.0%   |                  0.0%   [595]          0.0%                    
661    tfl_pseudo_qconst51             |                  0.0%   |                  0.0%   [596]          0.0%                    
662    nl_662                          |                  0.0%   |                  0.0%   [597]          0.0%                    
663    conversion_663                  |                  0.0%   |                  0.0%   [598]          0.0%                    
664    nl_664                          |                  0.0%   |                  0.0%   [599, 600]     0.0%                    
667    eltwise_667                     |                  0.0%   |                  0.0%   [601]          0.0%                    
668    conversion_668                  |                  0.0%   |                  0.0%   [602]          0.0%                    
669    eltwise_669                     |                  0.0%   |                  0.0%   [603]          0.0%                    
670    eltwise_670                     |                  0.0%   |                  0.0%   [604]          0.0%                    
671    slice_671                       |                  0.0%   |                  0.0%   [559]          0.0%                    
672    gemm_672                        ||||||||||||||||   2.1%   ||||||||||||||||  20.9%   [560]          2.1%                    
673    eltwise_673                     |                  0.0%   |                  0.0%   [605]          0.0%                    
674    eltwise_674                     |                  0.0%   |                  0.0%   [606]          0.0%                    
675    eltwise_675                     |                  0.0%   |                  0.0%   [607]          0.0%                    
676    tfl_pseudo_qconst52             |                  0.0%   |                  0.0%   [608]          0.0%                    
677    nl_677                          |                  0.0%   |                  0.0%   [609]          0.0%                    
678    conversion_678                  |                  0.0%   |                  0.0%   [610]          0.0%                    
679    nl_679                          |                  0.0%   |                  0.0%   [611, 612]     0.0%                    
682    eltwise_682                     |                  0.0%   |                  0.0%   [613]          0.0%                    
683    conversion_683                  |                  0.0%   |                  0.0%   [614]          0.0%                    
684    eltwise_684                     |                  0.0%   |                  0.0%   [615]          0.0%                    
685    eltwise_685                     |                  0.0%   |                  0.0%   [616]          0.0%                    
686    slice_686                       |                  0.0%   |                  0.0%   [557]          0.0%                    
687    gemm_687                        ||||||||||||||||   2.1%   ||||||||||||||||  20.9%   [558]          2.1%                    
688    eltwise_688                     |                  0.0%   |                  0.0%   [617]          0.0%                    
689    eltwise_689                     |                  0.0%   |                  0.0%   [618]          0.0%                    
690    eltwise_690                     |                  0.0%   |                  0.0%   [619]          0.0%                    
691    tfl_pseudo_qconst53             |                  0.0%   |                  0.0%   [620]          0.0%                    
692    nl_692                          |                  0.0%   |                  0.0%   [621]          0.0%                    
693    conversion_693                  |                  0.0%   |                  0.0%   [622]          0.0%                    
694    nl_694                          |                  0.0%   |                  0.0%   [623, 624]     0.0%                    
697    eltwise_697                     |                  0.0%   |                  0.0%   [625]          0.0%                    
698    conversion_698                  |                  0.0%   |                  0.0%   [626]          0.0%                    
699    eltwise_699                     |                  0.0%   |                  0.0%   [627]          0.0%                    
700    eltwise_700                     |                  0.0%   |                  0.0%   [628]          0.0%                    
701    slice_701                       |                  0.0%   |                  0.0%   [555]          0.0%                    
702    gemm_702                        ||||||||||||||||   2.1%   ||||||||||||||||  20.9%   [556]          2.1%                    
703    eltwise_703                     |                  0.0%   |                  0.0%   [629]          0.0%                    
704    eltwise_704                     |                  0.0%   |                  0.0%   [630]          0.0%                    
705    eltwise_705                     |                  0.0%   |                  0.0%   [631]          0.0%                    
706    tfl_pseudo_qconst54             |                  0.0%   |                  0.0%   [632]          0.0%                    
707    nl_707                          |                  0.0%   |                  0.0%   [633]          0.0%                    
708    conversion_708                  |                  0.0%   |                  0.0%   [634]          0.0%                    
709    nl_709                          |                  0.0%   |                  0.0%   [635, 636]     0.0%                    
712    eltwise_712                     |                  0.0%   |                  0.0%   [637]          0.0%                    
713    conversion_713                  |                  0.0%   |                  0.0%   [638]          0.0%                    
714    eltwise_714                     |                  0.0%   |                  0.0%   [639]          0.0%                    
715    eltwise_715                     |                  0.0%   |                  0.0%   [640]          0.0%                    
716    slice_716                       |                  0.0%   |                  0.0%   [553]          0.0%                    
717    gemm_717                        ||||||||||||||||   2.1%   ||||||||||||||||  20.9%   [554]          2.1%                    
718    eltwise_718                     |                  0.0%   |                  0.0%   [641]          0.0%                    
719    eltwise_719                     |                  0.0%   |                  0.0%   [642]          0.0%                    
720    eltwise_720                     |                  0.0%   |                  0.0%   [643]          0.0%                    
721    tfl_pseudo_qconst55             |                  0.0%   |                  0.0%   [644]          0.0%                    
722    nl_722                          |                  0.0%   |                  0.0%   [645]          0.0%                    
723    conversion_723                  |                  0.0%   |                  0.0%   [646]          0.0%                    
724    nl_724                          |                  0.0%   |                  0.0%   [647, 648]     0.0%                    
727    eltwise_727                     |                  0.0%   |                  0.0%   [649]          0.0%                    
728    conversion_728                  |                  0.0%   |                  0.0%   [650]          0.0%                    
729    eltwise_729                     |                  0.0%   |                  0.0%   [651]          0.0%                    
730    eltwise_730                     |                  0.0%   |                  0.0%   [652]          0.0%                    
731    slice_731                       |                  0.0%   |                  0.0%   [551]          0.0%                    
732    gemm_732                        ||||||||||||||||   2.1%   ||||||||||||||||  20.9%   [552]          2.1%                    
733    eltwise_733                     |                  0.0%   |                  0.0%   [653]          0.0%                    
734    eltwise_734                     |                  0.0%   |                  0.0%   [654]          0.0%                    
735    eltwise_735                     |                  0.0%   |                  0.0%   [655]          0.0%                    
736    tfl_pseudo_qconst56             |                  0.0%   |                  0.0%   [656]          0.0%                    
737    nl_737                          |                  0.0%   |                  0.0%   [657]          0.0%                    
738    conversion_738                  |                  0.0%   |                  0.0%   [658]          0.0%                    
739    nl_739                          |                  0.0%   |                  0.0%   [659, 660]     0.0%                    
742    eltwise_742                     |                  0.0%   |                  0.0%   [661]          0.0%                    
743    conversion_743                  |                  0.0%   |                  0.0%   [662]          0.0%                    
744    eltwise_744                     |                  0.0%   |                  0.0%   [663]          0.0%                    
745    eltwise_745                     |                  0.0%   |                  0.0%   [664]          0.0%                    
746    slice_746                       |                  0.0%   |                  0.0%   [549]          0.0%                    
747    gemm_747                        ||||||||||||||||   2.1%   ||||||||||||||||  20.9%   [550]          2.1%                    
748    eltwise_748                     |                  0.0%   |                  0.0%   [665]          0.0%                    
749    eltwise_749                     |                  0.0%   |                  0.0%   [666]          0.0%                    
750    eltwise_750                     |                  0.0%   |                  0.0%   [667]          0.0%                    
751    tfl_pseudo_qconst57             |                  0.0%   |                  0.0%   [668]          0.0%                    
752    nl_752                          |                  0.0%   |                  0.0%   [669]          0.0%                    
753    conversion_753                  |                  0.0%   |                  0.0%   [670]          0.0%                    
754    nl_754                          |                  0.0%   |                  0.0%   [671, 672]     0.0%                    
757    eltwise_757                     |                  0.0%   |                  0.0%   [673]          0.0%                    
758    conversion_758                  |                  0.0%   |                  0.0%   [674]          0.0%                    
759    eltwise_759                     |                  0.0%   |                  0.0%   [675]          0.0%                    
760    eltwise_760                     |                  0.0%   |                  0.0%   [676]          0.0%                    
761    eltwise_761                     |                  0.0%   |                  0.0%   [677]          0.0%                    
762    eltwise_762                     |                  0.0%   |                  0.0%   [678]          0.0%                    
763    eltwise_763                     |                  0.0%   |                  0.0%   [679]          0.0%                    
764    tfl_pseudo_qconst58             |                  0.0%   |                  0.0%   [680]          0.0%                    
765    nl_765                          |                  0.0%   |                  0.0%   [681]          0.0%                    
766    conversion_766                  |                  0.0%   |                  0.0%   [682]          0.0%                    
767    nl_767                          |                  0.0%   |                  0.0%   [683, 684]     0.0%                    
770    concat_770                      |                  0.0%   |                  0.0%   [685, 686]     0.0%                    
771    reduce_771                      |                  0.0%   |                  0.0%   [687, 688]     0.0%                    
772    tfl_pseudo_qconst1              |                  0.0%   |                  0.2%   [689]          0.0%                    
773    nl_773                          |                  0.0%   |                  0.0%   [690]          0.0%                    
774    conversion_774                  |                  0.0%   |                  0.0%   [691]          0.0%   3.19740339e-03   
------ ------------------------------- ------------------------- ------------------------- ------------ -------- ---------------- 
macc=48,677,905 weights=4,804,248 act=52,000 ram_io=0

Evaluation report (summary)
---------------------------------------------------------------------------------------------------------------------------------------------------------------------------
Output              acc       rmse          mae           l2r           mean        std        nse             cos        tensor                                           
---------------------------------------------------------------------------------------------------------------------------------------------------------------------------
TARGET c-model #1   60.00%    0.283848673   0.099531248   0.996944070   -0.099453   0.267195   -53485.173573   0.705447   'conversion_774', 10 x uint8(1x10), m_id=[774]   
original model #1   60.00%    0.283882260   0.099570312   0.996946692   -0.099492   0.267216   -53497.835443   0.704932   'conversion_774', 10 x uint8(1x10), m_id=[774]   
X-cross #1          100.00%   0.003197403   0.000507812   0.011230041   0.000039    0.003213   0.999858        0.999937   'conversion_774', 10 x uint8(1x10), m_id=[774]   
---------------------------------------------------------------------------------------------------------------------------------------------------------------------------

 acc  : Accuracy (class, axis=-1)
 rmse : Root Mean Squared Error
 mae  : Mean Absolute Error
 l2r  : L2 relative error
 mean : Mean error
 std  : Standard deviation error
 nse  : Nash-Sutcliffe efficiency criteria, bigger is better, best=1, range=(-inf, 1]
 cos  : COsine Similarity, bigger is better, best=1, range=(0, 1]
