ST Edge AI Core v2.2.0-20266 2adc00962
Created date          : 2025-08-06 15:37:27
Parameters            : validate -m .\snn_100_10_V2.tflite --target stm32n6 --mode target --desc serial:921600 --memory-pool ./mypool_N6.json -vi .\val_data_10.npz --classifier -v 3

Exec/report summary (validate)
---------------------------------------------------------------------------------------------------------------------
model file         :   C:\ST\STEdgeAI\2.2\Projects\STM32N6570-DK\Applications\CM55_Validation\snn_100_10_V2.tflite   
type               :   tflite                                                                                        
c_name             :   network                                                                                       
compression        :   lossless                                                                                      
options            :   allocate-inputs, allocate-outputs, multi-heaps                                                
optimization       :   balanced                                                                                      
target/series      :   stm32n6                                                                                       
memory pool        :   C:\ST\STEdgeAI\2.2\Projects\STM32N6570-DK\Applications\CM55_Validation\mypool_N6.json         
workspace dir      :   C:\ST\STEdgeAI\2.2\Projects\STM32N6570-DK\Applications\CM55_Validation\st_ai_ws               
output dir         :   C:\ST\STEdgeAI\2.2\Projects\STM32N6570-DK\Applications\CM55_Validation\st_ai_output           
vinput files       :   C:\ST\STEdgeAI\2.2\Projects\STM32N6570-DK\Applications\CM55_Validation\val_data_10.npz        
model_fmt          :   sa/sa per tensor                                                                              
model_name         :   snn_100_10_V2                                                                                 
model_hash         :   0xbb88a2ea78aab6ff8dab87d72ff4cf25                                                            
params #           :   170,612 items (166.65 KiB)                                                                    
---------------------------------------------------------------------------------------------------------------------
input 1/1          :   'serving_default_keras_tensor0', f32(1x10x784), 30.62 KBytes, activations                     
output 1/1         :   'conversion_1544', uint8(1x10), 10 Bytes, QLinear(0.003906250,0,uint8), activations           
macc               :   1,860,150                                                                                     
weights (ro)       :   171,348 B (167.33 KiB) (1 segment) / -511,100(-74.9%) vs float model                          
activations (rw)   :   32,560 B (31.80 KiB) (1 segment) *                                                            
ram (total)        :   32,560 B (31.80 KiB) = 32,560 + 0 + 0                                                         
---------------------------------------------------------------------------------------------------------------------
(*) 'input'/'output' buffers are allocated in the activations buffer
 
 Memory-pools summary (activations/ domain)
 --------------- -------- -------------------------- --------- 
 name            id       used                       buffer#   
 --------------- -------- -------------------------- --------- 
 POOL_INTERNAL   0        31.80 KiB (3.1%)           1480      
 POOL_NPU        unused   -                          0         
 POOL_EXT        unused   -                          0         
 weights_array   3        167.33 KiB (17134800.0%)   126       
 --------------- -------- -------------------------- --------- 
 Warning: ['POOL_NPU', 'POOL_EXT'] memory pool s not used

Model name - snn_100_10_V2
------ ----------------------------------------------- ------------------ --------------- -------- ------------------------------- --- ------------------ ------------------ --------------------------------------- 
m_id   layer (type,original)                           oshape             param/size          macc                    connected to   | c_size             c_macc             c_type                                  
------ ----------------------------------------------- ------------------ --------------- -------- ------------------------------- --- ------------------ ------------------ --------------------------------------- 
0      serving_default_keras_tensor0 (Input, )         [b:1,h:10,c:784]                                                              |                    +15,680(+100.0%)   Conversion_[0]                          
       conversion_0 (Conversion, QUANTIZE)             [b:1,h:10,c:784]                     15,680   serving_default_keras_tensor0   |                    -15,680(-100.0%)   
------ ----------------------------------------------- ------------------ --------------- -------- ------------------------------- --- ------------------ ------------------ --------------------------------------- 
7      tfl_pseudo_qconst13 (Placeholder, )             [b:100]            100/100                                                    | -100(-100.0%)                         
       eltwise_7_const (Placeholder, MUL)              [b:1,c:100]        100/100                                                    | -100(-100.0%)                         
------ ----------------------------------------------- ------------------ --------------- -------- ------------------------------- --- ------------------ ------------------ --------------------------------------- 
8      slice_8 (Slice, STRIDED_SLICE)                  [b:1,h:1,c:784]                                                conversion_0   |                                       Slice_[19]                              
       reshape_8_reshape (Reshape, STRIDED_SLICE)      [b:1,c:784]                                                         slice_8   |                                       
------ ----------------------------------------------- ------------------ --------------- -------- ------------------------------- --- ------------------ ------------------ --------------------------------------- 
9      tfl_pseudo_qconst12 (Placeholder, )             [b:100,c:784]      78,400/78,400                                              | +400(+0.5%)        +78,500(+100.0%)   Dense_[20]                              
       gemm_9 (Gemm, FULLY_CONNECTED)                  [b:1,c:100]                          78,500               reshape_8_reshape   |                    -78,500(-100.0%)   
                                                                                                               tfl_pseudo_qconst12   | 
------ ----------------------------------------------- ------------------ --------------- -------- ------------------------------- --- ------------------ ------------------ --------------------------------------- 
10     eltwise_10 (Eltwise, ADD)                       [b:1,c:100]                             100                          gemm_9   | +100(+100.0%)                         Eltwise/add_[21]                        
                                                                                                                   eltwise_7_const   | 
------ ----------------------------------------------- ------------------ --------------- -------- ------------------------------- --- ------------------ ------------------ --------------------------------------- 
11     tfl_pseudo_qconst11 (Placeholder, )             []                 1/1                                                        |                    +100(+100.0%)      Eltwise/mul_[22]                        
       eltwise_11 (Eltwise, MUL)                       [b:1,c:100]                             100                      eltwise_10   |                    -100(-100.0%)      
                                                                                                               tfl_pseudo_qconst11   | 
------ ----------------------------------------------- ------------------ --------------- -------- ------------------------------- --- ------------------ ------------------ --------------------------------------- 
12     eltwise_12 (Eltwise, ADD)                       [b:1,c:100]                             100                      eltwise_11   | +1(+100.0%)                           Eltwise/add_[23]                        
                                                                                                               tfl_pseudo_qconst11   | 
------ ----------------------------------------------- ------------------ --------------- -------- ------------------------------- --- ------------------ ------------------ --------------------------------------- 
13     tfl_pseudo_qconst14 (Placeholder, )             []                 1/1                                                        |                    +100(+100.0%)      Eltwise/min_[24]                        
       eltwise_13 (Eltwise, MINIMUM)                   [b:1,c:100]                             100                      eltwise_12   |                    -100(-100.0%)      
                                                                                                               tfl_pseudo_qconst14   | 
------ ----------------------------------------------- ------------------ --------------- -------- ------------------------------- --- ------------------ ------------------ --------------------------------------- 
14     nl_14 (Nonlinearity, RELU)                      [b:1,c:100]                             100                      eltwise_13   |                                       Nonlinearity_[25]                       
------ ----------------------------------------------- ------------------ --------------- -------- ------------------------------- --- ------------------ ------------------ --------------------------------------- 
15     conversion_15 (Conversion, DEQUANTIZE)          [b:1,c:100]                             200                           nl_14   |                                       Conversion_[26]                         
------ ----------------------------------------------- ------------------ --------------- -------- ------------------------------- --- ------------------ ------------------ --------------------------------------- 
16     nl_16 (Nonlinearity, ROUND)                     [b:1,c:100]                             200                   conversion_15   |                    +200(+100.0%)      Nonlinearity_/Conversion_[27, 28]       
------ ----------------------------------------------- ------------------ --------------- -------- ------------------------------- --- ------------------ ------------------ --------------------------------------- 
17     reshape_17 (Reshape, EXPAND_DIMS)               [b:1,h:1,c:100]                                                       nl_16   |                                       
------ ----------------------------------------------- ------------------ --------------- -------- ------------------------------- --- ------------------ ------------------ --------------------------------------- 
18     conversion_18 (Conversion, QUANTIZE)            [b:1,h:1,c:100]                         200                      reshape_17   |                    -200(-100.0%)      
------ ----------------------------------------------- ------------------ --------------- -------- ------------------------------- --- ------------------ ------------------ --------------------------------------- 
19     arith_constant (Placeholder, )                  []                 1/4                                                        |                    +1(+100.0%)        Eltwise/sub_[29]                        
       eltwise_19 (Eltwise, SUB)                       [b:1,c:100]                               1                  arith_constant   |                    -1(-100.0%)        
                                                                                                                             nl_16   | 
------ ----------------------------------------------- ------------------ --------------- -------- ------------------------------- --- ------------------ ------------------ --------------------------------------- 
20     conversion_20 (Conversion, QUANTIZE)            [b:1,c:100]                             200                      eltwise_19   |                                       Conversion_[30]                         
------ ----------------------------------------------- ------------------ --------------- -------- ------------------------------- --- ------------------ ------------------ --------------------------------------- 
21     eltwise_21 (Eltwise, MUL)                       [b:1,c:100]                             100                      eltwise_10   |                                       Eltwise/mul_[31]                        
                                                                                                                     conversion_20   | 
------ ----------------------------------------------- ------------------ --------------- -------- ------------------------------- --- ------------------ ------------------ --------------------------------------- 
22     eltwise_22 (Eltwise, MUL)                       [b:1,c:100]                             100                      eltwise_21   | +100(+100.0%)                         Eltwise/mul_[32]                        
                                                                                                               tfl_pseudo_qconst13   | 
------ ----------------------------------------------- ------------------ --------------- -------- ------------------------------- --- ------------------ ------------------ --------------------------------------- 
23     slice_23 (Slice, STRIDED_SLICE)                 [b:1,h:1,c:784]                                                conversion_0   |                                       Slice_[17]                              
       reshape_23_reshape (Reshape, STRIDED_SLICE)     [b:1,c:784]                                                        slice_23   |                                       
------ ----------------------------------------------- ------------------ --------------- -------- ------------------------------- --- ------------------ ------------------ --------------------------------------- 
24     gemm_24 (Gemm, FULLY_CONNECTED)                 [b:1,c:100]                          78,500              reshape_23_reshape   | +78,800(+100.0%)                      Dense_[18]                              
                                                                                                               tfl_pseudo_qconst12   | 
------ ----------------------------------------------- ------------------ --------------- -------- ------------------------------- --- ------------------ ------------------ --------------------------------------- 
25     slice_25 (Slice, STRIDED_SLICE)                 [b:1,h:1,c:784]                                                conversion_0   |                                       Slice_[15]                              
       reshape_25_reshape (Reshape, STRIDED_SLICE)     [b:1,c:784]                                                        slice_25   |                                       
------ ----------------------------------------------- ------------------ --------------- -------- ------------------------------- --- ------------------ ------------------ --------------------------------------- 
26     gemm_26 (Gemm, FULLY_CONNECTED)                 [b:1,c:100]                          78,500              reshape_25_reshape   | +78,800(+100.0%)                      Dense_[16]                              
                                                                                                               tfl_pseudo_qconst12   | 
------ ----------------------------------------------- ------------------ --------------- -------- ------------------------------- --- ------------------ ------------------ --------------------------------------- 
27     eltwise_27 (Eltwise, ADD)                       [b:1,c:100]                             100                         gemm_26   |                                       Eltwise/add_[33]                        
                                                                                                                        eltwise_22   | 
------ ----------------------------------------------- ------------------ --------------- -------- ------------------------------- --- ------------------ ------------------ --------------------------------------- 
28     eltwise_28 (Eltwise, MUL)                       [b:1,c:100]                             100                      eltwise_27   | +1(+100.0%)                           Eltwise/mul_[34]                        
                                                                                                               tfl_pseudo_qconst11   | 
------ ----------------------------------------------- ------------------ --------------- -------- ------------------------------- --- ------------------ ------------------ --------------------------------------- 
29     eltwise_29 (Eltwise, ADD)                       [b:1,c:100]                             100                      eltwise_28   | +1(+100.0%)                           Eltwise/add_[35]                        
                                                                                                               tfl_pseudo_qconst11   | 
------ ----------------------------------------------- ------------------ --------------- -------- ------------------------------- --- ------------------ ------------------ --------------------------------------- 
30     tfl_pseudo_qconst15 (Placeholder, )             []                 1/1                                                        |                    +100(+100.0%)      Eltwise/min_[36]                        
       eltwise_30 (Eltwise, MINIMUM)                   [b:1,c:100]                             100                      eltwise_29   |                    -100(-100.0%)      
                                                                                                               tfl_pseudo_qconst15   | 
------ ----------------------------------------------- ------------------ --------------- -------- ------------------------------- --- ------------------ ------------------ --------------------------------------- 
31     nl_31 (Nonlinearity, RELU)                      [b:1,c:100]                             100                      eltwise_30   |                                       Nonlinearity_[37]                       
------ ----------------------------------------------- ------------------ --------------- -------- ------------------------------- --- ------------------ ------------------ --------------------------------------- 
32     conversion_32 (Conversion, DEQUANTIZE)          [b:1,c:100]                             200                           nl_31   |                                       Conversion_[38]                         
------ ----------------------------------------------- ------------------ --------------- -------- ------------------------------- --- ------------------ ------------------ --------------------------------------- 
33     nl_33 (Nonlinearity, ROUND)                     [b:1,c:100]                             200                   conversion_32   |                    +200(+100.0%)      Nonlinearity_/Conversion_[39, 40]       
------ ----------------------------------------------- ------------------ --------------- -------- ------------------------------- --- ------------------ ------------------ --------------------------------------- 
34     reshape_34 (Reshape, EXPAND_DIMS)               [b:1,h:1,c:100]                                                       nl_33   |                                       
------ ----------------------------------------------- ------------------ --------------- -------- ------------------------------- --- ------------------ ------------------ --------------------------------------- 
35     conversion_35 (Conversion, QUANTIZE)            [b:1,h:1,c:100]                         200                      reshape_34   |                    -200(-100.0%)      
------ ----------------------------------------------- ------------------ --------------- -------- ------------------------------- --- ------------------ ------------------ --------------------------------------- 
36     eltwise_36 (Eltwise, SUB)                       [b:1,c:100]                               1                  arith_constant   | +4(+100.0%)                           Eltwise/sub_[41]                        
                                                                                                                             nl_33   | 
------ ----------------------------------------------- ------------------ --------------- -------- ------------------------------- --- ------------------ ------------------ --------------------------------------- 
37     conversion_37 (Conversion, QUANTIZE)            [b:1,c:100]                             200                      eltwise_36   |                                       Conversion_[42]                         
------ ----------------------------------------------- ------------------ --------------- -------- ------------------------------- --- ------------------ ------------------ --------------------------------------- 
38     eltwise_38 (Eltwise, MUL)                       [b:1,c:100]                             100                      eltwise_27   |                                       Eltwise/mul_[43]                        
                                                                                                                     conversion_37   | 
------ ----------------------------------------------- ------------------ --------------- -------- ------------------------------- --- ------------------ ------------------ --------------------------------------- 
39     eltwise_39 (Eltwise, MUL)                       [b:1,c:100]                             100                      eltwise_38   | +100(+100.0%)                         Eltwise/mul_[44]                        
                                                                                                               tfl_pseudo_qconst13   | 
------ ----------------------------------------------- ------------------ --------------- -------- ------------------------------- --- ------------------ ------------------ --------------------------------------- 
40     slice_40 (Slice, STRIDED_SLICE)                 [b:1,h:1,c:784]                                                conversion_0   |                                       Slice_[13]                              
       reshape_40_reshape (Reshape, STRIDED_SLICE)     [b:1,c:784]                                                        slice_40   |                                       
------ ----------------------------------------------- ------------------ --------------- -------- ------------------------------- --- ------------------ ------------------ --------------------------------------- 
41     gemm_41 (Gemm, FULLY_CONNECTED)                 [b:1,c:100]                          78,500              reshape_40_reshape   | +78,800(+100.0%)                      Dense_[14]                              
                                                                                                               tfl_pseudo_qconst12   | 
------ ----------------------------------------------- ------------------ --------------- -------- ------------------------------- --- ------------------ ------------------ --------------------------------------- 
42     eltwise_42 (Eltwise, ADD)                       [b:1,c:100]                             100                         gemm_41   |                                       Eltwise/add_[45]                        
                                                                                                                        eltwise_39   | 
------ ----------------------------------------------- ------------------ --------------- -------- ------------------------------- --- ------------------ ------------------ --------------------------------------- 
43     eltwise_43 (Eltwise, MUL)                       [b:1,c:100]                             100                      eltwise_42   | +1(+100.0%)                           Eltwise/mul_[46]                        
                                                                                                               tfl_pseudo_qconst11   | 
------ ----------------------------------------------- ------------------ --------------- -------- ------------------------------- --- ------------------ ------------------ --------------------------------------- 
44     eltwise_44 (Eltwise, ADD)                       [b:1,c:100]                             100                      eltwise_43   | +1(+100.0%)                           Eltwise/add_[47]                        
                                                                                                               tfl_pseudo_qconst11   | 
------ ----------------------------------------------- ------------------ --------------- -------- ------------------------------- --- ------------------ ------------------ --------------------------------------- 
45     tfl_pseudo_qconst16 (Placeholder, )             []                 1/1                                                        |                    +100(+100.0%)      Eltwise/min_[48]                        
       eltwise_45 (Eltwise, MINIMUM)                   [b:1,c:100]                             100                      eltwise_44   |                    -100(-100.0%)      
                                                                                                               tfl_pseudo_qconst16   | 
------ ----------------------------------------------- ------------------ --------------- -------- ------------------------------- --- ------------------ ------------------ --------------------------------------- 
46     nl_46 (Nonlinearity, RELU)                      [b:1,c:100]                             100                      eltwise_45   |                                       Nonlinearity_[49]                       
------ ----------------------------------------------- ------------------ --------------- -------- ------------------------------- --- ------------------ ------------------ --------------------------------------- 
47     conversion_47 (Conversion, DEQUANTIZE)          [b:1,c:100]                             200                           nl_46   |                                       Conversion_[50]                         
------ ----------------------------------------------- ------------------ --------------- -------- ------------------------------- --- ------------------ ------------------ --------------------------------------- 
48     nl_48 (Nonlinearity, ROUND)                     [b:1,c:100]                             200                   conversion_47   |                    +200(+100.0%)      Nonlinearity_/Conversion_[51, 52]       
------ ----------------------------------------------- ------------------ --------------- -------- ------------------------------- --- ------------------ ------------------ --------------------------------------- 
49     reshape_49 (Reshape, EXPAND_DIMS)               [b:1,h:1,c:100]                                                       nl_48   |                                       
------ ----------------------------------------------- ------------------ --------------- -------- ------------------------------- --- ------------------ ------------------ --------------------------------------- 
50     conversion_50 (Conversion, QUANTIZE)            [b:1,h:1,c:100]                         200                      reshape_49   |                    -200(-100.0%)      
------ ----------------------------------------------- ------------------ --------------- -------- ------------------------------- --- ------------------ ------------------ --------------------------------------- 
51     eltwise_51 (Eltwise, SUB)                       [b:1,c:100]                               1                  arith_constant   | +4(+100.0%)                           Eltwise/sub_[53]                        
                                                                                                                             nl_48   | 
------ ----------------------------------------------- ------------------ --------------- -------- ------------------------------- --- ------------------ ------------------ --------------------------------------- 
52     conversion_52 (Conversion, QUANTIZE)            [b:1,c:100]                             200                      eltwise_51   |                                       Conversion_[54]                         
------ ----------------------------------------------- ------------------ --------------- -------- ------------------------------- --- ------------------ ------------------ --------------------------------------- 
53     eltwise_53 (Eltwise, MUL)                       [b:1,c:100]                             100                      eltwise_42   |                                       Eltwise/mul_[55]                        
                                                                                                                     conversion_52   | 
------ ----------------------------------------------- ------------------ --------------- -------- ------------------------------- --- ------------------ ------------------ --------------------------------------- 
54     eltwise_54 (Eltwise, MUL)                       [b:1,c:100]                             100                      eltwise_53   | +100(+100.0%)                         Eltwise/mul_[56]                        
                                                                                                               tfl_pseudo_qconst13   | 
------ ----------------------------------------------- ------------------ --------------- -------- ------------------------------- --- ------------------ ------------------ --------------------------------------- 
55     slice_55 (Slice, STRIDED_SLICE)                 [b:1,h:1,c:784]                                                conversion_0   |                                       Slice_[11]                              
       reshape_55_reshape (Reshape, STRIDED_SLICE)     [b:1,c:784]                                                        slice_55   |                                       
------ ----------------------------------------------- ------------------ --------------- -------- ------------------------------- --- ------------------ ------------------ --------------------------------------- 
56     gemm_56 (Gemm, FULLY_CONNECTED)                 [b:1,c:100]                          78,500              reshape_55_reshape   | +78,800(+100.0%)                      Dense_[12]                              
                                                                                                               tfl_pseudo_qconst12   | 
------ ----------------------------------------------- ------------------ --------------- -------- ------------------------------- --- ------------------ ------------------ --------------------------------------- 
57     eltwise_57 (Eltwise, ADD)                       [b:1,c:100]                             100                         gemm_56   |                                       Eltwise/add_[57]                        
                                                                                                                        eltwise_54   | 
------ ----------------------------------------------- ------------------ --------------- -------- ------------------------------- --- ------------------ ------------------ --------------------------------------- 
58     eltwise_58 (Eltwise, MUL)                       [b:1,c:100]                             100                      eltwise_57   | +1(+100.0%)                           Eltwise/mul_[58]                        
                                                                                                               tfl_pseudo_qconst11   | 
------ ----------------------------------------------- ------------------ --------------- -------- ------------------------------- --- ------------------ ------------------ --------------------------------------- 
59     eltwise_59 (Eltwise, ADD)                       [b:1,c:100]                             100                      eltwise_58   | +1(+100.0%)                           Eltwise/add_[59]                        
                                                                                                               tfl_pseudo_qconst11   | 
------ ----------------------------------------------- ------------------ --------------- -------- ------------------------------- --- ------------------ ------------------ --------------------------------------- 
60     tfl_pseudo_qconst17 (Placeholder, )             []                 1/1                                                        |                    +100(+100.0%)      Eltwise/min_[60]                        
       eltwise_60 (Eltwise, MINIMUM)                   [b:1,c:100]                             100                      eltwise_59   |                    -100(-100.0%)      
                                                                                                               tfl_pseudo_qconst17   | 
------ ----------------------------------------------- ------------------ --------------- -------- ------------------------------- --- ------------------ ------------------ --------------------------------------- 
61     nl_61 (Nonlinearity, RELU)                      [b:1,c:100]                             100                      eltwise_60   |                                       Nonlinearity_[61]                       
------ ----------------------------------------------- ------------------ --------------- -------- ------------------------------- --- ------------------ ------------------ --------------------------------------- 
62     conversion_62 (Conversion, DEQUANTIZE)          [b:1,c:100]                             200                           nl_61   |                                       Conversion_[62]                         
------ ----------------------------------------------- ------------------ --------------- -------- ------------------------------- --- ------------------ ------------------ --------------------------------------- 
63     nl_63 (Nonlinearity, ROUND)                     [b:1,c:100]                             200                   conversion_62   |                    +200(+100.0%)      Nonlinearity_/Conversion_[63, 64]       
------ ----------------------------------------------- ------------------ --------------- -------- ------------------------------- --- ------------------ ------------------ --------------------------------------- 
64     reshape_64 (Reshape, EXPAND_DIMS)               [b:1,h:1,c:100]                                                       nl_63   |                                       
------ ----------------------------------------------- ------------------ --------------- -------- ------------------------------- --- ------------------ ------------------ --------------------------------------- 
65     conversion_65 (Conversion, QUANTIZE)            [b:1,h:1,c:100]                         200                      reshape_64   |                    -200(-100.0%)      
------ ----------------------------------------------- ------------------ --------------- -------- ------------------------------- --- ------------------ ------------------ --------------------------------------- 
66     eltwise_66 (Eltwise, SUB)                       [b:1,c:100]                               1                  arith_constant   | +4(+100.0%)                           Eltwise/sub_[65]                        
                                                                                                                             nl_63   | 
------ ----------------------------------------------- ------------------ --------------- -------- ------------------------------- --- ------------------ ------------------ --------------------------------------- 
67     conversion_67 (Conversion, QUANTIZE)            [b:1,c:100]                             200                      eltwise_66   |                                       Conversion_[66]                         
------ ----------------------------------------------- ------------------ --------------- -------- ------------------------------- --- ------------------ ------------------ --------------------------------------- 
68     eltwise_68 (Eltwise, MUL)                       [b:1,c:100]                             100                      eltwise_57   |                                       Eltwise/mul_[67]                        
                                                                                                                     conversion_67   | 
------ ----------------------------------------------- ------------------ --------------- -------- ------------------------------- --- ------------------ ------------------ --------------------------------------- 
69     eltwise_69 (Eltwise, MUL)                       [b:1,c:100]                             100                      eltwise_68   | +100(+100.0%)                         Eltwise/mul_[68]                        
                                                                                                               tfl_pseudo_qconst13   | 
------ ----------------------------------------------- ------------------ --------------- -------- ------------------------------- --- ------------------ ------------------ --------------------------------------- 
70     slice_70 (Slice, STRIDED_SLICE)                 [b:1,h:1,c:784]                                                conversion_0   |                                       Slice_[9]                               
       reshape_70_reshape (Reshape, STRIDED_SLICE)     [b:1,c:784]                                                        slice_70   |                                       
------ ----------------------------------------------- ------------------ --------------- -------- ------------------------------- --- ------------------ ------------------ --------------------------------------- 
71     gemm_71 (Gemm, FULLY_CONNECTED)                 [b:1,c:100]                          78,500              reshape_70_reshape   | +78,800(+100.0%)                      Dense_[10]                              
                                                                                                               tfl_pseudo_qconst12   | 
------ ----------------------------------------------- ------------------ --------------- -------- ------------------------------- --- ------------------ ------------------ --------------------------------------- 
72     eltwise_72 (Eltwise, ADD)                       [b:1,c:100]                             100                         gemm_71   |                                       Eltwise/add_[69]                        
                                                                                                                        eltwise_69   | 
------ ----------------------------------------------- ------------------ --------------- -------- ------------------------------- --- ------------------ ------------------ --------------------------------------- 
73     eltwise_73 (Eltwise, MUL)                       [b:1,c:100]                             100                      eltwise_72   | +1(+100.0%)                           Eltwise/mul_[70]                        
                                                                                                               tfl_pseudo_qconst11   | 
------ ----------------------------------------------- ------------------ --------------- -------- ------------------------------- --- ------------------ ------------------ --------------------------------------- 
74     eltwise_74 (Eltwise, ADD)                       [b:1,c:100]                             100                      eltwise_73   | +1(+100.0%)                           Eltwise/add_[71]                        
                                                                                                               tfl_pseudo_qconst11   | 
------ ----------------------------------------------- ------------------ --------------- -------- ------------------------------- --- ------------------ ------------------ --------------------------------------- 
75     tfl_pseudo_qconst18 (Placeholder, )             []                 1/1                                                        |                    +100(+100.0%)      Eltwise/min_[72]                        
       eltwise_75 (Eltwise, MINIMUM)                   [b:1,c:100]                             100                      eltwise_74   |                    -100(-100.0%)      
                                                                                                               tfl_pseudo_qconst18   | 
------ ----------------------------------------------- ------------------ --------------- -------- ------------------------------- --- ------------------ ------------------ --------------------------------------- 
76     nl_76 (Nonlinearity, RELU)                      [b:1,c:100]                             100                      eltwise_75   |                                       Nonlinearity_[73]                       
------ ----------------------------------------------- ------------------ --------------- -------- ------------------------------- --- ------------------ ------------------ --------------------------------------- 
77     conversion_77 (Conversion, DEQUANTIZE)          [b:1,c:100]                             200                           nl_76   |                                       Conversion_[74]                         
------ ----------------------------------------------- ------------------ --------------- -------- ------------------------------- --- ------------------ ------------------ --------------------------------------- 
78     nl_78 (Nonlinearity, ROUND)                     [b:1,c:100]                             200                   conversion_77   |                    +200(+100.0%)      Nonlinearity_/Conversion_[75, 76]       
------ ----------------------------------------------- ------------------ --------------- -------- ------------------------------- --- ------------------ ------------------ --------------------------------------- 
79     reshape_79 (Reshape, EXPAND_DIMS)               [b:1,h:1,c:100]                                                       nl_78   |                                       
------ ----------------------------------------------- ------------------ --------------- -------- ------------------------------- --- ------------------ ------------------ --------------------------------------- 
80     conversion_80 (Conversion, QUANTIZE)            [b:1,h:1,c:100]                         200                      reshape_79   |                    -200(-100.0%)      
------ ----------------------------------------------- ------------------ --------------- -------- ------------------------------- --- ------------------ ------------------ --------------------------------------- 
81     eltwise_81 (Eltwise, SUB)                       [b:1,c:100]                               1                  arith_constant   | +4(+100.0%)                           Eltwise/sub_[77]                        
                                                                                                                             nl_78   | 
------ ----------------------------------------------- ------------------ --------------- -------- ------------------------------- --- ------------------ ------------------ --------------------------------------- 
82     conversion_82 (Conversion, QUANTIZE)            [b:1,c:100]                             200                      eltwise_81   |                                       Conversion_[78]                         
------ ----------------------------------------------- ------------------ --------------- -------- ------------------------------- --- ------------------ ------------------ --------------------------------------- 
83     eltwise_83 (Eltwise, MUL)                       [b:1,c:100]                             100                      eltwise_72   |                                       Eltwise/mul_[79]                        
                                                                                                                     conversion_82   | 
------ ----------------------------------------------- ------------------ --------------- -------- ------------------------------- --- ------------------ ------------------ --------------------------------------- 
84     eltwise_84 (Eltwise, MUL)                       [b:1,c:100]                             100                      eltwise_83   | +100(+100.0%)                         Eltwise/mul_[80]                        
                                                                                                               tfl_pseudo_qconst13   | 
------ ----------------------------------------------- ------------------ --------------- -------- ------------------------------- --- ------------------ ------------------ --------------------------------------- 
85     slice_85 (Slice, STRIDED_SLICE)                 [b:1,h:1,c:784]                                                conversion_0   |                                       Slice_[7]                               
       reshape_85_reshape (Reshape, STRIDED_SLICE)     [b:1,c:784]                                                        slice_85   |                                       
------ ----------------------------------------------- ------------------ --------------- -------- ------------------------------- --- ------------------ ------------------ --------------------------------------- 
86     gemm_86 (Gemm, FULLY_CONNECTED)                 [b:1,c:100]                          78,500              reshape_85_reshape   | +78,800(+100.0%)                      Dense_[8]                               
                                                                                                               tfl_pseudo_qconst12   | 
------ ----------------------------------------------- ------------------ --------------- -------- ------------------------------- --- ------------------ ------------------ --------------------------------------- 
87     eltwise_87 (Eltwise, ADD)                       [b:1,c:100]                             100                         gemm_86   |                                       Eltwise/add_[81]                        
                                                                                                                        eltwise_84   | 
------ ----------------------------------------------- ------------------ --------------- -------- ------------------------------- --- ------------------ ------------------ --------------------------------------- 
88     eltwise_88 (Eltwise, MUL)                       [b:1,c:100]                             100                      eltwise_87   | +1(+100.0%)                           Eltwise/mul_[82]                        
                                                                                                               tfl_pseudo_qconst11   | 
------ ----------------------------------------------- ------------------ --------------- -------- ------------------------------- --- ------------------ ------------------ --------------------------------------- 
89     eltwise_89 (Eltwise, ADD)                       [b:1,c:100]                             100                      eltwise_88   | +1(+100.0%)                           Eltwise/add_[83]                        
                                                                                                               tfl_pseudo_qconst11   | 
------ ----------------------------------------------- ------------------ --------------- -------- ------------------------------- --- ------------------ ------------------ --------------------------------------- 
90     tfl_pseudo_qconst19 (Placeholder, )             []                 1/1                                                        |                    +100(+100.0%)      Eltwise/min_[84]                        
       eltwise_90 (Eltwise, MINIMUM)                   [b:1,c:100]                             100                      eltwise_89   |                    -100(-100.0%)      
                                                                                                               tfl_pseudo_qconst19   | 
------ ----------------------------------------------- ------------------ --------------- -------- ------------------------------- --- ------------------ ------------------ --------------------------------------- 
91     nl_91 (Nonlinearity, RELU)                      [b:1,c:100]                             100                      eltwise_90   |                                       Nonlinearity_[85]                       
------ ----------------------------------------------- ------------------ --------------- -------- ------------------------------- --- ------------------ ------------------ --------------------------------------- 
92     conversion_92 (Conversion, DEQUANTIZE)          [b:1,c:100]                             200                           nl_91   |                                       Conversion_[86]                         
------ ----------------------------------------------- ------------------ --------------- -------- ------------------------------- --- ------------------ ------------------ --------------------------------------- 
93     nl_93 (Nonlinearity, ROUND)                     [b:1,c:100]                             200                   conversion_92   |                    +200(+100.0%)      Nonlinearity_/Conversion_[87, 88]       
------ ----------------------------------------------- ------------------ --------------- -------- ------------------------------- --- ------------------ ------------------ --------------------------------------- 
94     reshape_94 (Reshape, EXPAND_DIMS)               [b:1,h:1,c:100]                                                       nl_93   |                                       
------ ----------------------------------------------- ------------------ --------------- -------- ------------------------------- --- ------------------ ------------------ --------------------------------------- 
95     conversion_95 (Conversion, QUANTIZE)            [b:1,h:1,c:100]                         200                      reshape_94   |                    -200(-100.0%)      
------ ----------------------------------------------- ------------------ --------------- -------- ------------------------------- --- ------------------ ------------------ --------------------------------------- 
96     eltwise_96 (Eltwise, SUB)                       [b:1,c:100]                               1                  arith_constant   | +4(+100.0%)                           Eltwise/sub_[89]                        
                                                                                                                             nl_93   | 
------ ----------------------------------------------- ------------------ --------------- -------- ------------------------------- --- ------------------ ------------------ --------------------------------------- 
97     conversion_97 (Conversion, QUANTIZE)            [b:1,c:100]                             200                      eltwise_96   |                                       Conversion_[90]                         
------ ----------------------------------------------- ------------------ --------------- -------- ------------------------------- --- ------------------ ------------------ --------------------------------------- 
98     eltwise_98 (Eltwise, MUL)                       [b:1,c:100]                             100                      eltwise_87   |                                       Eltwise/mul_[91]                        
                                                                                                                     conversion_97   | 
------ ----------------------------------------------- ------------------ --------------- -------- ------------------------------- --- ------------------ ------------------ --------------------------------------- 
99     eltwise_99 (Eltwise, MUL)                       [b:1,c:100]                             100                      eltwise_98   | +100(+100.0%)                         Eltwise/mul_[92]                        
                                                                                                               tfl_pseudo_qconst13   | 
------ ----------------------------------------------- ------------------ --------------- -------- ------------------------------- --- ------------------ ------------------ --------------------------------------- 
100    slice_100 (Slice, STRIDED_SLICE)                [b:1,h:1,c:784]                                                conversion_0   |                                       Slice_[5]                               
       reshape_100_reshape (Reshape, STRIDED_SLICE)    [b:1,c:784]                                                       slice_100   |                                       
------ ----------------------------------------------- ------------------ --------------- -------- ------------------------------- --- ------------------ ------------------ --------------------------------------- 
101    gemm_101 (Gemm, FULLY_CONNECTED)                [b:1,c:100]                          78,500             reshape_100_reshape   | +78,800(+100.0%)                      Dense_[6]                               
                                                                                                               tfl_pseudo_qconst12   | 
------ ----------------------------------------------- ------------------ --------------- -------- ------------------------------- --- ------------------ ------------------ --------------------------------------- 
102    eltwise_102 (Eltwise, ADD)                      [b:1,c:100]                             100                        gemm_101   |                                       Eltwise/add_[93]                        
                                                                                                                        eltwise_99   | 
------ ----------------------------------------------- ------------------ --------------- -------- ------------------------------- --- ------------------ ------------------ --------------------------------------- 
103    eltwise_103 (Eltwise, MUL)                      [b:1,c:100]                             100                     eltwise_102   | +1(+100.0%)                           Eltwise/mul_[94]                        
                                                                                                               tfl_pseudo_qconst11   | 
------ ----------------------------------------------- ------------------ --------------- -------- ------------------------------- --- ------------------ ------------------ --------------------------------------- 
104    eltwise_104 (Eltwise, ADD)                      [b:1,c:100]                             100                     eltwise_103   | +1(+100.0%)                           Eltwise/add_[95]                        
                                                                                                               tfl_pseudo_qconst11   | 
------ ----------------------------------------------- ------------------ --------------- -------- ------------------------------- --- ------------------ ------------------ --------------------------------------- 
105    tfl_pseudo_qconst20 (Placeholder, )             []                 1/1                                                        |                    +100(+100.0%)      Eltwise/min_[96]                        
       eltwise_105 (Eltwise, MINIMUM)                  [b:1,c:100]                             100                     eltwise_104   |                    -100(-100.0%)      
                                                                                                               tfl_pseudo_qconst20   | 
------ ----------------------------------------------- ------------------ --------------- -------- ------------------------------- --- ------------------ ------------------ --------------------------------------- 
106    nl_106 (Nonlinearity, RELU)                     [b:1,c:100]                             100                     eltwise_105   |                                       Nonlinearity_[97]                       
------ ----------------------------------------------- ------------------ --------------- -------- ------------------------------- --- ------------------ ------------------ --------------------------------------- 
107    conversion_107 (Conversion, DEQUANTIZE)         [b:1,c:100]                             200                          nl_106   |                                       Conversion_[98]                         
------ ----------------------------------------------- ------------------ --------------- -------- ------------------------------- --- ------------------ ------------------ --------------------------------------- 
108    nl_108 (Nonlinearity, ROUND)                    [b:1,c:100]                             200                  conversion_107   |                    +200(+100.0%)      Nonlinearity_/Conversion_[99, 100]      
------ ----------------------------------------------- ------------------ --------------- -------- ------------------------------- --- ------------------ ------------------ --------------------------------------- 
109    reshape_109 (Reshape, EXPAND_DIMS)              [b:1,h:1,c:100]                                                      nl_108   |                                       
------ ----------------------------------------------- ------------------ --------------- -------- ------------------------------- --- ------------------ ------------------ --------------------------------------- 
110    conversion_110 (Conversion, QUANTIZE)           [b:1,h:1,c:100]                         200                     reshape_109   |                    -200(-100.0%)      
------ ----------------------------------------------- ------------------ --------------- -------- ------------------------------- --- ------------------ ------------------ --------------------------------------- 
111    eltwise_111 (Eltwise, SUB)                      [b:1,c:100]                               1                  arith_constant   | +4(+100.0%)                           Eltwise/sub_[101]                       
                                                                                                                            nl_108   | 
------ ----------------------------------------------- ------------------ --------------- -------- ------------------------------- --- ------------------ ------------------ --------------------------------------- 
112    conversion_112 (Conversion, QUANTIZE)           [b:1,c:100]                             200                     eltwise_111   |                                       Conversion_[102]                        
------ ----------------------------------------------- ------------------ --------------- -------- ------------------------------- --- ------------------ ------------------ --------------------------------------- 
113    eltwise_113 (Eltwise, MUL)                      [b:1,c:100]                             100                     eltwise_102   |                                       Eltwise/mul_[103]                       
                                                                                                                    conversion_112   | 
------ ----------------------------------------------- ------------------ --------------- -------- ------------------------------- --- ------------------ ------------------ --------------------------------------- 
114    eltwise_114 (Eltwise, MUL)                      [b:1,c:100]                             100                     eltwise_113   | +100(+100.0%)                         Eltwise/mul_[104]                       
                                                                                                               tfl_pseudo_qconst13   | 
------ ----------------------------------------------- ------------------ --------------- -------- ------------------------------- --- ------------------ ------------------ --------------------------------------- 
115    slice_115 (Slice, STRIDED_SLICE)                [b:1,h:1,c:784]                                                conversion_0   |                                       Slice_[3]                               
       reshape_115_reshape (Reshape, STRIDED_SLICE)    [b:1,c:784]                                                       slice_115   |                                       
------ ----------------------------------------------- ------------------ --------------- -------- ------------------------------- --- ------------------ ------------------ --------------------------------------- 
116    gemm_116 (Gemm, FULLY_CONNECTED)                [b:1,c:100]                          78,500             reshape_115_reshape   | +78,800(+100.0%)                      Dense_[4]                               
                                                                                                               tfl_pseudo_qconst12   | 
------ ----------------------------------------------- ------------------ --------------- -------- ------------------------------- --- ------------------ ------------------ --------------------------------------- 
117    eltwise_117 (Eltwise, ADD)                      [b:1,c:100]                             100                        gemm_116   |                                       Eltwise/add_[105]                       
                                                                                                                       eltwise_114   | 
------ ----------------------------------------------- ------------------ --------------- -------- ------------------------------- --- ------------------ ------------------ --------------------------------------- 
118    eltwise_118 (Eltwise, MUL)                      [b:1,c:100]                             100                     eltwise_117   | +1(+100.0%)                           Eltwise/mul_[106]                       
                                                                                                               tfl_pseudo_qconst11   | 
------ ----------------------------------------------- ------------------ --------------- -------- ------------------------------- --- ------------------ ------------------ --------------------------------------- 
119    eltwise_119 (Eltwise, ADD)                      [b:1,c:100]                             100                     eltwise_118   | +1(+100.0%)                           Eltwise/add_[107]                       
                                                                                                               tfl_pseudo_qconst11   | 
------ ----------------------------------------------- ------------------ --------------- -------- ------------------------------- --- ------------------ ------------------ --------------------------------------- 
120    tfl_pseudo_qconst21 (Placeholder, )             []                 1/1                                                        |                    +100(+100.0%)      Eltwise/min_[108]                       
       eltwise_120 (Eltwise, MINIMUM)                  [b:1,c:100]                             100                     eltwise_119   |                    -100(-100.0%)      
                                                                                                               tfl_pseudo_qconst21   | 
------ ----------------------------------------------- ------------------ --------------- -------- ------------------------------- --- ------------------ ------------------ --------------------------------------- 
121    nl_121 (Nonlinearity, RELU)                     [b:1,c:100]                             100                     eltwise_120   |                                       Nonlinearity_[109]                      
------ ----------------------------------------------- ------------------ --------------- -------- ------------------------------- --- ------------------ ------------------ --------------------------------------- 
122    conversion_122 (Conversion, DEQUANTIZE)         [b:1,c:100]                             200                          nl_121   |                                       Conversion_[110]                        
------ ----------------------------------------------- ------------------ --------------- -------- ------------------------------- --- ------------------ ------------------ --------------------------------------- 
123    nl_123 (Nonlinearity, ROUND)                    [b:1,c:100]                             200                  conversion_122   |                    +200(+100.0%)      Nonlinearity_/Conversion_[111, 112]     
------ ----------------------------------------------- ------------------ --------------- -------- ------------------------------- --- ------------------ ------------------ --------------------------------------- 
124    reshape_124 (Reshape, EXPAND_DIMS)              [b:1,h:1,c:100]                                                      nl_123   |                                       
------ ----------------------------------------------- ------------------ --------------- -------- ------------------------------- --- ------------------ ------------------ --------------------------------------- 
125    conversion_125 (Conversion, QUANTIZE)           [b:1,h:1,c:100]                         200                     reshape_124   |                    -200(-100.0%)      
------ ----------------------------------------------- ------------------ --------------- -------- ------------------------------- --- ------------------ ------------------ --------------------------------------- 
126    eltwise_126 (Eltwise, SUB)                      [b:1,c:100]                               1                  arith_constant   | +4(+100.0%)                           Eltwise/sub_[113]                       
                                                                                                                            nl_123   | 
------ ----------------------------------------------- ------------------ --------------- -------- ------------------------------- --- ------------------ ------------------ --------------------------------------- 
127    conversion_127 (Conversion, QUANTIZE)           [b:1,c:100]                             200                     eltwise_126   |                                       Conversion_[114]                        
------ ----------------------------------------------- ------------------ --------------- -------- ------------------------------- --- ------------------ ------------------ --------------------------------------- 
128    eltwise_128 (Eltwise, MUL)                      [b:1,c:100]                             100                     eltwise_117   |                                       Eltwise/mul_[115]                       
                                                                                                                    conversion_127   | 
------ ----------------------------------------------- ------------------ --------------- -------- ------------------------------- --- ------------------ ------------------ --------------------------------------- 
129    eltwise_129 (Eltwise, MUL)                      [b:1,c:100]                             100                     eltwise_128   | +100(+100.0%)                         Eltwise/mul_[116]                       
                                                                                                               tfl_pseudo_qconst13   | 
------ ----------------------------------------------- ------------------ --------------- -------- ------------------------------- --- ------------------ ------------------ --------------------------------------- 
130    slice_130 (Slice, STRIDED_SLICE)                [b:1,h:1,c:784]                                                conversion_0   |                                       Slice_[1]                               
       reshape_130_reshape (Reshape, STRIDED_SLICE)    [b:1,c:784]                                                       slice_130   |                                       
------ ----------------------------------------------- ------------------ --------------- -------- ------------------------------- --- ------------------ ------------------ --------------------------------------- 
131    gemm_131 (Gemm, FULLY_CONNECTED)                [b:1,c:100]                          78,500             reshape_130_reshape   | +78,800(+100.0%)                      Dense_[2]                               
                                                                                                               tfl_pseudo_qconst12   | 
------ ----------------------------------------------- ------------------ --------------- -------- ------------------------------- --- ------------------ ------------------ --------------------------------------- 
132    eltwise_132 (Eltwise, ADD)                      [b:1,c:100]                             100                        gemm_131   |                                       Eltwise/add_[117]                       
                                                                                                                       eltwise_129   | 
------ ----------------------------------------------- ------------------ --------------- -------- ------------------------------- --- ------------------ ------------------ --------------------------------------- 
133    eltwise_133 (Eltwise, MUL)                      [b:1,c:100]                             100                     eltwise_132   | +1(+100.0%)                           Eltwise/mul_[118]                       
                                                                                                               tfl_pseudo_qconst11   | 
------ ----------------------------------------------- ------------------ --------------- -------- ------------------------------- --- ------------------ ------------------ --------------------------------------- 
134    eltwise_134 (Eltwise, ADD)                      [b:1,c:100]                             100                     eltwise_133   | +1(+100.0%)                           Eltwise/add_[119]                       
                                                                                                               tfl_pseudo_qconst11   | 
------ ----------------------------------------------- ------------------ --------------- -------- ------------------------------- --- ------------------ ------------------ --------------------------------------- 
135    tfl_pseudo_qconst22 (Placeholder, )             []                 1/1                                                        |                    +100(+100.0%)      Eltwise/min_[120]                       
       eltwise_135 (Eltwise, MINIMUM)                  [b:1,c:100]                             100                     eltwise_134   |                    -100(-100.0%)      
                                                                                                               tfl_pseudo_qconst22   | 
------ ----------------------------------------------- ------------------ --------------- -------- ------------------------------- --- ------------------ ------------------ --------------------------------------- 
136    nl_136 (Nonlinearity, RELU)                     [b:1,c:100]                             100                     eltwise_135   |                                       Nonlinearity_[121]                      
------ ----------------------------------------------- ------------------ --------------- -------- ------------------------------- --- ------------------ ------------------ --------------------------------------- 
137    conversion_137 (Conversion, DEQUANTIZE)         [b:1,c:100]                             200                          nl_136   |                                       Conversion_[122]                        
------ ----------------------------------------------- ------------------ --------------- -------- ------------------------------- --- ------------------ ------------------ --------------------------------------- 
138    nl_138 (Nonlinearity, ROUND)                    [b:1,c:100]                             200                  conversion_137   |                    +200(+100.0%)      Nonlinearity_/Conversion_[123, 124]     
------ ----------------------------------------------- ------------------ --------------- -------- ------------------------------- --- ------------------ ------------------ --------------------------------------- 
139    reshape_139 (Reshape, EXPAND_DIMS)              [b:1,h:1,c:100]                                                      nl_138   |                                       
------ ----------------------------------------------- ------------------ --------------- -------- ------------------------------- --- ------------------ ------------------ --------------------------------------- 
140    conversion_140 (Conversion, QUANTIZE)           [b:1,h:1,c:100]                         200                     reshape_139   |                    -200(-100.0%)      
------ ----------------------------------------------- ------------------ --------------- -------- ------------------------------- --- ------------------ ------------------ --------------------------------------- 
141    eltwise_141 (Eltwise, SUB)                      [b:1,c:100]                               1                  arith_constant   | +4(+100.0%)                           Eltwise/sub_[125]                       
                                                                                                                            nl_138   | 
------ ----------------------------------------------- ------------------ --------------- -------- ------------------------------- --- ------------------ ------------------ --------------------------------------- 
142    conversion_142 (Conversion, QUANTIZE)           [b:1,c:100]                             200                     eltwise_141   |                                       Conversion_[126]                        
------ ----------------------------------------------- ------------------ --------------- -------- ------------------------------- --- ------------------ ------------------ --------------------------------------- 
143    eltwise_143 (Eltwise, MUL)                      [b:1,c:100]                             100                     eltwise_132   |                                       Eltwise/mul_[127]                       
                                                                                                                    conversion_142   | 
------ ----------------------------------------------- ------------------ --------------- -------- ------------------------------- --- ------------------ ------------------ --------------------------------------- 
144    eltwise_144 (Eltwise, MUL)                      [b:1,c:100]                             100                     eltwise_143   | +100(+100.0%)                         Eltwise/mul_[128]                       
                                                                                                               tfl_pseudo_qconst13   | 
------ ----------------------------------------------- ------------------ --------------- -------- ------------------------------- --- ------------------ ------------------ --------------------------------------- 
145    eltwise_145 (Eltwise, ADD)                      [b:1,c:100]                             100                         gemm_24   |                                       Eltwise/add_[129]                       
                                                                                                                       eltwise_144   | 
------ ----------------------------------------------- ------------------ --------------- -------- ------------------------------- --- ------------------ ------------------ --------------------------------------- 
146    eltwise_146 (Eltwise, MUL)                      [b:1,c:100]                             100                     eltwise_145   | +1(+100.0%)                           Eltwise/mul_[130]                       
                                                                                                               tfl_pseudo_qconst11   | 
------ ----------------------------------------------- ------------------ --------------- -------- ------------------------------- --- ------------------ ------------------ --------------------------------------- 
147    eltwise_147 (Eltwise, ADD)                      [b:1,c:100]                             100                     eltwise_146   | +1(+100.0%)                           Eltwise/add_[131]                       
                                                                                                               tfl_pseudo_qconst11   | 
------ ----------------------------------------------- ------------------ --------------- -------- ------------------------------- --- ------------------ ------------------ --------------------------------------- 
148    tfl_pseudo_qconst23 (Placeholder, )             []                 1/1                                                        |                    +100(+100.0%)      Eltwise/min_[132]                       
       eltwise_148 (Eltwise, MINIMUM)                  [b:1,c:100]                             100                     eltwise_147   |                    -100(-100.0%)      
                                                                                                               tfl_pseudo_qconst23   | 
------ ----------------------------------------------- ------------------ --------------- -------- ------------------------------- --- ------------------ ------------------ --------------------------------------- 
149    nl_149 (Nonlinearity, RELU)                     [b:1,c:100]                             100                     eltwise_148   |                                       Nonlinearity_[133]                      
------ ----------------------------------------------- ------------------ --------------- -------- ------------------------------- --- ------------------ ------------------ --------------------------------------- 
150    conversion_150 (Conversion, DEQUANTIZE)         [b:1,c:100]                             200                          nl_149   |                                       Conversion_[134]                        
------ ----------------------------------------------- ------------------ --------------- -------- ------------------------------- --- ------------------ ------------------ --------------------------------------- 
151    nl_151 (Nonlinearity, ROUND)                    [b:1,c:100]                             200                  conversion_150   |                    +200(+100.0%)      Nonlinearity_/Conversion_[135, 136]     
------ ----------------------------------------------- ------------------ --------------- -------- ------------------------------- --- ------------------ ------------------ --------------------------------------- 
152    reshape_152 (Reshape, EXPAND_DIMS)              [b:1,h:1,c:100]                                                      nl_151   |                                       
------ ----------------------------------------------- ------------------ --------------- -------- ------------------------------- --- ------------------ ------------------ --------------------------------------- 
153    conversion_153 (Conversion, QUANTIZE)           [b:1,h:1,c:100]                         200                     reshape_152   |                    -200(-100.0%)      
------ ----------------------------------------------- ------------------ --------------- -------- ------------------------------- --- ------------------ ------------------ --------------------------------------- 
154    concat_154 (Concat, CONCATENATION)              [b:1,h:10,c:100]                                              conversion_18   |                                       Concat_[137]                            
                                                                                                                     conversion_35   | 
                                                                                                                     conversion_50   | 
                                                                                                                     conversion_65   | 
                                                                                                                     conversion_80   | 
                                                                                                                     conversion_95   | 
                                                                                                                    conversion_110   | 
                                                                                                                    conversion_125   | 
                                                                                                                    conversion_140   | 
                                                                                                                    conversion_153   | 
------ ----------------------------------------------- ------------------ --------------- -------- ------------------------------- --- ------------------ ------------------ --------------------------------------- 
161    eltwise_161_const (Placeholder, MUL)            [b:1,c:100]        100/100                                                    | -100(-100.0%)                         
------ ----------------------------------------------- ------------------ --------------- -------- ------------------------------- --- ------------------ ------------------ --------------------------------------- 
162    slice_162 (Slice, STRIDED_SLICE)                [b:1,h:1,c:100]                                                  concat_154   |                                       Slice_[156]                             
       reshape_162_reshape (Reshape, STRIDED_SLICE)    [b:1,c:100]                                                       slice_162   |                                       
------ ----------------------------------------------- ------------------ --------------- -------- ------------------------------- --- ------------------ ------------------ --------------------------------------- 
163    tfl_pseudo_qconst10 (Placeholder, )             [b:100,c:100]      10,000/10,000                                              | +400(+4.0%)        +10,100(+100.0%)   Dense_[157]                             
       gemm_163 (Gemm, FULLY_CONNECTED)                [b:1,c:100]                          10,100             reshape_162_reshape   |                    -10,100(-100.0%)   
                                                                                                               tfl_pseudo_qconst10   | 
------ ----------------------------------------------- ------------------ --------------- -------- ------------------------------- --- ------------------ ------------------ --------------------------------------- 
164    eltwise_164 (Eltwise, ADD)                      [b:1,c:100]                             100                        gemm_163   | +100(+100.0%)                         Eltwise/add_[158]                       
                                                                                                                 eltwise_161_const   | 
------ ----------------------------------------------- ------------------ --------------- -------- ------------------------------- --- ------------------ ------------------ --------------------------------------- 
165    eltwise_165 (Eltwise, MUL)                      [b:1,c:100]                             100                     eltwise_164   | +1(+100.0%)                           Eltwise/mul_[159]                       
                                                                                                               tfl_pseudo_qconst11   | 
------ ----------------------------------------------- ------------------ --------------- -------- ------------------------------- --- ------------------ ------------------ --------------------------------------- 
166    eltwise_166 (Eltwise, ADD)                      [b:1,c:100]                             100                     eltwise_165   | +1(+100.0%)                           Eltwise/add_[160]                       
                                                                                                               tfl_pseudo_qconst11   | 
------ ----------------------------------------------- ------------------ --------------- -------- ------------------------------- --- ------------------ ------------------ --------------------------------------- 
167    tfl_pseudo_qconst24 (Placeholder, )             []                 1/1                                                        |                    +100(+100.0%)      Eltwise/min_[161]                       
       eltwise_167 (Eltwise, MINIMUM)                  [b:1,c:100]                             100                     eltwise_166   |                    -100(-100.0%)      
                                                                                                               tfl_pseudo_qconst24   | 
------ ----------------------------------------------- ------------------ --------------- -------- ------------------------------- --- ------------------ ------------------ --------------------------------------- 
168    nl_168 (Nonlinearity, RELU)                     [b:1,c:100]                             100                     eltwise_167   |                                       Nonlinearity_[162]                      
------ ----------------------------------------------- ------------------ --------------- -------- ------------------------------- --- ------------------ ------------------ --------------------------------------- 
169    conversion_169 (Conversion, DEQUANTIZE)         [b:1,c:100]                             200                          nl_168   |                                       Conversion_[163]                        
------ ----------------------------------------------- ------------------ --------------- -------- ------------------------------- --- ------------------ ------------------ --------------------------------------- 
170    nl_170 (Nonlinearity, ROUND)                    [b:1,c:100]                             200                  conversion_169   |                    +200(+100.0%)      Nonlinearity_/Conversion_[164, 165]     
------ ----------------------------------------------- ------------------ --------------- -------- ------------------------------- --- ------------------ ------------------ --------------------------------------- 
171    reshape_171 (Reshape, EXPAND_DIMS)              [b:1,h:1,c:100]                                                      nl_170   |                                       
------ ----------------------------------------------- ------------------ --------------- -------- ------------------------------- --- ------------------ ------------------ --------------------------------------- 
172    conversion_172 (Conversion, QUANTIZE)           [b:1,h:1,c:100]                         200                     reshape_171   |                    -200(-100.0%)      
------ ----------------------------------------------- ------------------ --------------- -------- ------------------------------- --- ------------------ ------------------ --------------------------------------- 
173    eltwise_173 (Eltwise, SUB)                      [b:1,c:100]                               1                  arith_constant   | +4(+100.0%)                           Eltwise/sub_[166]                       
                                                                                                                            nl_170   | 
------ ----------------------------------------------- ------------------ --------------- -------- ------------------------------- --- ------------------ ------------------ --------------------------------------- 
174    conversion_174 (Conversion, QUANTIZE)           [b:1,c:100]                             200                     eltwise_173   |                                       Conversion_[167]                        
------ ----------------------------------------------- ------------------ --------------- -------- ------------------------------- --- ------------------ ------------------ --------------------------------------- 
175    eltwise_175 (Eltwise, MUL)                      [b:1,c:100]                             100                     eltwise_164   |                                       Eltwise/mul_[168]                       
                                                                                                                    conversion_174   | 
------ ----------------------------------------------- ------------------ --------------- -------- ------------------------------- --- ------------------ ------------------ --------------------------------------- 
176    eltwise_176 (Eltwise, MUL)                      [b:1,c:100]                             100                     eltwise_175   | +100(+100.0%)                         Eltwise/mul_[169]                       
                                                                                                               tfl_pseudo_qconst13   | 
------ ----------------------------------------------- ------------------ --------------- -------- ------------------------------- --- ------------------ ------------------ --------------------------------------- 
177    slice_177 (Slice, STRIDED_SLICE)                [b:1,h:1,c:100]                                                  concat_154   |                                       Slice_[154]                             
       reshape_177_reshape (Reshape, STRIDED_SLICE)    [b:1,c:100]                                                       slice_177   |                                       
------ ----------------------------------------------- ------------------ --------------- -------- ------------------------------- --- ------------------ ------------------ --------------------------------------- 
178    gemm_178 (Gemm, FULLY_CONNECTED)                [b:1,c:100]                          10,100             reshape_177_reshape   | +10,400(+100.0%)                      Dense_[155]                             
                                                                                                               tfl_pseudo_qconst10   | 
------ ----------------------------------------------- ------------------ --------------- -------- ------------------------------- --- ------------------ ------------------ --------------------------------------- 
179    slice_179 (Slice, STRIDED_SLICE)                [b:1,h:1,c:100]                                                  concat_154   |                                       Slice_[152]                             
       reshape_179_reshape (Reshape, STRIDED_SLICE)    [b:1,c:100]                                                       slice_179   |                                       
------ ----------------------------------------------- ------------------ --------------- -------- ------------------------------- --- ------------------ ------------------ --------------------------------------- 
180    gemm_180 (Gemm, FULLY_CONNECTED)                [b:1,c:100]                          10,100             reshape_179_reshape   | +10,400(+100.0%)                      Dense_[153]                             
                                                                                                               tfl_pseudo_qconst10   | 
------ ----------------------------------------------- ------------------ --------------- -------- ------------------------------- --- ------------------ ------------------ --------------------------------------- 
181    eltwise_181 (Eltwise, ADD)                      [b:1,c:100]                             100                        gemm_180   |                                       Eltwise/add_[170]                       
                                                                                                                       eltwise_176   | 
------ ----------------------------------------------- ------------------ --------------- -------- ------------------------------- --- ------------------ ------------------ --------------------------------------- 
182    eltwise_182 (Eltwise, MUL)                      [b:1,c:100]                             100                     eltwise_181   | +1(+100.0%)                           Eltwise/mul_[171]                       
                                                                                                               tfl_pseudo_qconst11   | 
------ ----------------------------------------------- ------------------ --------------- -------- ------------------------------- --- ------------------ ------------------ --------------------------------------- 
183    eltwise_183 (Eltwise, ADD)                      [b:1,c:100]                             100                     eltwise_182   | +1(+100.0%)                           Eltwise/add_[172]                       
                                                                                                               tfl_pseudo_qconst11   | 
------ ----------------------------------------------- ------------------ --------------- -------- ------------------------------- --- ------------------ ------------------ --------------------------------------- 
184    tfl_pseudo_qconst25 (Placeholder, )             []                 1/1                                                        |                    +100(+100.0%)      Eltwise/min_[173]                       
       eltwise_184 (Eltwise, MINIMUM)                  [b:1,c:100]                             100                     eltwise_183   |                    -100(-100.0%)      
                                                                                                               tfl_pseudo_qconst25   | 
------ ----------------------------------------------- ------------------ --------------- -------- ------------------------------- --- ------------------ ------------------ --------------------------------------- 
185    nl_185 (Nonlinearity, RELU)                     [b:1,c:100]                             100                     eltwise_184   |                                       Nonlinearity_[174]                      
------ ----------------------------------------------- ------------------ --------------- -------- ------------------------------- --- ------------------ ------------------ --------------------------------------- 
186    conversion_186 (Conversion, DEQUANTIZE)         [b:1,c:100]                             200                          nl_185   |                                       Conversion_[175]                        
------ ----------------------------------------------- ------------------ --------------- -------- ------------------------------- --- ------------------ ------------------ --------------------------------------- 
187    nl_187 (Nonlinearity, ROUND)                    [b:1,c:100]                             200                  conversion_186   |                    +200(+100.0%)      Nonlinearity_/Conversion_[176, 177]     
------ ----------------------------------------------- ------------------ --------------- -------- ------------------------------- --- ------------------ ------------------ --------------------------------------- 
188    reshape_188 (Reshape, EXPAND_DIMS)              [b:1,h:1,c:100]                                                      nl_187   |                                       
------ ----------------------------------------------- ------------------ --------------- -------- ------------------------------- --- ------------------ ------------------ --------------------------------------- 
189    conversion_189 (Conversion, QUANTIZE)           [b:1,h:1,c:100]                         200                     reshape_188   |                    -200(-100.0%)      
------ ----------------------------------------------- ------------------ --------------- -------- ------------------------------- --- ------------------ ------------------ --------------------------------------- 
190    eltwise_190 (Eltwise, SUB)                      [b:1,c:100]                               1                  arith_constant   | +4(+100.0%)                           Eltwise/sub_[178]                       
                                                                                                                            nl_187   | 
------ ----------------------------------------------- ------------------ --------------- -------- ------------------------------- --- ------------------ ------------------ --------------------------------------- 
191    conversion_191 (Conversion, QUANTIZE)           [b:1,c:100]                             200                     eltwise_190   |                                       Conversion_[179]                        
------ ----------------------------------------------- ------------------ --------------- -------- ------------------------------- --- ------------------ ------------------ --------------------------------------- 
192    eltwise_192 (Eltwise, MUL)                      [b:1,c:100]                             100                     eltwise_181   |                                       Eltwise/mul_[180]                       
                                                                                                                    conversion_191   | 
------ ----------------------------------------------- ------------------ --------------- -------- ------------------------------- --- ------------------ ------------------ --------------------------------------- 
193    eltwise_193 (Eltwise, MUL)                      [b:1,c:100]                             100                     eltwise_192   | +100(+100.0%)                         Eltwise/mul_[181]                       
                                                                                                               tfl_pseudo_qconst13   | 
------ ----------------------------------------------- ------------------ --------------- -------- ------------------------------- --- ------------------ ------------------ --------------------------------------- 
194    slice_194 (Slice, STRIDED_SLICE)                [b:1,h:1,c:100]                                                  concat_154   |                                       Slice_[150]                             
       reshape_194_reshape (Reshape, STRIDED_SLICE)    [b:1,c:100]                                                       slice_194   |                                       
------ ----------------------------------------------- ------------------ --------------- -------- ------------------------------- --- ------------------ ------------------ --------------------------------------- 
195    gemm_195 (Gemm, FULLY_CONNECTED)                [b:1,c:100]                          10,100             reshape_194_reshape   | +10,400(+100.0%)                      Dense_[151]                             
                                                                                                               tfl_pseudo_qconst10   | 
------ ----------------------------------------------- ------------------ --------------- -------- ------------------------------- --- ------------------ ------------------ --------------------------------------- 
196    eltwise_196 (Eltwise, ADD)                      [b:1,c:100]                             100                        gemm_195   |                                       Eltwise/add_[182]                       
                                                                                                                       eltwise_193   | 
------ ----------------------------------------------- ------------------ --------------- -------- ------------------------------- --- ------------------ ------------------ --------------------------------------- 
197    eltwise_197 (Eltwise, MUL)                      [b:1,c:100]                             100                     eltwise_196   | +1(+100.0%)                           Eltwise/mul_[183]                       
                                                                                                               tfl_pseudo_qconst11   | 
------ ----------------------------------------------- ------------------ --------------- -------- ------------------------------- --- ------------------ ------------------ --------------------------------------- 
198    eltwise_198 (Eltwise, ADD)                      [b:1,c:100]                             100                     eltwise_197   | +1(+100.0%)                           Eltwise/add_[184]                       
                                                                                                               tfl_pseudo_qconst11   | 
------ ----------------------------------------------- ------------------ --------------- -------- ------------------------------- --- ------------------ ------------------ --------------------------------------- 
199    tfl_pseudo_qconst26 (Placeholder, )             []                 1/1                                                        |                    +100(+100.0%)      Eltwise/min_[185]                       
       eltwise_199 (Eltwise, MINIMUM)                  [b:1,c:100]                             100                     eltwise_198   |                    -100(-100.0%)      
                                                                                                               tfl_pseudo_qconst26   | 
------ ----------------------------------------------- ------------------ --------------- -------- ------------------------------- --- ------------------ ------------------ --------------------------------------- 
200    nl_200 (Nonlinearity, RELU)                     [b:1,c:100]                             100                     eltwise_199   |                                       Nonlinearity_[186]                      
------ ----------------------------------------------- ------------------ --------------- -------- ------------------------------- --- ------------------ ------------------ --------------------------------------- 
201    conversion_201 (Conversion, DEQUANTIZE)         [b:1,c:100]                             200                          nl_200   |                                       Conversion_[187]                        
------ ----------------------------------------------- ------------------ --------------- -------- ------------------------------- --- ------------------ ------------------ --------------------------------------- 
202    nl_202 (Nonlinearity, ROUND)                    [b:1,c:100]                             200                  conversion_201   |                    +200(+100.0%)      Nonlinearity_/Conversion_[188, 189]     
------ ----------------------------------------------- ------------------ --------------- -------- ------------------------------- --- ------------------ ------------------ --------------------------------------- 
203    reshape_203 (Reshape, EXPAND_DIMS)              [b:1,h:1,c:100]                                                      nl_202   |                                       
------ ----------------------------------------------- ------------------ --------------- -------- ------------------------------- --- ------------------ ------------------ --------------------------------------- 
204    conversion_204 (Conversion, QUANTIZE)           [b:1,h:1,c:100]                         200                     reshape_203   |                    -200(-100.0%)      
------ ----------------------------------------------- ------------------ --------------- -------- ------------------------------- --- ------------------ ------------------ --------------------------------------- 
205    eltwise_205 (Eltwise, SUB)                      [b:1,c:100]                               1                  arith_constant   | +4(+100.0%)                           Eltwise/sub_[190]                       
                                                                                                                            nl_202   | 
------ ----------------------------------------------- ------------------ --------------- -------- ------------------------------- --- ------------------ ------------------ --------------------------------------- 
206    conversion_206 (Conversion, QUANTIZE)           [b:1,c:100]                             200                     eltwise_205   |                                       Conversion_[191]                        
------ ----------------------------------------------- ------------------ --------------- -------- ------------------------------- --- ------------------ ------------------ --------------------------------------- 
207    eltwise_207 (Eltwise, MUL)                      [b:1,c:100]                             100                     eltwise_196   |                                       Eltwise/mul_[192]                       
                                                                                                                    conversion_206   | 
------ ----------------------------------------------- ------------------ --------------- -------- ------------------------------- --- ------------------ ------------------ --------------------------------------- 
208    eltwise_208 (Eltwise, MUL)                      [b:1,c:100]                             100                     eltwise_207   | +100(+100.0%)                         Eltwise/mul_[193]                       
                                                                                                               tfl_pseudo_qconst13   | 
------ ----------------------------------------------- ------------------ --------------- -------- ------------------------------- --- ------------------ ------------------ --------------------------------------- 
209    slice_209 (Slice, STRIDED_SLICE)                [b:1,h:1,c:100]                                                  concat_154   |                                       Slice_[148]                             
       reshape_209_reshape (Reshape, STRIDED_SLICE)    [b:1,c:100]                                                       slice_209   |                                       
------ ----------------------------------------------- ------------------ --------------- -------- ------------------------------- --- ------------------ ------------------ --------------------------------------- 
210    gemm_210 (Gemm, FULLY_CONNECTED)                [b:1,c:100]                          10,100             reshape_209_reshape   | +10,400(+100.0%)                      Dense_[149]                             
                                                                                                               tfl_pseudo_qconst10   | 
------ ----------------------------------------------- ------------------ --------------- -------- ------------------------------- --- ------------------ ------------------ --------------------------------------- 
211    eltwise_211 (Eltwise, ADD)                      [b:1,c:100]                             100                        gemm_210   |                                       Eltwise/add_[194]                       
                                                                                                                       eltwise_208   | 
------ ----------------------------------------------- ------------------ --------------- -------- ------------------------------- --- ------------------ ------------------ --------------------------------------- 
212    eltwise_212 (Eltwise, MUL)                      [b:1,c:100]                             100                     eltwise_211   | +1(+100.0%)                           Eltwise/mul_[195]                       
                                                                                                               tfl_pseudo_qconst11   | 
------ ----------------------------------------------- ------------------ --------------- -------- ------------------------------- --- ------------------ ------------------ --------------------------------------- 
213    eltwise_213 (Eltwise, ADD)                      [b:1,c:100]                             100                     eltwise_212   | +1(+100.0%)                           Eltwise/add_[196]                       
                                                                                                               tfl_pseudo_qconst11   | 
------ ----------------------------------------------- ------------------ --------------- -------- ------------------------------- --- ------------------ ------------------ --------------------------------------- 
214    tfl_pseudo_qconst27 (Placeholder, )             []                 1/1                                                        |                    +100(+100.0%)      Eltwise/min_[197]                       
       eltwise_214 (Eltwise, MINIMUM)                  [b:1,c:100]                             100                     eltwise_213   |                    -100(-100.0%)      
                                                                                                               tfl_pseudo_qconst27   | 
------ ----------------------------------------------- ------------------ --------------- -------- ------------------------------- --- ------------------ ------------------ --------------------------------------- 
215    nl_215 (Nonlinearity, RELU)                     [b:1,c:100]                             100                     eltwise_214   |                                       Nonlinearity_[198]                      
------ ----------------------------------------------- ------------------ --------------- -------- ------------------------------- --- ------------------ ------------------ --------------------------------------- 
216    conversion_216 (Conversion, DEQUANTIZE)         [b:1,c:100]                             200                          nl_215   |                                       Conversion_[199]                        
------ ----------------------------------------------- ------------------ --------------- -------- ------------------------------- --- ------------------ ------------------ --------------------------------------- 
217    nl_217 (Nonlinearity, ROUND)                    [b:1,c:100]                             200                  conversion_216   |                    +200(+100.0%)      Nonlinearity_/Conversion_[200, 201]     
------ ----------------------------------------------- ------------------ --------------- -------- ------------------------------- --- ------------------ ------------------ --------------------------------------- 
218    reshape_218 (Reshape, EXPAND_DIMS)              [b:1,h:1,c:100]                                                      nl_217   |                                       
------ ----------------------------------------------- ------------------ --------------- -------- ------------------------------- --- ------------------ ------------------ --------------------------------------- 
219    conversion_219 (Conversion, QUANTIZE)           [b:1,h:1,c:100]                         200                     reshape_218   |                    -200(-100.0%)      
------ ----------------------------------------------- ------------------ --------------- -------- ------------------------------- --- ------------------ ------------------ --------------------------------------- 
220    eltwise_220 (Eltwise, SUB)                      [b:1,c:100]                               1                  arith_constant   | +4(+100.0%)                           Eltwise/sub_[202]                       
                                                                                                                            nl_217   | 
------ ----------------------------------------------- ------------------ --------------- -------- ------------------------------- --- ------------------ ------------------ --------------------------------------- 
221    conversion_221 (Conversion, QUANTIZE)           [b:1,c:100]                             200                     eltwise_220   |                                       Conversion_[203]                        
------ ----------------------------------------------- ------------------ --------------- -------- ------------------------------- --- ------------------ ------------------ --------------------------------------- 
222    eltwise_222 (Eltwise, MUL)                      [b:1,c:100]                             100                     eltwise_211   |                                       Eltwise/mul_[204]                       
                                                                                                                    conversion_221   | 
------ ----------------------------------------------- ------------------ --------------- -------- ------------------------------- --- ------------------ ------------------ --------------------------------------- 
223    eltwise_223 (Eltwise, MUL)                      [b:1,c:100]                             100                     eltwise_222   | +100(+100.0%)                         Eltwise/mul_[205]                       
                                                                                                               tfl_pseudo_qconst13   | 
------ ----------------------------------------------- ------------------ --------------- -------- ------------------------------- --- ------------------ ------------------ --------------------------------------- 
224    slice_224 (Slice, STRIDED_SLICE)                [b:1,h:1,c:100]                                                  concat_154   |                                       Slice_[146]                             
       reshape_224_reshape (Reshape, STRIDED_SLICE)    [b:1,c:100]                                                       slice_224   |                                       
------ ----------------------------------------------- ------------------ --------------- -------- ------------------------------- --- ------------------ ------------------ --------------------------------------- 
225    gemm_225 (Gemm, FULLY_CONNECTED)                [b:1,c:100]                          10,100             reshape_224_reshape   | +10,400(+100.0%)                      Dense_[147]                             
                                                                                                               tfl_pseudo_qconst10   | 
------ ----------------------------------------------- ------------------ --------------- -------- ------------------------------- --- ------------------ ------------------ --------------------------------------- 
226    eltwise_226 (Eltwise, ADD)                      [b:1,c:100]                             100                        gemm_225   |                                       Eltwise/add_[206]                       
                                                                                                                       eltwise_223   | 
------ ----------------------------------------------- ------------------ --------------- -------- ------------------------------- --- ------------------ ------------------ --------------------------------------- 
227    eltwise_227 (Eltwise, MUL)                      [b:1,c:100]                             100                     eltwise_226   | +1(+100.0%)                           Eltwise/mul_[207]                       
                                                                                                               tfl_pseudo_qconst11   | 
------ ----------------------------------------------- ------------------ --------------- -------- ------------------------------- --- ------------------ ------------------ --------------------------------------- 
228    eltwise_228 (Eltwise, ADD)                      [b:1,c:100]                             100                     eltwise_227   | +1(+100.0%)                           Eltwise/add_[208]                       
                                                                                                               tfl_pseudo_qconst11   | 
------ ----------------------------------------------- ------------------ --------------- -------- ------------------------------- --- ------------------ ------------------ --------------------------------------- 
229    tfl_pseudo_qconst28 (Placeholder, )             []                 1/1                                                        |                    +100(+100.0%)      Eltwise/min_[209]                       
       eltwise_229 (Eltwise, MINIMUM)                  [b:1,c:100]                             100                     eltwise_228   |                    -100(-100.0%)      
                                                                                                               tfl_pseudo_qconst28   | 
------ ----------------------------------------------- ------------------ --------------- -------- ------------------------------- --- ------------------ ------------------ --------------------------------------- 
230    nl_230 (Nonlinearity, RELU)                     [b:1,c:100]                             100                     eltwise_229   |                                       Nonlinearity_[210]                      
------ ----------------------------------------------- ------------------ --------------- -------- ------------------------------- --- ------------------ ------------------ --------------------------------------- 
231    conversion_231 (Conversion, DEQUANTIZE)         [b:1,c:100]                             200                          nl_230   |                                       Conversion_[211]                        
------ ----------------------------------------------- ------------------ --------------- -------- ------------------------------- --- ------------------ ------------------ --------------------------------------- 
232    nl_232 (Nonlinearity, ROUND)                    [b:1,c:100]                             200                  conversion_231   |                    +200(+100.0%)      Nonlinearity_/Conversion_[212, 213]     
------ ----------------------------------------------- ------------------ --------------- -------- ------------------------------- --- ------------------ ------------------ --------------------------------------- 
233    reshape_233 (Reshape, EXPAND_DIMS)              [b:1,h:1,c:100]                                                      nl_232   |                                       
------ ----------------------------------------------- ------------------ --------------- -------- ------------------------------- --- ------------------ ------------------ --------------------------------------- 
234    conversion_234 (Conversion, QUANTIZE)           [b:1,h:1,c:100]                         200                     reshape_233   |                    -200(-100.0%)      
------ ----------------------------------------------- ------------------ --------------- -------- ------------------------------- --- ------------------ ------------------ --------------------------------------- 
235    eltwise_235 (Eltwise, SUB)                      [b:1,c:100]                               1                  arith_constant   | +4(+100.0%)                           Eltwise/sub_[214]                       
                                                                                                                            nl_232   | 
------ ----------------------------------------------- ------------------ --------------- -------- ------------------------------- --- ------------------ ------------------ --------------------------------------- 
236    conversion_236 (Conversion, QUANTIZE)           [b:1,c:100]                             200                     eltwise_235   |                                       Conversion_[215]                        
------ ----------------------------------------------- ------------------ --------------- -------- ------------------------------- --- ------------------ ------------------ --------------------------------------- 
237    eltwise_237 (Eltwise, MUL)                      [b:1,c:100]                             100                     eltwise_226   |                                       Eltwise/mul_[216]                       
                                                                                                                    conversion_236   | 
------ ----------------------------------------------- ------------------ --------------- -------- ------------------------------- --- ------------------ ------------------ --------------------------------------- 
238    eltwise_238 (Eltwise, MUL)                      [b:1,c:100]                             100                     eltwise_237   | +100(+100.0%)                         Eltwise/mul_[217]                       
                                                                                                               tfl_pseudo_qconst13   | 
------ ----------------------------------------------- ------------------ --------------- -------- ------------------------------- --- ------------------ ------------------ --------------------------------------- 
239    slice_239 (Slice, STRIDED_SLICE)                [b:1,h:1,c:100]                                                  concat_154   |                                       Slice_[144]                             
       reshape_239_reshape (Reshape, STRIDED_SLICE)    [b:1,c:100]                                                       slice_239   |                                       
------ ----------------------------------------------- ------------------ --------------- -------- ------------------------------- --- ------------------ ------------------ --------------------------------------- 
240    gemm_240 (Gemm, FULLY_CONNECTED)                [b:1,c:100]                          10,100             reshape_239_reshape   | +10,400(+100.0%)                      Dense_[145]                             
                                                                                                               tfl_pseudo_qconst10   | 
------ ----------------------------------------------- ------------------ --------------- -------- ------------------------------- --- ------------------ ------------------ --------------------------------------- 
241    eltwise_241 (Eltwise, ADD)                      [b:1,c:100]                             100                        gemm_240   |                                       Eltwise/add_[218]                       
                                                                                                                       eltwise_238   | 
------ ----------------------------------------------- ------------------ --------------- -------- ------------------------------- --- ------------------ ------------------ --------------------------------------- 
242    eltwise_242 (Eltwise, MUL)                      [b:1,c:100]                             100                     eltwise_241   | +1(+100.0%)                           Eltwise/mul_[219]                       
                                                                                                               tfl_pseudo_qconst11   | 
------ ----------------------------------------------- ------------------ --------------- -------- ------------------------------- --- ------------------ ------------------ --------------------------------------- 
243    eltwise_243 (Eltwise, ADD)                      [b:1,c:100]                             100                     eltwise_242   | +1(+100.0%)                           Eltwise/add_[220]                       
                                                                                                               tfl_pseudo_qconst11   | 
------ ----------------------------------------------- ------------------ --------------- -------- ------------------------------- --- ------------------ ------------------ --------------------------------------- 
244    tfl_pseudo_qconst29 (Placeholder, )             []                 1/1                                                        |                    +100(+100.0%)      Eltwise/min_[221]                       
       eltwise_244 (Eltwise, MINIMUM)                  [b:1,c:100]                             100                     eltwise_243   |                    -100(-100.0%)      
                                                                                                               tfl_pseudo_qconst29   | 
------ ----------------------------------------------- ------------------ --------------- -------- ------------------------------- --- ------------------ ------------------ --------------------------------------- 
245    nl_245 (Nonlinearity, RELU)                     [b:1,c:100]                             100                     eltwise_244   |                                       Nonlinearity_[222]                      
------ ----------------------------------------------- ------------------ --------------- -------- ------------------------------- --- ------------------ ------------------ --------------------------------------- 
246    conversion_246 (Conversion, DEQUANTIZE)         [b:1,c:100]                             200                          nl_245   |                                       Conversion_[223]                        
------ ----------------------------------------------- ------------------ --------------- -------- ------------------------------- --- ------------------ ------------------ --------------------------------------- 
247    nl_247 (Nonlinearity, ROUND)                    [b:1,c:100]                             200                  conversion_246   |                    +200(+100.0%)      Nonlinearity_/Conversion_[224, 225]     
------ ----------------------------------------------- ------------------ --------------- -------- ------------------------------- --- ------------------ ------------------ --------------------------------------- 
248    reshape_248 (Reshape, EXPAND_DIMS)              [b:1,h:1,c:100]                                                      nl_247   |                                       
------ ----------------------------------------------- ------------------ --------------- -------- ------------------------------- --- ------------------ ------------------ --------------------------------------- 
249    conversion_249 (Conversion, QUANTIZE)           [b:1,h:1,c:100]                         200                     reshape_248   |                    -200(-100.0%)      
------ ----------------------------------------------- ------------------ --------------- -------- ------------------------------- --- ------------------ ------------------ --------------------------------------- 
250    eltwise_250 (Eltwise, SUB)                      [b:1,c:100]                               1                  arith_constant   | +4(+100.0%)                           Eltwise/sub_[226]                       
                                                                                                                            nl_247   | 
------ ----------------------------------------------- ------------------ --------------- -------- ------------------------------- --- ------------------ ------------------ --------------------------------------- 
251    conversion_251 (Conversion, QUANTIZE)           [b:1,c:100]                             200                     eltwise_250   |                                       Conversion_[227]                        
------ ----------------------------------------------- ------------------ --------------- -------- ------------------------------- --- ------------------ ------------------ --------------------------------------- 
252    eltwise_252 (Eltwise, MUL)                      [b:1,c:100]                             100                     eltwise_241   |                                       Eltwise/mul_[228]                       
                                                                                                                    conversion_251   | 
------ ----------------------------------------------- ------------------ --------------- -------- ------------------------------- --- ------------------ ------------------ --------------------------------------- 
253    eltwise_253 (Eltwise, MUL)                      [b:1,c:100]                             100                     eltwise_252   | +100(+100.0%)                         Eltwise/mul_[229]                       
                                                                                                               tfl_pseudo_qconst13   | 
------ ----------------------------------------------- ------------------ --------------- -------- ------------------------------- --- ------------------ ------------------ --------------------------------------- 
254    slice_254 (Slice, STRIDED_SLICE)                [b:1,h:1,c:100]                                                  concat_154   |                                       Slice_[142]                             
       reshape_254_reshape (Reshape, STRIDED_SLICE)    [b:1,c:100]                                                       slice_254   |                                       
------ ----------------------------------------------- ------------------ --------------- -------- ------------------------------- --- ------------------ ------------------ --------------------------------------- 
255    gemm_255 (Gemm, FULLY_CONNECTED)                [b:1,c:100]                          10,100             reshape_254_reshape   | +10,400(+100.0%)                      Dense_[143]                             
                                                                                                               tfl_pseudo_qconst10   | 
------ ----------------------------------------------- ------------------ --------------- -------- ------------------------------- --- ------------------ ------------------ --------------------------------------- 
256    eltwise_256 (Eltwise, ADD)                      [b:1,c:100]                             100                        gemm_255   |                                       Eltwise/add_[230]                       
                                                                                                                       eltwise_253   | 
------ ----------------------------------------------- ------------------ --------------- -------- ------------------------------- --- ------------------ ------------------ --------------------------------------- 
257    eltwise_257 (Eltwise, MUL)                      [b:1,c:100]                             100                     eltwise_256   | +1(+100.0%)                           Eltwise/mul_[231]                       
                                                                                                               tfl_pseudo_qconst11   | 
------ ----------------------------------------------- ------------------ --------------- -------- ------------------------------- --- ------------------ ------------------ --------------------------------------- 
258    eltwise_258 (Eltwise, ADD)                      [b:1,c:100]                             100                     eltwise_257   | +1(+100.0%)                           Eltwise/add_[232]                       
                                                                                                               tfl_pseudo_qconst11   | 
------ ----------------------------------------------- ------------------ --------------- -------- ------------------------------- --- ------------------ ------------------ --------------------------------------- 
259    tfl_pseudo_qconst30 (Placeholder, )             []                 1/1                                                        |                    +100(+100.0%)      Eltwise/min_[233]                       
       eltwise_259 (Eltwise, MINIMUM)                  [b:1,c:100]                             100                     eltwise_258   |                    -100(-100.0%)      
                                                                                                               tfl_pseudo_qconst30   | 
------ ----------------------------------------------- ------------------ --------------- -------- ------------------------------- --- ------------------ ------------------ --------------------------------------- 
260    nl_260 (Nonlinearity, RELU)                     [b:1,c:100]                             100                     eltwise_259   |                                       Nonlinearity_[234]                      
------ ----------------------------------------------- ------------------ --------------- -------- ------------------------------- --- ------------------ ------------------ --------------------------------------- 
261    conversion_261 (Conversion, DEQUANTIZE)         [b:1,c:100]                             200                          nl_260   |                                       Conversion_[235]                        
------ ----------------------------------------------- ------------------ --------------- -------- ------------------------------- --- ------------------ ------------------ --------------------------------------- 
262    nl_262 (Nonlinearity, ROUND)                    [b:1,c:100]                             200                  conversion_261   |                    +200(+100.0%)      Nonlinearity_/Conversion_[236, 237]     
------ ----------------------------------------------- ------------------ --------------- -------- ------------------------------- --- ------------------ ------------------ --------------------------------------- 
263    reshape_263 (Reshape, EXPAND_DIMS)              [b:1,h:1,c:100]                                                      nl_262   |                                       
------ ----------------------------------------------- ------------------ --------------- -------- ------------------------------- --- ------------------ ------------------ --------------------------------------- 
264    conversion_264 (Conversion, QUANTIZE)           [b:1,h:1,c:100]                         200                     reshape_263   |                    -200(-100.0%)      
------ ----------------------------------------------- ------------------ --------------- -------- ------------------------------- --- ------------------ ------------------ --------------------------------------- 
265    eltwise_265 (Eltwise, SUB)                      [b:1,c:100]                               1                  arith_constant   | +4(+100.0%)                           Eltwise/sub_[238]                       
                                                                                                                            nl_262   | 
------ ----------------------------------------------- ------------------ --------------- -------- ------------------------------- --- ------------------ ------------------ --------------------------------------- 
266    conversion_266 (Conversion, QUANTIZE)           [b:1,c:100]                             200                     eltwise_265   |                                       Conversion_[239]                        
------ ----------------------------------------------- ------------------ --------------- -------- ------------------------------- --- ------------------ ------------------ --------------------------------------- 
267    eltwise_267 (Eltwise, MUL)                      [b:1,c:100]                             100                     eltwise_256   |                                       Eltwise/mul_[240]                       
                                                                                                                    conversion_266   | 
------ ----------------------------------------------- ------------------ --------------- -------- ------------------------------- --- ------------------ ------------------ --------------------------------------- 
268    eltwise_268 (Eltwise, MUL)                      [b:1,c:100]                             100                     eltwise_267   | +100(+100.0%)                         Eltwise/mul_[241]                       
                                                                                                               tfl_pseudo_qconst13   | 
------ ----------------------------------------------- ------------------ --------------- -------- ------------------------------- --- ------------------ ------------------ --------------------------------------- 
269    slice_269 (Slice, STRIDED_SLICE)                [b:1,h:1,c:100]                                                  concat_154   |                                       Slice_[140]                             
       reshape_269_reshape (Reshape, STRIDED_SLICE)    [b:1,c:100]                                                       slice_269   |                                       
------ ----------------------------------------------- ------------------ --------------- -------- ------------------------------- --- ------------------ ------------------ --------------------------------------- 
270    gemm_270 (Gemm, FULLY_CONNECTED)                [b:1,c:100]                          10,100             reshape_269_reshape   | +10,400(+100.0%)                      Dense_[141]                             
                                                                                                               tfl_pseudo_qconst10   | 
------ ----------------------------------------------- ------------------ --------------- -------- ------------------------------- --- ------------------ ------------------ --------------------------------------- 
271    eltwise_271 (Eltwise, ADD)                      [b:1,c:100]                             100                        gemm_270   |                                       Eltwise/add_[242]                       
                                                                                                                       eltwise_268   | 
------ ----------------------------------------------- ------------------ --------------- -------- ------------------------------- --- ------------------ ------------------ --------------------------------------- 
272    eltwise_272 (Eltwise, MUL)                      [b:1,c:100]                             100                     eltwise_271   | +1(+100.0%)                           Eltwise/mul_[243]                       
                                                                                                               tfl_pseudo_qconst11   | 
------ ----------------------------------------------- ------------------ --------------- -------- ------------------------------- --- ------------------ ------------------ --------------------------------------- 
273    eltwise_273 (Eltwise, ADD)                      [b:1,c:100]                             100                     eltwise_272   | +1(+100.0%)                           Eltwise/add_[244]                       
                                                                                                               tfl_pseudo_qconst11   | 
------ ----------------------------------------------- ------------------ --------------- -------- ------------------------------- --- ------------------ ------------------ --------------------------------------- 
274    tfl_pseudo_qconst31 (Placeholder, )             []                 1/1                                                        |                    +100(+100.0%)      Eltwise/min_[245]                       
       eltwise_274 (Eltwise, MINIMUM)                  [b:1,c:100]                             100                     eltwise_273   |                    -100(-100.0%)      
                                                                                                               tfl_pseudo_qconst31   | 
------ ----------------------------------------------- ------------------ --------------- -------- ------------------------------- --- ------------------ ------------------ --------------------------------------- 
275    nl_275 (Nonlinearity, RELU)                     [b:1,c:100]                             100                     eltwise_274   |                                       Nonlinearity_[246]                      
------ ----------------------------------------------- ------------------ --------------- -------- ------------------------------- --- ------------------ ------------------ --------------------------------------- 
276    conversion_276 (Conversion, DEQUANTIZE)         [b:1,c:100]                             200                          nl_275   |                                       Conversion_[247]                        
------ ----------------------------------------------- ------------------ --------------- -------- ------------------------------- --- ------------------ ------------------ --------------------------------------- 
277    nl_277 (Nonlinearity, ROUND)                    [b:1,c:100]                             200                  conversion_276   |                    +200(+100.0%)      Nonlinearity_/Conversion_[248, 249]     
------ ----------------------------------------------- ------------------ --------------- -------- ------------------------------- --- ------------------ ------------------ --------------------------------------- 
278    reshape_278 (Reshape, EXPAND_DIMS)              [b:1,h:1,c:100]                                                      nl_277   |                                       
------ ----------------------------------------------- ------------------ --------------- -------- ------------------------------- --- ------------------ ------------------ --------------------------------------- 
279    conversion_279 (Conversion, QUANTIZE)           [b:1,h:1,c:100]                         200                     reshape_278   |                    -200(-100.0%)      
------ ----------------------------------------------- ------------------ --------------- -------- ------------------------------- --- ------------------ ------------------ --------------------------------------- 
280    eltwise_280 (Eltwise, SUB)                      [b:1,c:100]                               1                  arith_constant   | +4(+100.0%)                           Eltwise/sub_[250]                       
                                                                                                                            nl_277   | 
------ ----------------------------------------------- ------------------ --------------- -------- ------------------------------- --- ------------------ ------------------ --------------------------------------- 
281    conversion_281 (Conversion, QUANTIZE)           [b:1,c:100]                             200                     eltwise_280   |                                       Conversion_[251]                        
------ ----------------------------------------------- ------------------ --------------- -------- ------------------------------- --- ------------------ ------------------ --------------------------------------- 
282    eltwise_282 (Eltwise, MUL)                      [b:1,c:100]                             100                     eltwise_271   |                                       Eltwise/mul_[252]                       
                                                                                                                    conversion_281   | 
------ ----------------------------------------------- ------------------ --------------- -------- ------------------------------- --- ------------------ ------------------ --------------------------------------- 
283    eltwise_283 (Eltwise, MUL)                      [b:1,c:100]                             100                     eltwise_282   | +100(+100.0%)                         Eltwise/mul_[253]                       
                                                                                                               tfl_pseudo_qconst13   | 
------ ----------------------------------------------- ------------------ --------------- -------- ------------------------------- --- ------------------ ------------------ --------------------------------------- 
284    slice_284 (Slice, STRIDED_SLICE)                [b:1,h:1,c:100]                                                  concat_154   |                                       Slice_[138]                             
       reshape_284_reshape (Reshape, STRIDED_SLICE)    [b:1,c:100]                                                       slice_284   |                                       
------ ----------------------------------------------- ------------------ --------------- -------- ------------------------------- --- ------------------ ------------------ --------------------------------------- 
285    gemm_285 (Gemm, FULLY_CONNECTED)                [b:1,c:100]                          10,100             reshape_284_reshape   | +10,400(+100.0%)                      Dense_[139]                             
                                                                                                               tfl_pseudo_qconst10   | 
------ ----------------------------------------------- ------------------ --------------- -------- ------------------------------- --- ------------------ ------------------ --------------------------------------- 
286    eltwise_286 (Eltwise, ADD)                      [b:1,c:100]                             100                        gemm_285   |                                       Eltwise/add_[254]                       
                                                                                                                       eltwise_283   | 
------ ----------------------------------------------- ------------------ --------------- -------- ------------------------------- --- ------------------ ------------------ --------------------------------------- 
287    eltwise_287 (Eltwise, MUL)                      [b:1,c:100]                             100                     eltwise_286   | +1(+100.0%)                           Eltwise/mul_[255]                       
                                                                                                               tfl_pseudo_qconst11   | 
------ ----------------------------------------------- ------------------ --------------- -------- ------------------------------- --- ------------------ ------------------ --------------------------------------- 
288    eltwise_288 (Eltwise, ADD)                      [b:1,c:100]                             100                     eltwise_287   | +1(+100.0%)                           Eltwise/add_[256]                       
…
1110   conversion_1110                 |                  0.0%   |                  0.0%   [997]            0.0%                    
1111   nl_1111                         |                  0.0%   |                  0.0%   [998, 999]       0.0%                    
1114   eltwise_1114                    |                  0.0%   |                  0.0%   [1000]           0.0%                    
1115   conversion_1115                 |                  0.0%   |                  0.0%   [1001]           0.0%                    
1116   eltwise_1116                    |                  0.0%   |                  0.0%   [1002]           0.0%                    
1117   eltwise_1117                    |                  0.0%   |                  0.1%   [1003]           0.0%                    
1118   slice_1118                      |                  0.0%   |                  0.0%   [972]            0.0%                    
1119   gemm_1119                       ||                 0.5%   ||                 6.1%   [973]            0.5%                    
1120   eltwise_1120                    |                  0.0%   |                  0.0%   [1004]           0.0%                    
1121   eltwise_1121                    |                  0.0%   |                  0.0%   [1005]           0.0%                    
1122   eltwise_1122                    |                  0.0%   |                  0.0%   [1006]           0.0%                    
1123   tfl_pseudo_qconst86             |                  0.0%   |                  0.0%   [1007]           0.0%                    
1124   nl_1124                         |                  0.0%   |                  0.0%   [1008]           0.0%                    
1125   conversion_1125                 |                  0.0%   |                  0.0%   [1009]           0.0%                    
1126   nl_1126                         |                  0.0%   |                  0.0%   [1010, 1011]     0.0%                    
1129   eltwise_1129                    |                  0.0%   |                  0.0%   [1012]           0.0%                    
1130   conversion_1130                 |                  0.0%   |                  0.0%   [1013]           0.0%                    
1131   eltwise_1131                    |                  0.0%   |                  0.0%   [1014]           0.0%                    
1132   eltwise_1132                    |                  0.0%   |                  0.1%   [1015]           0.0%                    
1133   slice_1133                      |                  0.0%   |                  0.0%   [970]            0.0%                    
1134   gemm_1134                       ||                 0.5%   ||                 6.1%   [971]            0.5%                    
1135   eltwise_1135                    |                  0.0%   |                  0.0%   [1016]           0.0%                    
1136   eltwise_1136                    |                  0.0%   |                  0.0%   [1017]           0.0%                    
1137   eltwise_1137                    |                  0.0%   |                  0.0%   [1018]           0.0%                    
1138   tfl_pseudo_qconst87             |                  0.0%   |                  0.0%   [1019]           0.0%                    
1139   nl_1139                         |                  0.0%   |                  0.0%   [1020]           0.0%                    
1140   conversion_1140                 |                  0.0%   |                  0.0%   [1021]           0.0%                    
1141   nl_1141                         |                  0.0%   |                  0.0%   [1022, 1023]     0.0%                    
1144   eltwise_1144                    |                  0.0%   |                  0.0%   [1024]           0.0%                    
1145   conversion_1145                 |                  0.0%   |                  0.0%   [1025]           0.0%                    
1146   eltwise_1146                    |                  0.0%   |                  0.0%   [1026]           0.0%                    
1147   eltwise_1147                    |                  0.0%   |                  0.1%   [1027]           0.0%                    
1148   slice_1148                      |                  0.0%   |                  0.0%   [968]            0.0%                    
1149   gemm_1149                       ||                 0.5%   ||                 6.1%   [969]            0.5%                    
1150   eltwise_1150                    |                  0.0%   |                  0.0%   [1028]           0.0%                    
1151   eltwise_1151                    |                  0.0%   |                  0.0%   [1029]           0.0%                    
1152   eltwise_1152                    |                  0.0%   |                  0.0%   [1030]           0.0%                    
1153   tfl_pseudo_qconst88             |                  0.0%   |                  0.0%   [1031]           0.0%                    
1154   nl_1154                         |                  0.0%   |                  0.0%   [1032]           0.0%                    
1155   conversion_1155                 |                  0.0%   |                  0.0%   [1033]           0.0%                    
1156   nl_1156                         |                  0.0%   |                  0.0%   [1034, 1035]     0.0%                    
1159   eltwise_1159                    |                  0.0%   |                  0.0%   [1036]           0.0%                    
1160   conversion_1160                 |                  0.0%   |                  0.0%   [1037]           0.0%                    
1161   eltwise_1161                    |                  0.0%   |                  0.0%   [1038]           0.0%                    
1162   eltwise_1162                    |                  0.0%   |                  0.1%   [1039]           0.0%                    
1163   slice_1163                      |                  0.0%   |                  0.0%   [966]            0.0%                    
1164   gemm_1164                       ||                 0.5%   ||                 6.1%   [967]            0.5%                    
1165   eltwise_1165                    |                  0.0%   |                  0.0%   [1040]           0.0%                    
1166   eltwise_1166                    |                  0.0%   |                  0.0%   [1041]           0.0%                    
1167   eltwise_1167                    |                  0.0%   |                  0.0%   [1042]           0.0%                    
1168   tfl_pseudo_qconst89             |                  0.0%   |                  0.0%   [1043]           0.0%                    
1169   nl_1169                         |                  0.0%   |                  0.0%   [1044]           0.0%                    
1170   conversion_1170                 |                  0.0%   |                  0.0%   [1045]           0.0%                    
1171   nl_1171                         |                  0.0%   |                  0.0%   [1046, 1047]     0.0%                    
1174   eltwise_1174                    |                  0.0%   |                  0.0%   [1048]           0.0%                    
1175   conversion_1175                 |                  0.0%   |                  0.0%   [1049]           0.0%                    
1176   eltwise_1176                    |                  0.0%   |                  0.0%   [1050]           0.0%                    
1177   eltwise_1177                    |                  0.0%   |                  0.1%   [1051]           0.0%                    
1178   slice_1178                      |                  0.0%   |                  0.0%   [964]            0.0%                    
1179   gemm_1179                       ||                 0.5%   ||                 6.1%   [965]            0.5%                    
1180   eltwise_1180                    |                  0.0%   |                  0.0%   [1052]           0.0%                    
1181   eltwise_1181                    |                  0.0%   |                  0.0%   [1053]           0.0%                    
1182   eltwise_1182                    |                  0.0%   |                  0.0%   [1054]           0.0%                    
1183   tfl_pseudo_qconst90             |                  0.0%   |                  0.0%   [1055]           0.0%                    
1184   nl_1184                         |                  0.0%   |                  0.0%   [1056]           0.0%                    
1185   conversion_1185                 |                  0.0%   |                  0.0%   [1057]           0.0%                    
1186   nl_1186                         |                  0.0%   |                  0.0%   [1058, 1059]     0.0%                    
1189   eltwise_1189                    |                  0.0%   |                  0.0%   [1060]           0.0%                    
1190   conversion_1190                 |                  0.0%   |                  0.0%   [1061]           0.0%                    
1191   eltwise_1191                    |                  0.0%   |                  0.0%   [1062]           0.0%                    
1192   eltwise_1192                    |                  0.0%   |                  0.1%   [1063]           0.0%                    
1193   slice_1193                      |                  0.0%   |                  0.0%   [962]            0.0%                    
1194   gemm_1194                       ||                 0.5%   ||                 6.1%   [963]            0.5%                    
1195   eltwise_1195                    |                  0.0%   |                  0.0%   [1064]           0.0%                    
1196   eltwise_1196                    |                  0.0%   |                  0.0%   [1065]           0.0%                    
1197   eltwise_1197                    |                  0.0%   |                  0.0%   [1066]           0.0%                    
1198   tfl_pseudo_qconst91             |                  0.0%   |                  0.0%   [1067]           0.0%                    
1199   nl_1199                         |                  0.0%   |                  0.0%   [1068]           0.0%                    
1200   conversion_1200                 |                  0.0%   |                  0.0%   [1069]           0.0%                    
1201   nl_1201                         |                  0.0%   |                  0.0%   [1070, 1071]     0.0%                    
1204   eltwise_1204                    |                  0.0%   |                  0.0%   [1072]           0.0%                    
1205   conversion_1205                 |                  0.0%   |                  0.0%   [1073]           0.0%                    
1206   eltwise_1206                    |                  0.0%   |                  0.0%   [1074]           0.0%                    
1207   eltwise_1207                    |                  0.0%   |                  0.1%   [1075]           0.0%                    
1208   slice_1208                      |                  0.0%   |                  0.0%   [960]            0.0%                    
1209   gemm_1209                       ||                 0.5%   ||                 6.1%   [961]            0.6%                    
1210   eltwise_1210                    |                  0.0%   |                  0.0%   [1076]           0.0%                    
1211   eltwise_1211                    |                  0.0%   |                  0.0%   [1077]           0.0%                    
1212   eltwise_1212                    |                  0.0%   |                  0.0%   [1078]           0.0%                    
1213   tfl_pseudo_qconst92             |                  0.0%   |                  0.0%   [1079]           0.0%                    
1214   nl_1214                         |                  0.0%   |                  0.0%   [1080]           0.0%                    
1215   conversion_1215                 |                  0.0%   |                  0.0%   [1081]           0.0%                    
1216   nl_1216                         |                  0.0%   |                  0.0%   [1082, 1083]     0.0%                    
1219   eltwise_1219                    |                  0.0%   |                  0.0%   [1084]           0.0%                    
1220   conversion_1220                 |                  0.0%   |                  0.0%   [1085]           0.0%                    
1221   eltwise_1221                    |                  0.0%   |                  0.0%   [1086]           0.0%                    
1222   eltwise_1222                    |                  0.0%   |                  0.1%   [1087]           0.0%                    
1223   eltwise_1223                    |                  0.0%   |                  0.0%   [1088]           0.0%                    
1224   eltwise_1224                    |                  0.0%   |                  0.0%   [1089]           0.0%                    
1225   eltwise_1225                    |                  0.0%   |                  0.0%   [1090]           0.0%                    
1226   tfl_pseudo_qconst93             |                  0.0%   |                  0.0%   [1091]           0.0%                    
1227   nl_1227                         |                  0.0%   |                  0.0%   [1092]           0.0%                    
1228   conversion_1228                 |                  0.0%   |                  0.0%   [1093]           0.0%                    
1229   nl_1229                         |                  0.0%   |                  0.0%   [1094, 1095]     0.0%                    
1232   concat_1232                     |                  0.0%   |                  0.0%   [1096]           0.0%                    
1240   slice_1240                      |                  0.0%   |                  0.0%   [1115]           0.0%                    
1241   tfl_pseudo_qconst3              ||                 0.5%   ||                 6.1%   [1116]           0.4%                    
1242   eltwise_1242                    |                  0.0%   |                  0.1%   [1117]           0.0%                    
1243   eltwise_1243                    |                  0.0%   |                  0.0%   [1118]           0.0%                    
1244   eltwise_1244                    |                  0.0%   |                  0.0%   [1119]           0.0%                    
1245   tfl_pseudo_qconst94             |                  0.0%   |                  0.0%   [1120]           0.0%                    
1246   nl_1246                         |                  0.0%   |                  0.0%   [1121]           0.0%                    
1247   conversion_1247                 |                  0.0%   |                  0.0%   [1122]           0.0%                    
1248   nl_1248                         |                  0.0%   |                  0.0%   [1123, 1124]     0.0%                    
1251   eltwise_1251                    |                  0.0%   |                  0.0%   [1125]           0.0%                    
1252   conversion_1252                 |                  0.0%   |                  0.0%   [1126]           0.0%                    
1253   eltwise_1253                    |                  0.0%   |                  0.0%   [1127]           0.0%                    
1254   eltwise_1254                    |                  0.0%   |                  0.1%   [1128]           0.0%                    
1255   slice_1255                      |                  0.0%   |                  0.0%   [1113]           0.0%                    
1256   gemm_1256                       ||                 0.5%   ||                 6.1%   [1114]           0.4%                    
1257   slice_1257                      |                  0.0%   |                  0.0%   [1111]           0.0%                    
1258   gemm_1258                       ||                 0.5%   ||                 6.1%   [1112]           0.4%                    
1259   eltwise_1259                    |                  0.0%   |                  0.0%   [1129]           0.0%                    
1260   eltwise_1260                    |                  0.0%   |                  0.0%   [1130]           0.0%                    
1261   eltwise_1261                    |                  0.0%   |                  0.0%   [1131]           0.0%                    
1262   tfl_pseudo_qconst95             |                  0.0%   |                  0.0%   [1132]           0.0%                    
1263   nl_1263                         |                  0.0%   |                  0.0%   [1133]           0.0%                    
1264   conversion_1264                 |                  0.0%   |                  0.0%   [1134]           0.0%                    
1265   nl_1265                         |                  0.0%   |                  0.0%   [1135, 1136]     0.0%                    
1268   eltwise_1268                    |                  0.0%   |                  0.0%   [1137]           0.0%                    
1269   conversion_1269                 |                  0.0%   |                  0.0%   [1138]           0.0%                    
1270   eltwise_1270                    |                  0.0%   |                  0.0%   [1139]           0.0%                    
1271   eltwise_1271                    |                  0.0%   |                  0.1%   [1140]           0.0%                    
1272   slice_1272                      |                  0.0%   |                  0.0%   [1109]           0.0%                    
1273   gemm_1273                       ||                 0.5%   ||                 6.1%   [1110]           0.4%                    
1274   eltwise_1274                    |                  0.0%   |                  0.0%   [1141]           0.0%                    
1275   eltwise_1275                    |                  0.0%   |                  0.0%   [1142]           0.0%                    
1276   eltwise_1276                    |                  0.0%   |                  0.0%   [1143]           0.0%                    
1277   tfl_pseudo_qconst96             |                  0.0%   |                  0.0%   [1144]           0.0%                    
1278   nl_1278                         |                  0.0%   |                  0.0%   [1145]           0.0%                    
1279   conversion_1279                 |                  0.0%   |                  0.0%   [1146]           0.0%                    
1280   nl_1280                         |                  0.0%   |                  0.0%   [1147, 1148]     0.0%                    
1283   eltwise_1283                    |                  0.0%   |                  0.0%   [1149]           0.0%                    
1284   conversion_1284                 |                  0.0%   |                  0.0%   [1150]           0.0%                    
1285   eltwise_1285                    |                  0.0%   |                  0.0%   [1151]           0.0%                    
1286   eltwise_1286                    |                  0.0%   |                  0.1%   [1152]           0.0%                    
1287   slice_1287                      |                  0.0%   |                  0.0%   [1107]           0.0%                    
1288   gemm_1288                       ||                 0.5%   ||                 6.1%   [1108]           0.4%                    
1289   eltwise_1289                    |                  0.0%   |                  0.0%   [1153]           0.0%                    
1290   eltwise_1290                    |                  0.0%   |                  0.0%   [1154]           0.0%                    
1291   eltwise_1291                    |                  0.0%   |                  0.0%   [1155]           0.0%                    
1292   tfl_pseudo_qconst97             |                  0.0%   |                  0.0%   [1156]           0.0%                    
1293   nl_1293                         |                  0.0%   |                  0.0%   [1157]           0.0%                    
1294   conversion_1294                 |                  0.0%   |                  0.0%   [1158]           0.0%                    
1295   nl_1295                         |                  0.0%   |                  0.0%   [1159, 1160]     0.0%                    
1298   eltwise_1298                    |                  0.0%   |                  0.0%   [1161]           0.0%                    
1299   conversion_1299                 |                  0.0%   |                  0.0%   [1162]           0.0%                    
1300   eltwise_1300                    |                  0.0%   |                  0.0%   [1163]           0.0%                    
1301   eltwise_1301                    |                  0.0%   |                  0.1%   [1164]           0.0%                    
1302   slice_1302                      |                  0.0%   |                  0.0%   [1105]           0.0%                    
1303   gemm_1303                       ||                 0.5%   ||                 6.1%   [1106]           0.5%                    
1304   eltwise_1304                    |                  0.0%   |                  0.0%   [1165]           0.0%                    
1305   eltwise_1305                    |                  0.0%   |                  0.0%   [1166]           0.0%                    
1306   eltwise_1306                    |                  0.0%   |                  0.0%   [1167]           0.0%                    
1307   tfl_pseudo_qconst98             |                  0.0%   |                  0.0%   [1168]           0.0%                    
1308   nl_1308                         |                  0.0%   |                  0.0%   [1169]           0.0%                    
1309   conversion_1309                 |                  0.0%   |                  0.0%   [1170]           0.0%                    
1310   nl_1310                         |                  0.0%   |                  0.0%   [1171, 1172]     0.0%                    
1313   eltwise_1313                    |                  0.0%   |                  0.0%   [1173]           0.0%                    
1314   conversion_1314                 |                  0.0%   |                  0.0%   [1174]           0.0%                    
1315   eltwise_1315                    |                  0.0%   |                  0.0%   [1175]           0.0%                    
1316   eltwise_1316                    |                  0.0%   |                  0.1%   [1176]           0.0%                    
1317   slice_1317                      |                  0.0%   |                  0.0%   [1103]           0.0%                    
1318   gemm_1318                       ||                 0.5%   ||                 6.1%   [1104]           0.5%                    
1319   eltwise_1319                    |                  0.0%   |                  0.0%   [1177]           0.0%                    
1320   eltwise_1320                    |                  0.0%   |                  0.0%   [1178]           0.0%                    
1321   eltwise_1321                    |                  0.0%   |                  0.0%   [1179]           0.0%                    
1322   tfl_pseudo_qconst99             |                  0.0%   |                  0.0%   [1180]           0.0%                    
1323   nl_1323                         |                  0.0%   |                  0.0%   [1181]           0.0%                    
1324   conversion_1324                 |                  0.0%   |                  0.0%   [1182]           0.0%                    
1325   nl_1325                         |                  0.0%   |                  0.0%   [1183, 1184]     0.0%                    
1328   eltwise_1328                    |                  0.0%   |                  0.0%   [1185]           0.0%                    
1329   conversion_1329                 |                  0.0%   |                  0.0%   [1186]           0.0%                    
1330   eltwise_1330                    |                  0.0%   |                  0.0%   [1187]           0.0%                    
1331   eltwise_1331                    |                  0.0%   |                  0.1%   [1188]           0.0%                    
1332   slice_1332                      |                  0.0%   |                  0.0%   [1101]           0.0%                    
1333   gemm_1333                       ||                 0.5%   ||                 6.1%   [1102]           0.4%                    
1334   eltwise_1334                    |                  0.0%   |                  0.0%   [1189]           0.0%                    
1335   eltwise_1335                    |                  0.0%   |                  0.0%   [1190]           0.0%                    
1336   eltwise_1336                    |                  0.0%   |                  0.0%   [1191]           0.0%                    
1337   tfl_pseudo_qconst100            |                  0.0%   |                  0.0%   [1192]           0.0%                    
1338   nl_1338                         |                  0.0%   |                  0.0%   [1193]           0.0%                    
1339   conversion_1339                 |                  0.0%   |                  0.0%   [1194]           0.0%                    
1340   nl_1340                         |                  0.0%   |                  0.0%   [1195, 1196]     0.0%                    
1343   eltwise_1343                    |                  0.0%   |                  0.0%   [1197]           0.0%                    
1344   conversion_1344                 |                  0.0%   |                  0.0%   [1198]           0.0%                    
1345   eltwise_1345                    |                  0.0%   |                  0.0%   [1199]           0.0%                    
1346   eltwise_1346                    |                  0.0%   |                  0.1%   [1200]           0.0%                    
1347   slice_1347                      |                  0.0%   |                  0.0%   [1099]           0.0%                    
1348   gemm_1348                       ||                 0.5%   ||                 6.1%   [1100]           0.4%                    
1349   eltwise_1349                    |                  0.0%   |                  0.0%   [1201]           0.0%                    
1350   eltwise_1350                    |                  0.0%   |                  0.0%   [1202]           0.0%                    
1351   eltwise_1351                    |                  0.0%   |                  0.0%   [1203]           0.0%                    
1352   tfl_pseudo_qconst101            |                  0.0%   |                  0.0%   [1204]           0.0%                    
1353   nl_1353                         |                  0.0%   |                  0.0%   [1205]           0.0%                    
1354   conversion_1354                 |                  0.0%   |                  0.0%   [1206]           0.0%                    
1355   nl_1355                         |                  0.0%   |                  0.0%   [1207, 1208]     0.0%                    
1358   eltwise_1358                    |                  0.0%   |                  0.0%   [1209]           0.0%                    
1359   conversion_1359                 |                  0.0%   |                  0.0%   [1210]           0.0%                    
1360   eltwise_1360                    |                  0.0%   |                  0.0%   [1211]           0.0%                    
1361   eltwise_1361                    |                  0.0%   |                  0.1%   [1212]           0.0%                    
1362   slice_1362                      |                  0.0%   |                  0.0%   [1097]           0.0%                    
1363   gemm_1363                       ||                 0.5%   ||                 6.1%   [1098]           0.6%                    
1364   eltwise_1364                    |                  0.0%   |                  0.0%   [1213]           0.0%                    
1365   eltwise_1365                    |                  0.0%   |                  0.0%   [1214]           0.0%                    
1366   eltwise_1366                    |                  0.0%   |                  0.0%   [1215]           0.0%                    
1367   tfl_pseudo_qconst102            |                  0.0%   |                  0.0%   [1216]           0.0%                    
1368   nl_1368                         |                  0.0%   |                  0.0%   [1217]           0.0%                    
1369   conversion_1369                 |                  0.0%   |                  0.0%   [1218]           0.0%                    
1370   nl_1370                         |                  0.0%   |                  0.0%   [1219, 1220]     0.0%                    
1373   eltwise_1373                    |                  0.0%   |                  0.0%   [1221]           0.0%                    
1374   conversion_1374                 |                  0.0%   |                  0.0%   [1222]           0.0%                    
1375   eltwise_1375                    |                  0.0%   |                  0.0%   [1223]           0.0%                    
1376   eltwise_1376                    |                  0.0%   |                  0.1%   [1224]           0.0%                    
1377   eltwise_1377                    |                  0.0%   |                  0.0%   [1225]           0.0%                    
1378   eltwise_1378                    |                  0.0%   |                  0.0%   [1226]           0.0%                    
1379   eltwise_1379                    |                  0.0%   |                  0.0%   [1227]           0.0%                    
1380   tfl_pseudo_qconst103            |                  0.0%   |                  0.0%   [1228]           0.0%                    
1381   nl_1381                         |                  0.0%   |                  0.0%   [1229]           0.0%                    
1382   conversion_1382                 |                  0.0%   |                  0.0%   [1230]           0.0%                    
1383   nl_1383                         |                  0.0%   |                  0.0%   [1231, 1232]     0.0%                    
1386   concat_1386                     |                  0.0%   |                  0.0%   [1233]           0.0%                    
1394   slice_1394                      |                  0.0%   |                  0.0%   [1252]           0.0%                    
1395   tfl_pseudo_qconst2              ||                 0.5%   ||                 6.1%   [1253]           0.4%                    
1396   eltwise_1396                    |                  0.0%   |                  0.1%   [1254]           0.0%                    
1397   eltwise_1397                    |                  0.0%   |                  0.0%   [1255]           0.0%                    
1398   eltwise_1398                    |                  0.0%   |                  0.0%   [1256]           0.0%                    
1399   tfl_pseudo_qconst104            |                  0.0%   |                  0.0%   [1257]           0.0%                    
1400   nl_1400                         |                  0.0%   |                  0.0%   [1258]           0.0%                    
1401   conversion_1401                 |                  0.0%   |                  0.0%   [1259]           0.0%                    
1402   nl_1402                         |                  0.0%   |                  0.0%   [1260, 1261]     0.0%                    
1405   eltwise_1405                    |                  0.0%   |                  0.0%   [1262]           0.0%                    
1406   conversion_1406                 |                  0.0%   |                  0.0%   [1263]           0.0%                    
1407   eltwise_1407                    |                  0.0%   |                  0.0%   [1264]           0.0%                    
1408   eltwise_1408                    |                  0.0%   |                  0.1%   [1265]           0.0%                    
1409   slice_1409                      |                  0.0%   |                  0.0%   [1250]           0.0%                    
1410   gemm_1410                       ||                 0.5%   ||                 6.1%   [1251]           0.5%                    
1411   slice_1411                      |                  0.0%   |                  0.0%   [1248]           0.0%                    
1412   gemm_1412                       ||                 0.5%   ||                 6.1%   [1249]           0.5%                    
1413   eltwise_1413                    |                  0.0%   |                  0.0%   [1266]           0.0%                    
1414   eltwise_1414                    |                  0.0%   |                  0.0%   [1267]           0.0%                    
1415   eltwise_1415                    |                  0.0%   |                  0.0%   [1268]           0.0%                    
1416   tfl_pseudo_qconst105            |                  0.0%   |                  0.0%   [1269]           0.0%                    
1417   nl_1417                         |                  0.0%   |                  0.0%   [1270]           0.0%                    
1418   conversion_1418                 |                  0.0%   |                  0.0%   [1271]           0.0%                    
1419   nl_1419                         |                  0.0%   |                  0.0%   [1272, 1273]     0.0%                    
1422   eltwise_1422                    |                  0.0%   |                  0.0%   [1274]           0.0%                    
1423   conversion_1423                 |                  0.0%   |                  0.0%   [1275]           0.0%                    
1424   eltwise_1424                    |                  0.0%   |                  0.0%   [1276]           0.0%                    
1425   eltwise_1425                    |                  0.0%   |                  0.1%   [1277]           0.0%                    
1426   slice_1426                      |                  0.0%   |                  0.0%   [1246]           0.0%                    
1427   gemm_1427                       ||                 0.5%   ||                 6.1%   [1247]           0.5%                    
1428   eltwise_1428                    |                  0.0%   |                  0.0%   [1278]           0.0%                    
1429   eltwise_1429                    |                  0.0%   |                  0.0%   [1279]           0.0%                    
1430   eltwise_1430                    |                  0.0%   |                  0.0%   [1280]           0.0%                    
1431   tfl_pseudo_qconst106            |                  0.0%   |                  0.0%   [1281]           0.0%                    
1432   nl_1432                         |                  0.0%   |                  0.0%   [1282]           0.0%                    
1433   conversion_1433                 |                  0.0%   |                  0.0%   [1283]           0.0%                    
1434   nl_1434                         |                  0.0%   |                  0.0%   [1284, 1285]     0.0%                    
1437   eltwise_1437                    |                  0.0%   |                  0.0%   [1286]           0.0%                    
1438   conversion_1438                 |                  0.0%   |                  0.0%   [1287]           0.0%                    
1439   eltwise_1439                    |                  0.0%   |                  0.0%   [1288]           0.0%                    
1440   eltwise_1440                    |                  0.0%   |                  0.1%   [1289]           0.0%                    
1441   slice_1441                      |                  0.0%   |                  0.0%   [1244]           0.0%                    
1442   gemm_1442                       ||                 0.5%   ||                 6.1%   [1245]           0.5%                    
1443   eltwise_1443                    |                  0.0%   |                  0.0%   [1290]           0.0%                    
1444   eltwise_1444                    |                  0.0%   |                  0.0%   [1291]           0.0%                    
1445   eltwise_1445                    |                  0.0%   |                  0.0%   [1292]           0.0%                    
1446   tfl_pseudo_qconst107            |                  0.0%   |                  0.0%   [1293]           0.0%                    
1447   nl_1447                         |                  0.0%   |                  0.0%   [1294]           0.0%                    
1448   conversion_1448                 |                  0.0%   |                  0.0%   [1295]           0.0%                    
1449   nl_1449                         |                  0.0%   |                  0.0%   [1296, 1297]     0.0%                    
1452   eltwise_1452                    |                  0.0%   |                  0.0%   [1298]           0.0%                    
1453   conversion_1453                 |                  0.0%   |                  0.0%   [1299]           0.0%                    
1454   eltwise_1454                    |                  0.0%   |                  0.0%   [1300]           0.0%                    
1455   eltwise_1455                    |                  0.0%   |                  0.1%   [1301]           0.0%                    
1456   slice_1456                      |                  0.0%   |                  0.0%   [1242]           0.0%                    
1457   gemm_1457                       ||                 0.5%   ||                 6.1%   [1243]           0.4%                    
1458   eltwise_1458                    |                  0.0%   |                  0.0%   [1302]           0.0%                    
1459   eltwise_1459                    |                  0.0%   |                  0.0%   [1303]           0.0%                    
1460   eltwise_1460                    |                  0.0%   |                  0.0%   [1304]           0.0%                    
1461   tfl_pseudo_qconst108            |                  0.0%   |                  0.0%   [1305]           0.0%                    
1462   nl_1462                         |                  0.0%   |                  0.0%   [1306]           0.0%                    
1463   conversion_1463                 |                  0.0%   |                  0.0%   [1307]           0.0%                    
1464   nl_1464                         |                  0.0%   |                  0.0%   [1308, 1309]     0.0%                    
1467   eltwise_1467                    |                  0.0%   |                  0.0%   [1310]           0.0%                    
1468   conversion_1468                 |                  0.0%   |                  0.0%   [1311]           0.0%                    
1469   eltwise_1469                    |                  0.0%   |                  0.0%   [1312]           0.0%                    
1470   eltwise_1470                    |                  0.0%   |                  0.1%   [1313]           0.0%                    
1471   slice_1471                      |                  0.0%   |                  0.0%   [1240]           0.0%                    
1472   gemm_1472                       ||                 0.5%   ||                 6.1%   [1241]           0.5%                    
1473   eltwise_1473                    |                  0.0%   |                  0.0%   [1314]           0.0%                    
1474   eltwise_1474                    |                  0.0%   |                  0.0%   [1315]           0.0%                    
1475   eltwise_1475                    |                  0.0%   |                  0.0%   [1316]           0.0%                    
1476   tfl_pseudo_qconst109            |                  0.0%   |                  0.0%   [1317]           0.0%                    
1477   nl_1477                         |                  0.0%   |                  0.0%   [1318]           0.0%                    
1478   conversion_1478                 |                  0.0%   |                  0.0%   [1319]           0.0%                    
1479   nl_1479                         |                  0.0%   |                  0.0%   [1320, 1321]     0.0%                    
1482   eltwise_1482                    |                  0.0%   |                  0.0%   [1322]           0.0%                    
1483   conversion_1483                 |                  0.0%   |                  0.0%   [1323]           0.0%                    
1484   eltwise_1484                    |                  0.0%   |                  0.0%   [1324]           0.0%                    
1485   eltwise_1485                    |                  0.0%   |                  0.1%   [1325]           0.0%                    
1486   slice_1486                      |                  0.0%   |                  0.0%   [1238]           0.0%                    
1487   gemm_1487                       ||                 0.5%   ||                 6.1%   [1239]           0.4%                    
1488   eltwise_1488                    |                  0.0%   |                  0.0%   [1326]           0.0%                    
1489   eltwise_1489                    |                  0.0%   |                  0.0%   [1327]           0.0%                    
1490   eltwise_1490                    |                  0.0%   |                  0.0%   [1328]           0.0%                    
1491   tfl_pseudo_qconst110            |                  0.0%   |                  0.0%   [1329]           0.0%                    
1492   nl_1492                         |                  0.0%   |                  0.0%   [1330]           0.0%                    
1493   conversion_1493                 |                  0.0%   |                  0.0%   [1331]           0.0%                    
1494   nl_1494                         |                  0.0%   |                  0.0%   [1332, 1333]     0.0%                    
1497   eltwise_1497                    |                  0.0%   |                  0.0%   [1334]           0.0%                    
1498   conversion_1498                 |                  0.0%   |                  0.0%   [1335]           0.0%                    
1499   eltwise_1499                    |                  0.0%   |                  0.0%   [1336]           0.0%                    
1500   eltwise_1500                    |                  0.0%   |                  0.1%   [1337]           0.0%                    
1501   slice_1501                      |                  0.0%   |                  0.0%   [1236]           0.0%                    
1502   gemm_1502                       ||                 0.5%   ||                 6.1%   [1237]           0.5%                    
1503   eltwise_1503                    |                  0.0%   |                  0.0%   [1338]           0.0%                    
1504   eltwise_1504                    |                  0.0%   |                  0.0%   [1339]           0.0%                    
1505   eltwise_1505                    |                  0.0%   |                  0.0%   [1340]           0.0%                    
1506   tfl_pseudo_qconst111            |                  0.0%   |                  0.0%   [1341]           0.0%                    
1507   nl_1507                         |                  0.0%   |                  0.0%   [1342]           0.0%                    
1508   conversion_1508                 |                  0.0%   |                  0.0%   [1343]           0.0%                    
1509   nl_1509                         |                  0.0%   |                  0.0%   [1344, 1345]     0.0%                    
1512   eltwise_1512                    |                  0.0%   |                  0.0%   [1346]           0.0%                    
1513   conversion_1513                 |                  0.0%   |                  0.0%   [1347]           0.0%                    
1514   eltwise_1514                    |                  0.0%   |                  0.0%   [1348]           0.0%                    
1515   eltwise_1515                    |                  0.0%   |                  0.1%   [1349]           0.0%                    
1516   slice_1516                      |                  0.0%   |                  0.0%   [1234]           0.0%                    
1517   gemm_1517                       ||                 0.5%   ||                 6.1%   [1235]           0.6%                    
1518   eltwise_1518                    |                  0.0%   |                  0.0%   [1350]           0.0%                    
1519   eltwise_1519                    |                  0.0%   |                  0.0%   [1351]           0.0%                    
1520   eltwise_1520                    |                  0.0%   |                  0.0%   [1352]           0.0%                    
1521   tfl_pseudo_qconst112            |                  0.0%   |                  0.0%   [1353]           0.0%                    
1522   nl_1522                         |                  0.0%   |                  0.0%   [1354]           0.0%                    
1523   conversion_1523                 |                  0.0%   |                  0.0%   [1355]           0.0%                    
1524   nl_1524                         |                  0.0%   |                  0.0%   [1356, 1357]     0.0%                    
1527   eltwise_1527                    |                  0.0%   |                  0.0%   [1358]           0.0%                    
1528   conversion_1528                 |                  0.0%   |                  0.0%   [1359]           0.0%                    
1529   eltwise_1529                    |                  0.0%   |                  0.0%   [1360]           0.0%                    
1530   eltwise_1530                    |                  0.0%   |                  0.1%   [1361]           0.0%                    
1531   eltwise_1531                    |                  0.0%   |                  0.0%   [1362]           0.0%                    
1532   eltwise_1532                    |                  0.0%   |                  0.0%   [1363]           0.0%                    
1533   eltwise_1533                    |                  0.0%   |                  0.0%   [1364]           0.0%                    
1534   tfl_pseudo_qconst113            |                  0.0%   |                  0.0%   [1365]           0.0%                    
1535   nl_1535                         |                  0.0%   |                  0.0%   [1366]           0.0%                    
1536   conversion_1536                 |                  0.0%   |                  0.0%   [1367]           0.0%                    
1537   nl_1537                         |                  0.0%   |                  0.0%   [1368, 1369]     0.0%                    
1540   concat_1540                     |                  0.1%   |                  0.0%   [1370, 1371]     0.0%                    
1541   reduce_1541                     |                  0.1%   |                  0.0%   [1372, 1373]     0.1%                    
1542   tfl_pseudo_qconst1              |                  0.1%   |                  0.6%   [1374]           0.1%                    
1543   nl_1543                         |                  0.0%   |                  0.0%   [1375]           0.0%                    
1544   conversion_1544                 |                  0.0%   |                  0.0%   [1376]           0.0%   2.27771560e-03   
------ ------------------------------- ------------------------- ------------------------- -------------- -------- ---------------- 
macc=1,860,150 weights=171,348 act=32,560 ram_io=0

Evaluation report (summary)
----------------------------------------------------------------------------------------------------------------------------------------------------------------------------
Output              acc      rmse          mae           l2r           mean        std        nse             cos        tensor                                             
----------------------------------------------------------------------------------------------------------------------------------------------------------------------------
TARGET c-model #1   20.00%   0.151503593   0.099804685   0.998282611   -0.099805   0.114558   -15236.497499   0.214879   'conversion_1544', 10 x uint8(1x10), m_id=[1544]   
original model #1   20.00%   0.151296988   0.099492185   0.998277903   -0.099492   0.114557   -15194.966812   0.215172   'conversion_1544', 10 x uint8(1x10), m_id=[1544]   
X-cross #1          90.00%   0.002277716   0.001093750   0.015008249   -0.000312   0.002268   0.999605        0.999888   'conversion_1544', 10 x uint8(1x10), m_id=[1544]   
----------------------------------------------------------------------------------------------------------------------------------------------------------------------------

 acc  : Accuracy (class, axis=-1)
 rmse : Root Mean Squared Error
 mae  : Mean Absolute Error
 l2r  : L2 relative error
 mean : Mean error
 std  : Standard deviation error
 nse  : Nash-Sutcliffe efficiency criteria, bigger is better, best=1, range=(-inf, 1]
 cos  : COsine Similarity, bigger is better, best=1, range=(0, 1]
